a.pth (torch, 381001 bytes, 32 tensors)

_impl.layers.0.linear.weight f4 [100, 4]
0.006782198 0.24927254 -0.3592194 -0.12528707 0.0293684 -0.09036721 -0.32768345 -0.34747678
0.026248368 -0.27497005 -0.3763312 -0.036728166 0.024989441 -0.3569726 -0.04774004 0.5710684
0.084148936 0.1969279 -0.2625078 -0.2707157 0.016798308 -0.2696625 0.29612508 -0.27330476
0.12762229 -0.16264288 0.22129582 -0.30174124 0.087734185 0.2029138 -0.32317543 0.18168744
0.069344975 -0.30220547 -0.32880548 0.36783487 -1.1203386 0.0075487723 -0.033841748 -0.04903439
-0.22201383 -0.06976992 0.2011253 0.072744906 -0.09924878 0.19523118 0.21098407 0.2874632
-0.45943215 -0.06750593 -0.009706417 -0.043725997 0.016582973 -0.29990518 -0.21393031 0.5067368
-0.48369697 -0.046669837 -0.008503163 -0.0147637725 -0.11980665 0.24655509 -0.2936813 -0.3199872
-0.4968913 -0.05066752 -0.009198972 -0.022395497 0.021204965 -0.2432346 0.52860135 -0.11274733
0.0073544816 0.20647678 -0.33880153 0.30267674 0.06619039 0.019529657 0.2790229 0.13626592
0.03232254 0.17038667 0.2539962 -0.24741696 -0.12978801 0.27861336 0.10941372 0.1826978
0.03494732 -0.16748756 -0.2834028 -0.1659883 -1.9245442 0.03677245 -0.032968998 -0.10407296
0.08711167 -0.15150653 0.3536289 0.32793695 -0.18414107 -0.061445687 -0.22627997 0.2596042
-0.6147827 -0.07125931 -0.016470458 -0.04343157 0.040808607 0.2552674 -0.3983721 0.3796447
-0.3291265 -0.12740782 -0.005536428 0.039924268 0.03272581 -0.19739245 -0.29966173 -0.32411072
0.060340617 -0.37720948 0.3996419 0.08801099 0.16260134 -0.12347059 0.24852304 -0.105664834
-0.41919726 -0.049593322 -0.0073961774 -0.012299653 0.11296307 -0.23889647 0.24912146 -0.15070127
0.012677628 -0.19232723 -0.38860184 0.39250144 -0.49789056 0.019896144 -0.001530547 -0.04039004
-0.74973065 -0.09406325 -0.042959213 -0.18441322 0.0152812805 -0.28122112 -0.3462178 0.37279803
-0.13066047 0.10704339 0.13917378 0.19624391 0.0074088327 -0.026479606 -0.34767902 0.30117467
0.107990034 -0.16293603 -0.32997644 0.1376781 0.16235024 0.17790893 -0.17513421 0.07184545
0.087628566 -0.16495611 -0.35120526 -0.26639065 0.10650325 -0.20604974 0.23394606 -0.089734
0.066852264 0.1889612 0.31747848 0.1607542 0.020468121 0.11066422 0.24324067 -0.16630661
-0.22326806 -0.03221537 -0.0035404607 0.1571822 0.0102142 -0.06180537 0.35114378 -0.11928994
0.0126966 -0.25915143 -0.3196469 0.41956663 0.01006323 0.11190837 0.3770674 -0.08138685
0.11926756 0.3567777 -0.14948763 -0.3591609 0.007074562 0.17147529 -0.3172598 0.31208253
0.008677726 0.25565988 -0.32212484 0.3477792 -0.52553064 -0.08866488 -0.013401065 -0.036997385
-0.48016444 -0.054276932 -0.008202454 -0.016696157 0.05049986 -0.22725374 -0.19884324 0.3137292
0.062194616 0.21522334 -0.22491051 0.3339941 -0.5837422 -0.04192367 -0.0024011135 -0.02972513
0.0053148973 0.20395294 -0.28935832 0.3322666 -0.17505741 -0.04812746 -0.18934153 0.17105822
0.10225911 -0.12333865 -0.27557155 -0.14785287 0.008344606 0.38814458 -0.41568926 0.0980334
0.14051963 0.26357746 -0.3483617 0.1752828 0.04107709 0.2737417 0.29892942 -0.36859182
00000000: 333d de3b 4d41 7f3e 9beb b7be 414b 00be
00000010: 0096 f03c 7212 b9bd 20c6 a7be 7ae8 b1be
00000020: d106 d73c e0c8 8cbe 7cae c0be 4670 16bd
00000030: a8b6 cc3c 1dc5 b6be 0f8b 43bd 8a31 123f
00000040: 4756 ac3d 78a7 493e 6c67 86be 409b 8abe
00000050: 9b9c 893c 3411 8abe b59d 973e 9aee 8bbe
00000060: 6baf 023e db8b 26be 5f9b 623e d47d 9abe
00000070: fbad b33d a3c8 4f3e 4077 a5be 460c 3a3e
00000080: bd04 8e3d adba 9abe 3159 a8be da54 bc3e
00000090: 4167 8fbf b15b f73b a59d 0abd 49d8 48bd
000000a0: 9857 63be 88e3 8ebd caf3 4d3e 48fb 943d
000000b0: f242 cbbd afea 473e 350c 583e 602e 933e
000000c0: b13a ebbe 8d40 8abd aa07 1fbc 081a 33bd
000000d0: 04d9 873c 2c8d 99be 8c10 5bbe 81b9 013f
000000e0: 21a7 f7be df28 3fbd da50 0bbc c0e3 71bc
000000f0: 305d f5bd f078 7c3e 655d 96be 5dd5 a3be
00000100: 8968 febe bf88 4fbd 49b7 16bc c376 b7bc
00000110: 09b6 ad3c 7e12 79be 6b52 073f 12e8 e6bd
00000120: ddfd f03b a66e 533e 6577 adbe 72f8 9a3e
00000130: d48e 873d a9fc 9f3c 17dc 8e3e 4b89 0b3e
00000140: a464 043d d879 2e3e ca0b 823e df5a 7dbe
00000150: 26e7 04be 69a6 8e3e 4d14 e03d 2215 3b3e
00000160: ec24 0f3d dc81 2bbe 2c1a 91be d6f8 29be
00000170: 7757 f6bf b59e 163d 800a 07bd 3424 d5bd
00000180: 9a67 b23d 8724 1bbe d90e b53e 5ae7 a73e
00000190: 7a8f 3cbe 79ae 7bbd f0b5 67be d7ea 843e
000001a0: 6662 1dbf 67f0 91bd 0eed 86bc 4de5 31bd
000001b0: ed26 273d 69b2 823e 6ef7 cbbe ca60 c23e
000001c0: 4583 a8be 3277 02be ed6a b5bb a187 233d
000001d0: 800b 063d 3f21 4abe 436d 99be d7f1 a5be
000001e0: b927 773d 9a21 c1be dd9d cc3e 1b3f b43d
000001f0: f780 263e 26de fcbd d37c 7e3e ce66 d8bd
00000200: 06a1 d6be 5e22 4bbd a25b f2bb 7c84 49bc
00000210: 2f59 e73d 47a1 74be b219 7f3e 6f51 1abe
00000220: d3b5 4f3c 6ef1 44be d2f6 c6be f3f5 c83e
00000230: 83eb febe 3dfd a23c a39c c8ba 0770 25bd
00000240: 59ee 3fbf 3ca4 c0bd 00f6 2fbd d2d6 3cbe
00000250: 565e 7a3c 37fc 8fbe 7643 b1be 62df be3e
00000260: dccb 05be 9139 db3d 9283 0e3e 2af4 483e
00000270: cbc5 f23b c2eb d8bc fc02 b2be 9133 9a3e
00000280: e129 dd3d b4d8 26be acf2 a8be 7dfb 0c3e
00000290: 243f 263e c22d 363e 6256 33be b523 933d
000002a0: 9b76 b33d 41ea 28be 2dd1 b3be 5b64 88be
000002b0: 601e da3d b4fe 52be 8e8f 6f3e 76c6 b7bd
000002c0: d7e9 883d 0b7f 413e 8a8c a23e c09c 243e
000002d0: c3ac a73c eca3 e23d 1514 793e 484c 2abe
000002e0: 62a0 64be 44f4 03bd 1307 68bb 5ff4 203e
000002f0: 7659 273c a127 7dbd 1ec9 b33e 494e f4bd
00000300: 6605 503c 7faf 84be c2a8 a3be 70d1 d63e
00000310: 3fe0 243c 3730 e53d fa0e c13e 26ae a6bd
00000320: 8d42 f43d 91ab b63e 4913 19be f0e3 b7be
00000330: bad1 e73b 3897 2f3e e06f a2be 48c9 9f3e
00000340: 052d 0e3c dae5 823e 8ced a4be 1e10 b23e
00000350: 2d89 06bf ef95 b5bd 2490 5bbc 928a 17bd
00000360: 1dd8 f5be 7d51 5ebd 9663 06bc 61c6 88bc
00000370: f1d8 4e3d 34b5 68be 909d 4bbe 1da1 a03e
00000380: c8bf 7e3d 8263 5c3e f14e 66be 4601 ab3e
00000390: 2170 15bf 27b8 2bbd 005c 1dbb 1e82 f3bc
000003a0: 9728 ae3b 0ad9 503e c626 94be d91e aa3e
000003b0: 4042 33be 4d21 45bd bfe2 41be e329 2f3e
000003c0: 396d d13d f998 fcbd b717 8dbe be66 17be
000003d0: d0b7 083c e3ba c63e 39d5 d4be bcc5 c83d
000003e0: 61e4 0f3e a0f3 863e 775c b2be 567d 333e
000003f0: 7340 283d df27 8c3e 470d 993e 11b8 bcbe

_impl.layers.0.linear.weight_g f4 [100, 1]
1.0870304 0.9264722 0.965873 1.0349679 0.9531192 1.0755758 0.9523495 0.93161416
0.93636096 1.62317 1.1239002 1.2610608 1.3309385 1.1786492 1.1346362 0.95416886
1.2068589 1.1606163 1.1413183 0.9769698 1.0024014 1.3071725 0.99008954 2.135749
0.9077313 1.0310446 2.0105326 0.8625462 1.1673012 0.97027403 0.86650735 0.95044124
1.3606346 0.95775145 1.3598801 1.793194 2.468769 1.1266612 1.1761521 1.2645466
0.926788 0.9420238 0.9826499 0.91984934 0.97825086 1.0178581 1.1865523 1.1361886
1.2949413 1.2892675 0.91619635 1.2299311 1.2076072 1.646655 1.2712672 0.92505085
0.88071847 1.3879513 1.0761646 1.0459387 0.9427299 1.2495207 0.9597009 0.91182417
0.94850576 1.07032 0.9713474 0.9290868 1.0827719 0.88582695 1.8671143 1.18292
0.9405505 1.4801812 1.6325245 0.8818378 0.89290535 1.3348947 1.2126713 1.1867537
1.1162329 1.3320982 1.2497358 0.936782 1.3454578 1.2454157 0.9069924 1.2021375
1.237578 1.3078283 0.9933438 1.9219918 1.2389342 1.1634921 1.8120161 1.1753536
1.3855517 1.1343741 1.09421 1.5328102
00000000: d023 8b3f 482d 6d3f 7443 773f d479 843f
00000010: 9fff 733f 78ac 893f 2dcd 733f 447e 6e3f
00000020: 5ab5 6f3f 09c4 cf3f f6db 8f3f 716a a13f
00000030: 315c aa3f fadd 963f c23b 913f 6944 743f
00000040: 5a7a 9a3f 138f 943f b816 923f b11a 7a3f
00000050: b04e 803f 6e51 a73f 8276 7d3f 1db0 0840
00000060: 1461 683f 45f9 833f 91ac 0040 d4cf 5c3f
00000070: 206a 953f e163 783f 6dd3 5d3f 1e50 733f
00000080: 4629 ae3f 332f 753f 8d10 ae3f 6287 e53f
00000090: 5000 1e40 6f36 903f 278c 963f aadc a13f
000000a0: fa41 6d3f 7928 713f f28e 7b3f 3f7b 6b3f
000000b0: a66e 7a3f 2d49 823f f2e0 973f a16e 913f
000000c0: a3c0 a53f b806 a53f d88b 6a3f 626e 9d3f
000000d0: df92 9a3f 97c5 d23f e2b8 a23f 22d0 6c3f
000000e0: c476 613f 63a8 b13f c3bf 893f 52e1 853f
000000f0: bf56 713f 4bf0 9f3f f5ae 753f 4f6d 693f
00000100: 46d1 723f 3f00 893f 39aa 783f a2d8 6d3f
00000110: 4598 8a3f 8ec5 623f 9afd ee3f ec69 973f
00000120: ebc7 703f 9476 bd3f 90f6 d03f 1fc0 613f
00000130: 7295 643f d4dd aa3f d038 9b3f 8ce7 973f
00000140: b8e0 8e3f 3282 aa3f 58f7 9f3f f2d0 6f3f
00000150: f637 ac3f c869 9f3f a730 683f a4df 993f
00000160: f568 9e3f eb66 a73f c74b 7e3f d403 f63f
00000170: 6595 9e3f 4fed 943f 25f0 e73f fd71 963f
00000180: c259 b13f 2c33 913f 130f 8c3f 2033 c43f

_impl.layers.0.linear.bias f4 [100]
-0.015696304 -0.19655402 -0.04022003 -0.09306473 -0.05690413 0.006977582 -0.041860424 -0.054184955
-0.031450525 0.22865862 0.40244249 0.3458596 -0.15420514 0.036792785 -0.30907813 0.5158218
-0.12567757 0.14291686 0.025996307 -0.07965077 -0.14525472 0.2678801 0.00022541339 -0.12814026
-0.17207916 0.025599696 -0.6769795 -0.16482472 -0.31254125 -0.06674659 -0.18091938 -0.06637707
-0.28375417 -0.041133124 0.14494203 0.12631829 0.15916048 0.075118534 0.44276455 0.04877931
-0.057664804 -0.08384059 -0.03351412 -0.095722124 -0.06968007 -0.045235198 0.035220828 0.06689158
0.1009279 0.03684726 -0.13443266 0.025105778 -0.005095663 -0.5999903 -0.21509689 -0.04999055
-0.15494359 0.17995025 -0.054694902 0.029481601 -0.08367193 0.010653815 -0.032249328 -0.21634221
-0.061134614 -0.011637141 -0.05333495 -0.02990913 0.005810004 -0.14222264 -0.63732934 -0.06726845
-0.076371826 -0.33424065 -0.09746902 -0.20147966 -0.28466004 0.037637495 0.042325873 0.014109894
0.0634499 -0.15485884 0.49972 -0.18747585 -0.0960966 -0.12294084 -0.118741065 0.027087312
0.030248562 0.062849894 0.17407757 0.57882035 0.041595962 0.012912618 -0.34661603 -0.032716278
0.2285647 -0.07115166 0.11620731 0.4733095
00000000: 8995 80bc 7545 49be c2bd 24bd b998 bebd
00000010: 4e14 69bd 33a4 e43b d675 2bbd 0bf1 5dbd
00000020: 44d2 00bd 7c25 6a3e f10c ce3e 8214 b13e
00000030: f4e7 1dbe 08b4 163d 7d3f 9ebe e60c 043f
00000040: 9fb1 00be cc58 123e 35f6 d43c f11f a3bd
00000050: a7bd 14be 9527 893e f25c 6c39 3337 03be
00000060: 8535 30be 74b6 d13c 874e 2dbf d0c7 28be
00000070: 6805 a0be 70b2 88bd ee42 39be b4f0 87bd
00000080: 3a48 91be 357b 28bd af6b 143e 9559 013e
00000090: f7fa 223e bfd7 993d 09b2 e23e d0cc 473d
000000a0: ee31 6cbd 9eb4 abbd 1a46 09bd f609 c4bd
000000b0: 6db4 8ebd 8b48 39bd b743 103d 74fe 883d
000000c0: 49b3 ce3d 27ed 163d b7a8 09be a2aa cd3c
000000d0: 85f9 a6bb f798 19bf 5c42 5cbe e4c2 4cbd
000000e0: 88a9 1ebe e144 383e c307 60bd 6683 f13c
000000f0: 305c abbd 578d 2e3c df17 04bd d088 5dbe
00000100: 4a68 7abd b5a9 3ebc c075 5abd fe03 f5bc
00000110: d961 be3b d0a2 11be 0428 23bf 0bc4 89bd
00000120: d568 9cbd 9721 abbe d69d c7bd af50 4ebe
00000130: f6be 91be c629 1a3d e55d 2d3d 2f2d 673c
00000140: 05f2 813d 5193 1ebe 4ddb ff3e abf9 3fbe
00000150: 4bce c4bd 68c8 fbbd 842e f3bd 36e6 dd3c
00000160: d5cb f73c 72b7 803d 6441 323e 922d 143f
00000170: 8760 2a3d 728f 533c a877 b1be 8101 06bd
00000180: dd0c 6a3e f6b7 91bd 19fe ed3d 9f55 f23e

_impl.layers.1.linear.weight f4 [100, 100]
0.1437779 -0.26166347 0.052135136 0.2777349 -0.13270135 -0.19073753 -0.07366593 0.013989669
0.053817406 0.1283867 -0.012203201 0.11302192 -0.05926922 0.09906392 0.23828237 0.17523015
0.16388313 0.15161851 0.10163682 0.119938955 -0.10766286 -0.29542625 -0.18091476 -0.15421753
0.067564264 0.046226364 0.025002042 -0.014766134 0.116825625 -0.36142567 0.13650781 0.049128275
0.062411018 -0.037586756 0.01201641 0.16321786 -0.20310979 0.022357918 -0.13676576 -0.1981389
0.03040871 0.09955156 -0.2507049 0.08465635 -0.03519794 -0.18800953 0.20133238 -0.11821009
-0.088384904 0.33930826 0.09005042 -0.0036547957 0.3671767 0.13389112 -0.18684143 0.07139542
-0.10800044 0.18177047 -0.037392028 0.1458305 0.047953058 -0.14046974 0.01908134 -0.034042854
0.09442892 0.06295602 -0.15725096 -0.1595012 0.05065317 -0.049399592 -0.09191184 0.70638794
0.031690482 0.2693464 -0.10061864 0.06866018 0.20046736 0.35457194 -0.17364378 -0.19758011
-0.20371425 -0.19033891 -0.29041964 0.15854982 0.108744726 0.21103545 0.08390545 -0.061160766
0.057240497 -0.048881207 -0.22768538 0.10859025 -0.24759717 0.009434606 -0.121455036 0.26623085
-0.16728456 0.14251122 -0.15096699 -0.15801263 0.06723423 0.15734558 -0.20539929 -0.35648468
-0.044470094 -0.10367966 0.069326095 -0.11389965 -0.04042439 0.029957024 -0.17836791 -0.5457413
0.107900895 -0.16978687 0.18439405 -0.029554123 0.12707895 -0.2706753 -0.103846096 -0.0921858
-0.010855996 -0.4743887 -0.15002562 0.109111525 -0.27216274 -0.2397543 -0.12601806 -0.2240773
-0.21414521 0.02285239 -0.32275084 -0.017536761 -0.10716488 -0.06682714 -0.2682622 0.14948238
0.12640558 -0.38222992 -0.47265917 -0.03765079 0.09877632 -0.12351517 0.04048355 -0.14111082
-0.09513388 -0.19718924 -0.2877847 -0.19123921 -0.28387797 -0.20983411 0.07548216 0.14134967
-0.17226517 0.08224351 0.09029064 -0.10447695 -0.22276546 0.144495 -0.19161892 -0.17142634
0.1311387 0.11112992 0.12151852 0.09966476 -0.33252516 -0.33512676 0.062821664 -0.19975817
0.027431171 0.09856091 -0.18099064 -0.14570343 -0.12296726 0.19394712 0.055019118 -0.20917195
-0.32713515 -0.36280513 -0.21645537 -0.03766918 0.14473364 0.113264225 -0.50636 -0.40814704
0.027954375 0.13898641 -0.06998449 -0.22030827 -0.056842927 0.021758096 -0.2620019 0.20907848
0.1464717 -0.05611038 0.11229302 -0.33122978 -0.25021914 -0.32871607 -0.13439842 0.20551066
-0.007925326 -0.05606182 -0.07318282 -0.044681482 -0.08914875 -0.07731016 -0.2486716 -0.1151676
-0.12885623 -0.12728179 -0.2717394 -0.10309635 -0.0888251 -0.04253262 -0.1089243 0.08073343
-0.13167901 -0.06546487 0.0150862755 -0.24502319 -0.08610949 -0.055664822 -0.12933101 -0.024502719
-0.17867264 -0.116046414 -0.0017099221 -0.05812903 -0.19184454 -0.07501181 -0.11193881 -0.3451643
-0.16565995 -0.22029196 -0.04997247 -0.14117108 0.013944765 -0.03908935 -0.25149098 -0.035392806
-0.3728275 -0.34251052 -0.27108678 -0.39731374 -0.077552624 -0.085635856 -0.20490979 -0.048594948
-0.05102452 -0.004993947 -0.26302192 -0.017843422 0.013462399 -0.031793438 -0.12394688 -0.12790628
00000000: 843a 133e c1f8 85be a78b 553d 4533 8e3e
00000010: dde2 07be b350 43be 2ade 96bd ed34 653c
00000020: a46f 5c3d ce77 033e efef 47bc 0978 e73d
00000030: 48c4 72bd 06e2 ca3d 4b00 743e 886f 333e
00000040: fbd0 273e e241 1b3e f726 d03d 8ea2 f53d
00000050: 587e dcbd 1c42 97be b841 39be 33eb 1dbe
00000060: 225f 8a3d db57 3d3d 15d1 cc3c a8ed 71bc
00000070: 4642 ef3d c90c b9be b4c8 0b3e bb3a 493d
00000080: b2a2 7f3d 92f4 19bd 7ae0 443c 9522 273e
00000090: 03fc 4fbe f427 b73c 530c 0cbe ece4 4abe
000000a0: b01b f93c b0e1 cb3d 655c 80be 4f60 ad3d
000000b0: b72b 10bd 9285 40be 132a 4e3e 2218 f2bd
000000c0: 2503 b5bd d0b9 ad3e 5b6c b83d 4c85 6fbb
000000d0: 96fe bb3e c11a 093e 5c53 3fbe c337 923d
000000e0: 562f ddbd 0a22 3a3e 6228 19bd 9754 153e
000000f0: 6d6a 443d 4dd7 0fbe 7850 9c3c 8570 0bbd
00000100: f363 c13d 16ef 803d 6506 21be 4854 23be
00000110: b379 4f3d 3a57 4abd 463c bcbd d7d5 343f
00000120: e1cd 013d c5e7 893e 2511 cebd b59d 8c3d
00000130: 5147 4d3e 748a b53e adcf 31be 7152 4abe
00000140: 789a 50be 34e8 42be e2b1 94be e25a 223e
00000150: 8eb5 de3d ad19 583e 9fd6 ab3d b683 7abd
00000160: 0375 6a3d a937 48bd 5b26 69be 9164 de3d
00000170: 1d8a 7dbe 9b93 1a3c 6bbd f8bd 694f 883e
00000180: a54c 2bbe 76ee 113e 1797 1abe 10ce 21be
00000190: 1ab2 893d 331f 213e 3154 52be 2985 b6be
000001a0: 4626 36bd 0056 d4bd d7fa 8d3d 3844 e9bd
000001b0: 0c94 25bd 6f68 f53c 14a6 36be b4b5 0bbf
000001c0: 25fb dc3d 9cdc 2dbe cbd1 3c3e 7d1b f2bc
000001d0: fc20 023e f495 8abe 43ad d4bd e9cb bcbd
000001e0: 59dd 31bc 13e3 f2be 51a0 19be dd75 df3d
000001f0: ea58 8bbe 2782 75be e10a 01be 8574 65be
00000200: e248 5bbe ef34 bb3c 993f a5be 41a9 8fbc
00000210: 4379 dbbd abdc 88bd aa59 89be e911 193e
00000220: 7770 013e a4b3 c3be 6200 f2be b737 1abd
00000230: 3d4b ca3d 85f5 fcbd 14d2 253d 5b7f 10be
00000240: 8dd5 c2bd faeb 49be 8458 93be 36d4 43be
00000250: 7458 91be c1de 56be 6496 9a3d f8bd 103e
00000260: 4866 30be 496f a83d 4dea b83d 03f8 d5bd
00000270: a11c 64be 7ff6 133e c037 44be 638a 2fbe
00000280: 3949 063e 1598 e33d b4de f83d 0a1d cc3d
00000290: bd40 aabe bc95 abbe a5a8 803d 688d 4cbe
000002a0: 56b7 e03c 4dda c93d 9c55 39be 4833 15be
000002b0: 42d6 fbbd 139a 463e ba5b 613d 2c31 56be
000002c0: 427e a7be 98c1 b9be 7aa6 5dbe 004b 1abd
000002d0: 0e35 143e 13f7 e73d cfa0 01bf a6f8 d0be
000002e0: 9300 e53c 7452 0e3e 0754 8fbd 7e98 61be
000002f0: 21d4 68bd 093e b23c 1d25 86be ab18 563e
00000300: adfc 153e ffd3 65bd e2f9 e53d f396 a9be
00000310: b91c 80be 794d a8be bd9f 09be 6371 523e
00000320: 3ad9 01bc 14a1 65bd e0e0 95bd ee03 37bd
00000330: 9f93 b6bd ca54 9ebd c5a3 7ebe fedc ebbd
00000340: e3f2 03be 2856 02be 6d21 8bbe 2e24 d3bd
00000350: efe9 b5bd af36 2ebd b413 dfbd 9257 a53d
00000360: ddd6 06be 7212 86bd 6d2c 773c 5ce7 7abe
00000370: 2c5a b0bd cc00 64bd 596f 04be edb9 c8bc
00000380: f6f5 36be bea9 edbd 771f e0ba b518 6ebd
00000390: e572 44be cb9f 99bd 2d40 e5bd 60b9 b0be
000003a0: c3a2 29be 3794 61be efaf 4cbd 278f 10be
000003b0: 9578 643c 271c 20bd 6dc3 80be 0cf8 10bd
000003c0: 3fe3 bebe 8a5d afbe e3cb 8abe b56c cbbe
000003d0: e9d3 9ebd da61 afbd dfd3 51be 7f0b 47bd
000003e0: 16ff 50bd 44a4 a3bb cfaa 86be 5e2c 92bc
000003f0: 6591 5c3c d639 02bd ddd7 fdbd ddf9 02be

_impl.layers.1.linear.weight_g f4 [100, 1]
0.86557966 1.1971848 1.2432537 1.0757573 1.2783663 1.4751779 1.0926273 0.28210297
0.8910861 1.0957228 1.1143754 0.95095116 0.7146359 1.0970792 0.9812776 0.9945706
1.5922709 0.31778187 1.0204935 1.0792277 0.6890282 0.70700705 0.8501408 1.0280697
1.6237223 0.8114508 1.3749871 1.1005379 0.9981131 1.1992079 0.7941657 1.3426234
1.0307738 1.2412387 0.8291716 1.316822 0.8489753 0.8892876 0.94856167 1.0285206
0.81010765 1.101298 1.3835915 2.2951512 0.86569065 0.77341497 1.0944719 1.1139514
1.0098596 1.1088108 1.097273 1.0908984 1.0084573 1.0990617 0.9938621 0.9799504
0.8415681 1.0537661 0.74466825 0.9952173 1.0932285 0.94624776 1.0885364 1.024777
1.1569554 1.3382744 1.417267 1.1434819 1.0909997 1.1309794 1.0974066 1.2252613
1.0166001 0.5974795 1.4096963 1.0261307 0.995362 1.1264756 1.1297411 0.7288484
1.0756502 1.017578 1.1329287 1.1579567 0.9589693 0.94751066 1.0130935 1.0666953
0.9644666 1.14005 1.1620419 0.0004516173 0.8563262 1.1390318 0.98555124 1.1993984
0.67608553 1.2375456 1.0287313 1.064337
00000000: a196 5d3f 5a3d 993f f022 9f3f 6ab2 893f
00000010: 82a1 a33f a1d2 bc3f 36db 8b3f cd6f 903e
00000020: 381e 643f a540 8c3f daa3 8e3f 8971 733f
00000030: 61f2 363f 176d 8c3f 0235 7b3f 2e9c 7e3f
00000040: 88cf cb3f 4eb4 a23e 889f 823f 2224 8a3f
00000050: 2764 303f 6afe 343f d4a2 593f ca97 833f
00000060: 22d6 cf3f 3dbb 4f3f 94ff af3f 6dde 8c3f
00000070: 5784 7f3f a57f 993f 714e 4b3f 15db ab3f
00000080: 65f0 833f e9e0 9e3f 9744 543f a08d a83f
00000090: 7256 593f 5aa8 633f f0d4 723f 90a6 833f
000000a0: 3763 4f3f 55f7 8c3f 8719 b13f c2e3 1240
000000b0: e79d 5d3f 86fe 453f a817 8c3f f695 8e3f
000000c0: 1443 813f 83ed 8d3f 7173 8c3f 8fa2 8b3f
000000d0: 2115 813f 0eae 8c3f bf6d 7e3f 08de 7a3f
000000e0: 0271 573f cfe1 863f 94a2 3e3f 90c6 7e3f
000000f0: e9ee 8b3f 4b3d 723f 2955 8b3f e52b 833f
00000100: 1d17 943f 934c ab3f 0169 b53f 9d5d 923f
00000110: e1a5 8b3f efc3 903f d277 8c3f 5dd5 9c3f
00000120: f41f 823f 6bf4 183f ee70 b43f 4058 833f
00000130: 0bd0 7e3f 5a30 903f 5b9b 903f cf95 3a3f
00000140: e8ae 893f ff3f 823f cf03 913f ed37 943f
00000150: 037f 753f 0f90 723f 0cad 813f 7989 883f
00000160: 48e7 763f 29ed 913f cabd 943f 0cc7 ec39
00000170: 3238 5b3f cbcb 913f 164d 7c3f e385 993f
00000180: f113 2d3f e567 9e3f 78ad 833f 323c 883f

_impl.layers.1.linear.bias f4 [100]
-0.13666557 0.17374544 0.06759734 0.10419272 -0.023372896 -0.041304737 -0.056035705 0.014566752
0.10257134 0.03877272 -0.07263256 -0.064845614 0.2467365 0.006178301 -0.014258189 0.16425204
0.23389444 -0.08442622 -0.065213785 0.042739883 -0.085947245 0.20721811 0.19371636 -0.048235815
0.30248103 -0.12119076 -0.40246102 0.33299044 -0.0028989248 0.1532016 0.07725601 0.21684672
-0.11025998 0.35232 0.3433052 0.089986764 0.06551071 -0.030342095 -0.03527723 -0.007753649
0.21166548 -0.20412774 -0.2540144 -0.3844499 -0.12437561 0.2080421 0.4125539 0.10587124
-0.007447658 0.2805965 0.043536957 -0.033829715 0.16668603 0.27969217 -0.03867649 -0.12904568
0.15288137 -0.018446967 0.003355042 0.0013453094 0.20693952 0.11702632 0.034356747 0.037597623
0.04000199 0.2637924 -0.16891296 -0.042619184 0.12937732 0.0106804 0.28826484 0.3279257
-0.0029480173 0.2174976 0.26354763 0.17111439 -0.033912204 0.12975346 -0.0030610256 0.33300453
-0.018055081 0.20502806 0.10397468 -0.08099863 -0.07559424 -0.026934298 0.20216036 0.03671378
-0.01568812 0.019660136 0.03140137 0.00016617746 0.28274345 0.16604114 -0.086744115 0.078694895
0.2230415 0.1319165 -0.026484378 -0.034653064
00000000: 0ff2 0bbe 53ea 313e 7970 8a3d fe62 d53d
00000010: 8478 bfbc 282f 29bd b285 65bd 63a9 6e3c
00000020: ec10 d23d 25d0 1e3d 61c0 94bd c7cd 84bd
00000030: 7ea8 7c3e 5873 ca3b 2e9b 69bc b031 283e
00000040: 0682 6f3e a7e7 acbd ce8e 85bd 0410 2f3d
00000050: 1c05 b0bd fc30 543e 955d 463e eb92 45bd
00000060: cbde 9a3e dc32 f8bd 5f0f cebe b97d aa3e
00000070: e3fb 3dbb e1e0 1c3e 6638 9e3d 110d 5e3e
00000080: fccf e1bd 4963 b43e b3c5 af3e fb4a b83d
00000090: 7b2a 863d fc8f f8bc db7e 10bd 5212 febb
000000a0: d6be 583e dd06 51be 2d0e 82be 9ed6 c4be
000000b0: a4b8 febd fd08 553e 443a d33e 05d3 d83d
000000c0: 7c0b f4bb 58aa 8f3e cf53 323d 0791 0abd
000000d0: beaf 2a3e d033 8f3e 3d6b 1ebd 8d24 04be
000000e0: ef8c 1c3e 181e 97bc 44e0 5b3b 1855 b03a
000000f0: f4e7 533e 7fab ef3d a9b9 0c3d f7ff 193d
00000100: 20d9 233d cc0f 873e 85f7 2cbe 7491 2ebd
00000110: 7d7b 043e d8fc 2e3c 7397 933e e1e5 a73e
00000120: 8633 41bb b1b7 5e3e b7ef 863e 9c38 2f3e
00000130: 86e7 0abd 17de 043e 7d9b 48bb 927f aa3e
00000140: 40e8 93bc e0f2 513e adf0 d43d 9ce2 a5bd
00000150: 27d1 9abd 51a5 dcbc 2003 4f3e 3061 163d
00000160: 5f84 80bc 4b0e a13c b99e 003d ec3f 2e39
00000170: c0c3 903e b006 2a3e e6a6 b1bd ca2a a13d
00000180: fe64 643e 1e15 073e c4f5 d8bc 5ff0 0dbd

_impl.layers.2.linear.weight f4 [100, 100]
-0.1506759 -0.10539032 -0.1164375 -0.071210176 -0.23413043 -0.3620062 -0.7118629 0.04654149
0.038031187 -0.13411854 -0.21292214 -0.13201855 -0.06653184 -0.16212246 -0.2402172 0.033702604
-0.038080398 -0.18186939 -0.39462832 -0.27877003 -0.05780916 0.21991631 -0.066959895 -0.010351
0.12984964 0.062286537 -0.26187137 -0.117529474 0.081393026 -0.069165066 -0.11122712 -0.06592563
-0.06048383 -0.19375598 -0.004571461 0.0047930735 -0.043513462 -0.0700674 -0.16014224 -0.19350813
-0.113251835 -0.061365757 -0.16352776 -0.14185467 -0.3792879 0.14756747 -0.1272981 -0.13865244
-0.13707535 0.013155222 -0.0013518402 0.067955256 -0.18673092 0.037999902 -0.2024376 0.0010616657
-0.14136638 -0.24692352 0.07742964 -0.1908314 -0.15933041 0.096082084 -0.08992111 -0.020682035
0.0704695 -0.031431083 -0.29470468 -0.19258209 -0.11294245 0.054915812 -0.16083892 0.010509753
0.015371365 0.0508716 -0.043327343 -0.065517895 -0.013044064 -0.13891172 -0.044048212 -0.11090798
-0.12604001 -0.0970147 0.1249628 0.036285505 0.055005506 0.042245768 0.044421066 -0.08238599
-0.07004578 0.017912488 -0.017874079 0.10378771 -0.07794883 0.19497138 -0.42140436 -0.10227283
0.11161319 -0.07965912 0.15002714 -0.8275266 0.04199888 -0.115726 0.02372649 0.09504483
-0.070737936 0.3113012 0.044790704 -0.028139627 0.27286345 0.20882438 0.012224255 -0.45339116
0.16669413 -0.036779344 0.056997374 0.019918276 0.058003046 -0.03752736 -0.1396026 -0.087208934
-0.1905202 0.06925095 0.14004053 0.04676818 -0.030678539 -0.15781464 0.043968737 -0.13650297
0.12278067 -0.037280682 -0.15371414 0.2123294 -0.0016319902 -0.033861697 -0.07020781 -0.027722022
0.16482517 0.17432275 0.02266759 0.14757782 -0.08756537 0.010766322 0.036230568 0.020654999
-0.44401905 -0.08446785 0.078362264 -0.23043272 0.04523407 -0.046662364 -0.002412541 0.032088537
-0.049955063 -0.0896101 -0.122388296 -0.045189455 -0.026496755 0.26768807 -0.13259584 0.072916105
-0.046880003 0.032470457 0.27310574 0.18165858 0.19042195 -0.0075309365 0.031155812 -0.12690252
-0.13500677 -0.02349743 -0.07601527 -0.0068444116 0.056879237 0.18042679 -0.0024667394 -0.12913422
0.1095324 -0.003125858 0.10962631 0.033550486 -0.2659531 -0.08314424 -0.06701049 0.040787503
-0.10291351 -0.0096994825 0.043839253 0.23442501 0.08016478 -0.18224466 -0.11491858 0.0012942044
0.0831779 -0.6456429 0.0070373137 -0.02739897 0.08303391 -0.10969551 0.032307055 -0.12146128
-0.13224052 -0.057578668 0.0102341585 -0.12767719 -0.021654088 -0.40938747 -0.50989676 0.0012410643
0.0219927 0.14646395 -0.36341366 0.11209356 -0.030168617 -0.16519833 -0.25205517 0.11143461
-0.26454663 -0.005916093 -0.18481869 -0.09014505 -0.11232287 0.05688423 0.0054792403 -0.02309441
-0.018967278 -0.040508643 -0.1007694 -0.092737615 0.17524618 -0.095617555 0.051097468 -0.27014613
-0.3136942 -0.04685966 -0.03558275 -0.03561963 -0.0877766 -0.10387985 -0.047402386 -0.056299996
-0.16827893 -0.07995268 -0.07926205 -0.025452878 -0.102482036 0.13399729 -0.16798183 0.06131011
-0.05530968 0.016283154 -0.21822606 0.095605284 -0.13329436 -0.16247675 -0.19338089 -0.11243161
00000000: c84a 1abe e1d6 d7bd c976 eebd a4d6 91bd
00000010: e3bf 6fbe e058 b9be a63c 36bf 4aa2 3e3d
00000020: 97c6 1b3d 5f56 09be 4308 5abe df2f 07be
00000030: d841 88bd 6e03 26be 7ffb 75be be0b 0a3d
00000040: 31fa 1bbd f83b 3abe b90c cabe f2ba 8ebe
00000050: 4cc9 6cbd be31 613e 4522 89bd 3e97 29bc
00000060: 4ef7 043e 2b20 7f3d 0114 86be 4bb3 f0bd
00000070: 63b1 a63d 6aa6 8dbd 0bcb e3bd 0404 87bd
00000080: e4bd 77bd f867 46be 32cc 95bb 370f 9d3b
00000090: 2c3b 32bd 7f7f 8fbd 54fc 23be ff26 46be
000000a0: 94f0 e7bd a95a 7bbd d273 27be 5a42 11be
000000b0: 0632 c2be ed1b 173e 6f5a 02be e8fa 0dbe
000000c0: 7b5d 0cbe 0089 573c 3b30 b1ba 202c 8b3d
000000d0: 6436 3fbe c9a5 1b3d cd4b 4fbe 9727 8b3a
000000e0: 59c2 10be 85d9 7cbe 6e93 9e3d 4e69 43be
000000f0: 8327 23be afc6 c43d 8f28 b8bd 5f6d a9bc
00000100: 5052 903d e1bd 00bd 88e3 96be 3d34 45be
00000110: 5f4e e7bd 67ef 603d f5b2 24be 1931 2c3c
00000120: 2dd8 7b3c bd5e 503d 0378 31bd 3f2e 86bd
00000130: c5b6 55bc e03e 0ebe e66b 34bd b923 e3bd
00000140: a210 01be a5af c6bd 7fec ff3d 1ca0 143d
00000150: 744d 613d e609 2d3d ddf2 353d fcb9 a8bd
00000160: 2974 8fbd 36bd 923c a96c 92bc a78e d43d
00000170: a3a3 9fbd 94a6 473e 50c2 d7be 6b74 d1bd
00000180: 7595 e43d 5224 a3bd b7a0 193e c9d8 53bf
00000190: 0507 2c3d c101 edbd 0e5e c23c dda6 c23d
000001a0: 0ddf 90bd df62 9f3e 7576 373d 1385 e6bc
000001b0: c2b4 8b3e 0fd6 553e 3e48 483c e322 e8be
000001c0: deb1 2a3e f0a5 16bd 1476 693d a72b a33c
000001d0: 9a94 6d3d 4ab6 19bd fcf3 0ebe 999a b2bd
000001e0: ba17 43be 71d3 8d3d c966 0f3e fe8f 3f3d
000001f0: 8f51 fbbc 299a 21be 9018 343d 6fc7 0bbe
00000200: 6f74 fb3d a1b3 18bd 3d67 1dbe e16c 593e
00000210: 81e8 d5ba 90b2 0abd 1dc9 8fbd 4b19 e3bc
00000220: eec7 283e aa81 323e 62b1 b93c a41e 173e
00000230: 7955 b3bd 3a65 303c 8166 143d ac34 a93c
00000240: 7756 e3be 7bfd acbd 657c a03d 8ef6 6bbe
00000250: 5c47 393d 0921 3fbd b91b 1ebb 456f 033d
00000260: ae9d 4cbd 8085 b7bd b7a6 fabd 9418 39bd
00000270: b90f d9bc 690e 893e 34c7 07be 0a55 953d
00000280: 3f05 40bd beff 043d 84d4 8b3e b504 3a3e
00000290: f9fd 423e 13c6 f6bb 793a ff3c bcf2 01be
000002a0: 373f 0abe af7d c0bc e5ad 9bbd 1647 e0bb
000002b0: 34fa 683d cdc1 383e 05a9 21bb c33b 04be
000002c0: 8652 e03d 32db 4cbb c283 e03d 3c6c 093d
000002d0: 012b 88be 8747 aabd cc3c 89bd cc10 273d
000002e0: 51c4 d2bd 94ea 1ebc ca90 333d 1c0d 703e
000002f0: 6f2d a43d 589e 3abe 6f5a ebbd 4ba2 a93a
00000300: 2d59 aa3d da48 25bf 4499 e63b ce73 e0bc
00000310: af0d aa3d 0aa8 e0bd 6754 043d b1c0 f8bd
00000320: 0f6a 07be 9cd7 6bbd 2cad 273c cfbd 02be
00000330: ea63 b1bc 3c9b d1be 9888 02bf 35ab a23a
00000340: 092a b43c a5fa 153e 5b11 babe 4f91 e53d
00000350: 2d24 f7bc c029 29be 600d 81be d437 e43d
00000360: a872 87be c9db c1bb 1c41 3dbe f89d b8bd
00000370: 8809 e6bd 70ff 683d 338b b33b 7d30 bdbc
00000380: 4461 9bbc 64ec 25bd 3060 cebd 38ed bdbd
00000390: bc73 333e 23d3 c3bd 944b 513d 9850 8abe
000003a0: 879c a0be eaef 3fbd 38bf 11bd e4e5 11bd
000003b0: 38c4 b3bd f5be d4bd 0129 42bd d39a 66bd
000003c0: 5051 2cbe 3bbe a3bd 2454 a2bd 8e82 d0bc
000003d0: 1ae2 d1bd 9636 093e 6e03 2cbe 4f20 7b3d
000003e0: 678c 62bd 4064 853c a776 5fbe b4cc c33d
000003f0: 517e 08be 4e60 26be a405 46be 8b42 e6bd

_impl.layers.2.linear.weight_g f4 [100, 1]
1.0520422 1.3360234 1.8668891 0.9679084 1.1975898 0.97523034 0.95618045 1.1423724
0.98883384 1.1841828 1.3521198 1.2537938 1.421481 1.2531837 1.4205295 1.3095638
1.1097982 0.9969897 1.0264806 0.97230124 1.2496514 1.0131451 1.0196193 1.0250179
1.0865811 1.2439226 1.2717566 1.4186171 1.777446 1.281258 1.6266998 1.0681951
1.612705 0.9853602 1.0330216 1.4674621 1.0629513 1.0069526 1.2041079 1.0755273
1.0243316 1.3641782 1.0737411 1.054975 1.0384959 0.9363715 1.1640203 1.21511
1.2228099 0.98043406 1.2395052 1.2658253 1.0842257 1.0089706 1.415268 1.0813005
1.0185997 0.9720416 1.1081156 0.9501958 1.1679007 1.2674707 1.013116 1.0465183
1.1913991 1.1965557 1.2736846 1.2309266 1.1792203 2.314069 1.2128434 1.040088
1.2901244 1.1982223 1.0937935 1.2947419 1.3219422 1.4938451 1.067278 1.1509897
1.1553308 1.172752 0.98770654 1.0211762 1.1547111 1.0202727 1.3264902 1.1275883
1.1041468 1.3657651 0.9766473 1.1916993 1.080389 1.3340764 1.1560946 1.2083598
1.7851524 0.980084 1.1741662 1.128187
00000000: 52a9 863f d102 ab3f 39f6 ee3f d8c8 773f
00000010: 9f4a 993f b2a8 793f 3ec8 743f 4239 923f
00000020: 3724 7d3f 4d93 973f 4312 ad3f 517c a03f
00000030: 17f3 b53f 5368 a03f e9d3 b53f c99f a73f
00000040: de0d 8e3f b83a 7f3f b763 833f bce8 783f
00000050: 94f4 9f3f bdae 813f e382 823f c933 833f
00000060: 1715 8b3f db38 9f3f ecc8 a23f 3f95 b53f
00000070: 5a83 e33f 4300 a43f b337 d03f 9eba 883f
00000080: 1e6d ce3f 9140 7c3f 0d3a 843f ccd5 bb3f
00000090: ca0e 883f d3e3 803f 3520 9a3f e1aa 893f
000000a0: 4c1d 833f 649d ae3f 5970 893f 6c09 873f
000000b0: 6fed 843f 0bb6 6f3f 9efe 943f b988 9b3f
000000c0: 0985 9c3f bafd 7a3f 1ba8 9e3f 9006 a23f
000000d0: e8c7 8a3f f325 813f 8027 b53f 0e68 8a3f
000000e0: 7a61 823f b8d7 783f bbd6 8d3f 0840 733f
000000f0: c57d 953f 7b3c a23f c9ad 813f 50f4 853f
00000100: c47f 983f bd28 993f 1908 a33f 018f 9d3f
00000110: b1f0 963f b519 1440 743e 9b3f 9b21 853f
00000120: cc22 a53f 595f 993f 6d01 8c3f 1aba a53f
00000130: 6735 a93f 5136 bf3f 919c 883f a153 933f
00000140: e1e1 933f bd1c 963f 56da 7c3f e7b5 823f
00000150: 93cd 933f 4c98 823f 6eca a93f d054 903f
00000160: af54 8d3f 64d1 ae3f 8f05 7a3f 9a89 983f
00000170: 304a 8a3f 04c3 aa3f e8fa 933f 89ab 9a3f
00000180: e07f e43f c9e6 7a3f 144b 963f 6e68 903f

_impl.layers.2.linear.bias f4 [100]
0.08493125 0.10820152 0.08793414 0.044488322 0.08456956 -0.09731617 -0.18374813 -0.015559788
0.020147579 -0.08808483 0.11446621 0.0623855 -0.0018289614 0.043790497 0.12950814 0.027197236
-0.058231764 0.000523618 -0.11234594 0.00047641006 0.0934268 -0.16258556 -0.07738787 0.1021834
-0.12296465 0.04630039 0.17644261 0.02842808 0.2576748 -0.24394199 -0.16900925 0.048176065
0.11281706 0.01615823 0.06308828 0.39398798 -0.03508238 -0.03427287 0.104660995 0.22969829
-0.061957896 0.06423975 0.017887298 0.06751369 0.018190404 -0.13773048 -0.018198093 -0.011023989
0.09467084 -0.17287503 0.0830535 0.084690325 -0.041739948 -0.2264724 0.08746027 0.09964341
-0.03756826 -0.21196653 -0.001068227 -0.24104542 0.054542623 -0.2510754 -0.031102937 -0.030189889
0.023539344 -0.017184151 0.11340642 0.066497415 -0.017028565 0.27363673 -0.066631824 -0.0026829927
0.0277616 0.02218717 0.035843812 0.037037745 0.06761097 0.27101275 0.015885651 -0.016931577
0.058241595 -0.020248706 0.07127126 -0.12396778 0.038894925 0.23316228 0.015381498 0.13472287
-0.16876428 0.21903352 -0.13235909 -0.07078127 -0.078558594 -0.07825816 0.18969059 -0.0010390077
0.14528637 0.09989455 -0.10381473 -0.065536015
00000000: 6ff0 ad3d c298 dd3d d016 b43d 6339 363d
00000010: ce32 ad3d b34d c7bd 7828 3cbe 7bee 7ebc
00000020: 890c a53c d265 b4bd 436d ea3d f087 7f3d
00000030: c3b9 efba aa5d 333d c89d 043e bdcc de3c
00000040: 6e84 6ebd 6943 093a a115 e6bd adc6 f939
00000050: 8d56 bf3d d47c 26be 887d 9ebd 8845 d13d
00000060: e4d4 fbbd 7aa5 3d3d 5fad 343e 01e2 e83c
00000070: f4ed 833e eecb 79be c310 2dbe 4454 453d
00000080: a10c e73d 445e 843c 6e34 813d cbb8 c93e
00000090: 8bb2 0fbd b561 0cbd 8158 d63d 0736 6b3e
000000a0: 90c7 7dbd 2190 833d 6288 923c 9e44 8a3d
000000b0: 0b04 953c 3809 0dbe 2b14 95bc f69d 34bc
000000c0: c9e2 c13d 2706 31be f417 aa3d 1f72 ad3d
000000d0: 82f7 2abd 61e8 67be 5f1e b33d d811 cc3d
000000e0: 2de1 19bd c10d 59be c003 8cba 9cd4 76be
000000f0: 1668 5f3d f48c 80be 96cb febc c950 f7bc
00000100: 95d5 c03c c7c5 8cbc a041 e83d cc2f 883d
00000110: 7d7f 8bbc 1d1a 8c3e 4476 88bd 26d5 2fbb
00000120: 4c6c e33c dec1 b53c f6d0 123d e4b4 173d
00000130: 9f77 8a3d 2fc2 8a3e a022 823c 17b4 8abc
00000140: bd8e 6e3d 9de0 a5bc abf6 913d d2e2 fdbd
00000150: 4950 1f3d 18c2 6e3e ae02 7c3c cbf4 093e
00000160: 8bd0 2cbe 534a 603e 2489 07be c5f5 90bd
00000170: 54e3 a0bd d045 a0bd 403e 423e 502f 88ba
00000180: f3c5 143e 8495 cc3d d19c d4bd bf37 86bd

_impl.layers.3.linear.weight f4 [100, 100]
0.08468109 -0.030764196 1.0265425 -0.03145206 -0.10941903 -0.04332562 -0.23297761 -0.067630365
0.057841677 0.015804183 -0.13280222 -0.00952146 0.14987007 0.11204219 0.02814682 0.33566073
-0.043118633 0.011457914 -0.08793023 -0.27591994 0.015214407 -0.09072893 0.021391535 0.11663073
-0.38012165 0.04898411 0.028858623 0.21583816 0.4403021 -0.20586446 -0.0440468 -0.07334816
-0.08377662 -0.06694921 0.034668095 0.14339703 -0.18816625 0.016660891 0.117980205 0.06263926
-0.2283037 -0.0758894 0.003193693 0.032221247 0.011493496 -0.0024182545 -0.05049372 -0.0677052
0.12474271 -0.12482308 0.012198094 0.06410301 0.11236612 -0.21713977 0.28684694 0.09929949
-0.0200224 -0.09975498 -0.014144612 -0.091888025 -0.07134117 0.04017948 -0.06014796 -0.32813302
0.045216825 0.033465087 -0.05974778 0.014278287 0.15121709 0.069670975 -0.16365172 -0.20355517
0.20251475 0.074980535 0.074581265 -0.11182293 0.11955309 0.030249616 -0.27715927 -0.12271006
0.055667106 -0.036582306 0.03751689 0.0036859848 -0.016545169 0.05128569 -0.0043924064 0.044875946
-0.03722406 -0.070932746 -0.12683028 0.016534507 -0.03694178 -0.03274869 0.14698523 0.104506105
-0.022629017 0.081149235 0.086028345 0.01879497 -0.014825682 -0.2058828 0.08035885 -0.012750663
-0.03269874 -0.009065112 0.04286185 0.20400903 0.0010058334 -0.05219715 -0.1715962 0.068163455
-0.03234824 -0.012888563 -0.113033235 0.093143284 -0.04861714 0.05593984 0.0035552413 0.057161998
-0.00395892 -0.020289937 0.081070416 0.08617615 0.16799521 -0.016993176 -0.14978147 0.0949451
0.27568915 -0.06650391 0.016276926 -0.07980964 -0.069849335 -0.022582129 -0.015266365 0.019608827
-0.13611045 0.022096546 -0.024812737 -0.05900438 -0.020535663 -0.10055271 -0.0093862135 0.026398333
-0.018585974 0.018276542 0.11421297 -0.08933442 0.32437614 0.12457027 -0.0046427906 0.0025438785
0.079645015 -0.102140315 0.039073378 0.004662648 0.010216694 -0.07670156 0.045650847 0.04088411
-0.011807551 0.021727314 0.09729961 0.00022489372 0.024026051 0.62575 -0.1742278 0.04947296
0.54271716 -0.0007437654 0.006754489 0.010117752 0.12423245 -0.0208644 0.069709964 -0.12663336
0.0854158 0.0046505374 -0.06130054 -0.020745916 -0.036928564 0.14482845 -0.009680887 -0.07101081
-0.004002405 -0.08645686 0.48431706 0.044386577 -0.009057488 0.012760358 0.060222946 -0.032459013
0.12407719 -0.013509151 -0.004827327 0.3861321 -0.038192213 0.04204877 0.12629591 0.0021809784
0.0629614 0.11087447 -0.21247305 0.08453299 0.023946404 -0.1035081 -0.18251926 -0.23417854
0.13120475 -0.12736888 -0.08248951 -0.07793194 0.0066611515 -0.0024242168 0.22006206 0.031935517
0.06018783 -0.06631079 -0.11623289 0.09931283 -0.02481561 -0.14470738 0.13088958 0.15820254
-0.06633119 -0.09586368 0.09643471 -0.14069849 -0.28632894 0.037582062 -0.1516655 0.012737139
-0.18630262 -0.060328793 0.1311913 0.12078478 0.028736796 -0.014079892 -0.10917096 0.13173842
-0.016501324 0.21139093 0.094028935 -0.10905627 -0.05774699 0.074201055 0.19023314 -0.034704205
-0.20921396 -0.1485469 0.025620049 0.10702284 0.026917633 -0.057545193 -0.09664937 0.12378585
00000000: 486d ad3d 3205 fcbc bf65 833f e0d3 00bd
00000010: 1617 e0bd 3576 31bd af91 6ebe ca81 8abd
00000020: 65eb 6c3d c677 813c 4efd 07be e6ff 1bbc
00000030: 8a77 193e 6076 e53d 2994 e63c b9db ab3e
00000040: 2a9d 30bd f9b9 3b3c c414 b4bd 6145 8dbe
00000050: d945 793c 17d0 b9bd 4d3d af3c 18dc ee3d
00000060: 4e9f c2be 90a3 483d eb68 ec3c ae04 5d3e
00000070: 476f e13e 22ce 52be 6b6a 34bd 8f37 96bd
00000080: 1493 abbd ab1c 89bd 2200 0e3d acd6 123e
00000090: a7ae 40be 6c7c 883c 9b9f f13d 0349 803d
000000a0: 72c8 69be e76b 9bbd 474d 513b 6dfa 033d
000000b0: 374f 3c3c 947b 1ebb 81d2 4ebd 06a9 8abd
000000c0: 1b79 ff3d 3ea3 ffbd 84da 473c 7048 833d
000000d0: 3520 e63d e359 5ebe 9add 923e 885d cb3d
000000e0: 0406 a4bc 574c ccbd cdbe 67bc ca2f bcbd
000000f0: 521b 92bd 3d93 243d b55d 76bd 0d01 a8be
00000100: 4735 393d b012 093d 17ba 74bd 7aef 693c
00000110: a7d8 1a3e a8af 8e3d 5194 27be c470 50be
00000120: 0760 4f3e 658f 993d 10be 983d 6c03 e5bd
00000130: 40d8 f43d 0bce f73c d2e7 8dbe 694f fbbd
00000140: 3103 643d 54d7 15bd 4fab 193d 9090 713b
00000150: bc89 87bc f210 523d 2dee 8fbb d7cf 373d
00000160: 4278 18bd 3045 91bd ccdf 01be 6073 873c
00000170: 4450 17bd 7e23 06bd 4c83 163e 4c07 d63d
00000180: 7d60 b9bc 9231 a63d a12f b03d e9f7 993c
00000190: 6be7 72bc f1d2 52be 2e93 a43d 28e8 50bc
000001a0: 1def 05bd d685 14bc e88f 2f3d bee7 503e
000001b0: 2bd6 833a aecc 55bd eab6 2fbe 4899 8b3d
000001c0: 977f 04bd 8d2a 53bc f87d e7bd e8c1 be3d
000001d0: c422 47bd 2c21 653d 0dff 683b b322 6a3d
000001e0: d4b9 81bb 1537 a6bc 3f08 a63d 1f7d b03d
000001f0: f006 2c3e 4635 8bbc 5060 19be 9472 c23d
00000200: 2127 8d3e 3433 88bd 3057 853c 3d73 a3bd
00000210: 2b0d 8fbd 28fe b8bc c71f 7abc b1a2 a03c
00000220: 8a60 0bbe d103 b53c 1544 cbbc 94ae 71bd
00000230: 683a a8bc 94ee cdbd a2c8 19bc 5141 d83c
00000240: 9d41 98bc b0b8 953c 7de8 e93d f7f4 b6bd
00000250: a114 a63e b31e ff3d 8d22 98bb 33b7 263b
00000260: ed1c a33d f12e d1bd 680b 203d 20c9 983b
00000270: ec63 273c b515 9dbd 62fc 3a3d 1976 273d
00000280: 7574 41bc 7bfd b13c 0545 c73d 73d1 6b39
00000290: 48d2 c43c 2731 203f c668 32be 29a4 4a3d
000002a0: 83ef 0a3f 40f9 42ba c354 dd3b edc4 253c
000002b0: 956d fe3d d1eb aabc 19c4 8e3d 2dac 01be
000002c0: 7bee ae3d 8963 983b 4616 7bbd 57f3 a9bc
000002d0: 6842 17bd e94d 143e 959c 1ebc 1e6e 91bd
000002e0: 9b26 83bb 4b10 b1bd 68f8 f73e b3ce 353d
000002f0: dc65 14bc d210 513c 56ac 763d bef3 04bd
00000300: 2f1c fe3d 7c55 5dbc 8e2e 9ebb 1bb3 c53e
00000310: 706f 1cbd 553b 2c3d b753 013e bfee 0e3b
00000320: e8f1 803d 2712 e33d 8992 59be a21f ad3d
00000330: 402b c43c 0efc d3bd 54e6 3abe 80cc 6fbe
00000340: 8a5a 063e fd6c 02be 43f0 a8bd c89a 9fbd
00000350: ca45 da3b 9cdf 1ebb f357 613e d1ce 023d
00000360: 8487 763d f4cd 87bd 820b eebd 8664 cb3d
00000370: 1b4a cbbc 2c2e 14be eb07 063e d9ff 213e
00000380: a6d8 87bd 2d54 c4bd 907f c53d 4413 10be
00000390: b599 92be a6ef 193d 334e 1bbe 6faf 503c
000003a0: 1dc6 3ebe 531b 77bd 0357 063e 035e f73d
000003b0: 6e69 eb3c 59af 66bc 0695 dfbd 70e6 063e
000003c0: c92d 87bc dd76 583e 3e92 c03d e558 dfbd
000003d0: 1c88 6cbd b9f6 973d 7acc 423e ff25 0ebd
000003e0: 2f3c 56be ae1c 18be 23e1 d13c ca2e db3d
000003f0: 5e82 dc3c 82b4 6bbd 1bf0 c5bd 7083 fd3d

_impl.layers.3.linear.weight_g f4 [100, 1]
1.707115 1.1660291 1.058778 1.0097375 1.2451795 1.1525344 1.3906096 1.1805608
1.0558943 1.9493282 1.2466917 1.3095695 1.2364119 1.1998856 1.0406597 1.0701556
1.3895278 1.2354265 1.0286376 1.2983329 1.2049227 1.0281342 1.0169426 1.0149775
1.0729561 1.0294508 1.1081662 1.1933413 1.4408181 0.9683854 0.98868275 1.0602863
1.2426169 1.0704749 1.2050989 1.6553636 1.0134625 1.1866796 1.0853393 1.3672929
1.1427956 1.0423499 1.1809813 1.1040086 1.2870697 1.0083761 1.2104818 1.0869274
1.2522713 1.4495286 1.2013509 1.0671607 1.0324495 1.3542184 1.5620627 1.0587691
1.8394557 0.980217 1.0973454 1.0190471 1.0798602 1.2076292 1.0922576 1.4983553
1.1445768 1.0324544 1.0056434 1.1264119 1.1490958 1.0938973 1.1013312 0.9933579
1.1501791 1.3073856 1.2043519 1.1388683 1.1430337 1.199105 1.0020392 1.4364414
1.6327122 1.3193043 1.053592 1.0754291 1.3332895 1.2236992 1.2863889 1.3469248
1.3464357 1.0990936 1.0384679 2.0009975 1.0257219 1.1924736 1.5703353 1.0275618
1.7751783 1.5194072 1.8611726 1.5154318
00000000: bf82 da3f 7140 953f 0a86 873f 143f 813f
00000010: 0b62 9f3f 3f86 933f 7fff b13f 9e1c 973f
00000020: 8b27 873f 9683 f93f 9893 9f3f f99f a73f
00000030: bf42 9e3f da95 993f 5634 853f dcfa 883f
00000040: 0cdc b13f 7522 9e3f 66aa 833f c62f a63f
00000050: e83a 9a3f e799 833f 2d2b 823f c8ea 813f
00000060: a056 893f 0bc5 833f 64d8 8d3f 68bf 983f
00000070: ba6c b83f 1be8 773f 501a 7d3f 76b7 873f
00000080: 120e 9f3f 5205 893f ae40 9a3f f4e2 d33f
00000090: 24b9 813f 1ee5 973f 66ec 8a3f 7403 af3f
000000a0: 2047 923f b96b 853f 652a 973f 2750 8d3f
000000b0: b3be a43f 7812 813f 11f1 9a3f 7020 8b3f
000000c0: 6d4a a03f 278a b93f dec5 993f b998 883f
000000d0: 4e27 843f 0757 ad3f acf1 c73f bf85 873f
000000e0: 4973 eb3f 80ef 7a3f d075 8c3f 2370 823f
000000f0: dc38 8a3f 9893 9a3f 19cf 8b3f 1bca bf3f
00000100: 7e81 923f 7727 843f ecb8 803f 442e 903f
00000110: 9215 933f d404 8c3f 6cf8 8c3f b44c 7e3f
00000120: 1239 933f 6958 a73f 3428 9a3f 70c6 913f
00000130: ee4e 923f 467c 993f d242 803f 50dd b73f
00000140: b7fc d03f f7de a83f 1adc 863f a9a7 893f
00000150: 3ba9 aa3f 2da2 9c3f 64a8 a43f 0868 ac3f
00000160: 0158 ac3f 19af 8c3f 84ec 843f 5810 0040
00000170: db4a 833f faa2 983f bf00 c93f 2587 833f
00000180: 0b39 e33f ef7b c23f e73a ee3f abf9 c13f

_impl.layers.3.linear.bias f4 [100]
0.00031613698 -0.02618659 0.03920327 -0.2195632 0.0751182 0.002612193 -0.025244094 -0.021225942
-0.18824974 -0.04316935 -0.015833914 0.09342336 -0.057611737 0.083573736 -0.10040829 -0.0897129
0.05708726 -0.085534364 -0.18379694 -0.0026155782 -0.03622549 -0.075984515 -0.08629256 -0.026056822
-6.4301414e-05 -0.056394868 0.07422886 -0.0619875 0.255281 -0.0549085 -0.11204604 0.094871104
0.001712597 -0.007979375 -0.029208884 0.0060345302 -0.15364765 -0.123129286 0.05901649 0.047537588
0.11929071 0.03633889 -0.031869538 0.048735794 0.11252423 -0.17246147 -0.015873687 -0.27499974
0.15967105 0.038275823 0.08074141 -0.19619155 -0.22055973 0.15595005 0.13669734 -0.24028242
0.018464964 -0.14576855 -0.035425346 -0.116780356 0.011452545 -0.015738014 -0.05873114 -0.24962045
0.016923798 -0.063851535 -0.119453244 -0.1524132 -0.018704247 -0.0038984795 0.11070442 -0.15047655
-0.1395213 -0.2217365 -0.234739 -0.15049098 -0.08392099 -0.09833669 -0.056937553 -0.010764287
0.09399321 -0.040779356 0.060822487 -0.086800925 -0.15263604 0.17103332 0.06895806 -0.02692045
0.007947828 0.051286776 -0.077617995 -0.21049431 -0.19633579 0.11929748 0.08041428 -0.008187071
-0.074656196 -0.100305505 0.3114206 -0.2535076
00000000: 30bf a539 4285 d6bc 9c93 203d 2dd5 60be
00000010: 92d7 993d 5431 2b3b b4cc cebc 07e2 adbc
00000020: 8ac4 40be 58d2 30bd 20b6 81bc bf54 bf3d
00000030: 49fa 6bbd b528 ab3d dda2 cdbd 66bb b7bd
00000040: 55d4 693d a42c afbd 4435 3cbe 1f6a 2bbb
00000050: 2e61 14bd c59d 9bbd 27ba b0bd 1e75 d5bc
00000060: 8fd9 86b8 4efe 66bd 4d05 983d 9be6 7dbd
00000070: 31b4 823e bce7 60bd 6578 e5bd c84b c23d
00000080: 3879 e03a edbb 02bc 7847 efbc 4fbd c53b
00000090: cf55 1dbe 352b fcbd 46bb 713d c6b6 423d
000000a0: b04e f43d 17d8 143d a289 02bd 2f9f 473d
000000b0: 1a73 e63d bd99 30be 8909 82bc c4cc 8cbe
000000c0: cf80 233e 1cc7 1c3d c15b a53d 70e6 48be
000000d0: 69da 61be 5fb1 1f3e 63fa 0b3e 980c 76be
000000e0: d643 973c 5a44 15be 2b1a 11bd 8a2a efbd
000000f0: 75a3 3b3c 02ed 80bc 1090 70bd 819c 7fbe
00000100: c7a3 8a3c 98c4 82bd e7a3 f4bd 3512 1cbe
00000110: a639 99bc a27d 7fbb 00b9 e23d 8616 1abe
00000120: acde 0ebe e50e 63be 6c5f 70be 4f1a 1abe
00000130: c5de abbd bf64 c9bd 5a37 69bd b15c 30bc
00000140: 837f c03d 4108 27bd 0021 793d afc4 b1bd
00000150: 9f4c 1cbe 5c23 2f3e e239 8d3d 4788 dcbc
00000160: 9b37 023c 1512 523d 2ff6 9ebd d28b 57be
00000170: 400c 49be 3d52 f43d 3eb0 a43d 1123 06bc
00000180: 59e5 98bd f96c cdbd 8572 9f3e c0cb 81be

_impl.layers.4.linear.weight f4 [100, 100]
-0.02487385 -0.0060705342 -0.17623213 -0.31573826 -0.15128362 -0.044967048 -0.019795494 -0.0048125954
0.023220213 0.045615684 0.04542532 0.054182086 0.17182599 -0.1425069 0.030617302 -0.08104696
0.14636722 0.01882796 -0.21758103 -0.16777857 0.26578888 -0.01803371 0.09217126 -0.22962439
-0.006763438 -0.054207195 -0.36736724 -0.13552542 -0.19895926 -0.04756451 -0.12152879 0.13014911
-0.0062988247 0.08023241 0.13544378 -0.08887988 -0.043442942 0.023985099 -0.08790431 -0.16340888
-0.1709879 -0.050220195 0.14281236 -0.12089607 -0.1606551 0.050899457 -0.18246798 0.08359088
-0.21644971 -0.21336687 -0.25253233 -0.15655723 -0.40016606 0.021925822 -0.3168879 -0.041448217
0.20311715 -0.11688222 0.015520969 -0.13765886 -0.09520044 0.17063598 0.04459731 -0.06312255
-0.22388306 0.011961606 0.0075067924 -0.04600332 0.12580779 -0.010204611 0.07862298 -0.3145781
0.16474406 -0.0761373 -0.03021198 -0.049344655 0.06819192 -0.047411792 -0.26343572 0.16779661
-0.17692704 -0.07122456 -0.06386792 -0.025928397 -0.008107856 0.089400984 -0.10754576 -0.27846846
-0.058033325 0.13666363 -0.26739284 -0.116128 -0.031331945 -0.16270347 -0.22106144 -0.047706537
0.15793125 -0.004495881 -0.11175176 -0.14868306 -0.27895325 0.08107945 0.02466875 0.030052869
-0.019610044 0.09826524 -0.18942428 0.03184294 -0.00951865 -0.022449637 -0.34959033 0.055451
0.01887064 -0.2105305 -0.00016967289 -0.10356067 -0.013020531 -0.14335945 -0.14211233 0.025818184
-0.019761732 0.19666778 0.07621258 0.082924396 -0.022524742 -0.05537237 -0.15263595 -0.21716881
-0.28980228 0.042746898 0.026926402 0.10775118 0.0053613265 0.041947126 -0.0368943 -0.18780695
-0.20549797 0.11517151 0.052759357 -0.012640101 0.02432462 -0.24929827 0.10173402 -0.048212625
-0.08747958 -0.051899023 -0.050139375 -0.02434962 -0.014558075 0.023424821 -0.2050621 -0.061307162
0.044735394 0.038513463 -0.14550735 0.06396318 -0.14589843 -0.007252459 -0.16306372 -0.24576983
-0.05976277 0.017585734 0.13566479 -0.20756064 0.002714986 -0.15251 -0.19612779 0.09420605
-0.0651642 -0.09814843 -0.11784816 -0.18122666 -0.12444033 -0.007475421 -0.05475198 -0.10172154
-0.09570769 -0.047537655 -0.13491286 -0.102189936 0.08233084 -0.15204266 -0.14653099 -0.15270843
-0.030126069 0.07858753 0.110548206 -0.26944855 0.007040836 0.0072781947 -0.13432813 -0.043772984
-0.2097478 0.08931399 0.044549108 -0.04512277 -0.24884756 -0.10940606 -0.09199474 -0.44459575
-0.18528931 -0.28597683 -0.043368604 -0.13943674 0.052197795 -0.068162866 -0.21807796 -0.10017275
-0.21893446 0.015852751 -0.60567236 -0.15537511 -0.1042339 0.03329361 -0.08725712 0.018614506
-0.50241673 -0.09477592 -0.14230558 -0.3679052 -0.11609539 -0.036034457 -0.015591088 -0.03014616
0.015033178 -0.041754212 0.16997425 -0.3841238 0.16120942 -0.032374404 -0.09316505 0.035042454
0.020905461 0.059187457 -0.24578743 -0.18593149 -0.16951492 -0.12837656 0.03542835 -0.073081486
0.07233404 0.068349674 -0.15473856 -0.0423493 0.066105425 -0.0714527 -0.057462893 -0.06877864
-0.017416466 -0.11174631 0.18112221 -0.083120294 -0.13972941 -0.21534064 -0.19927147 -0.20115419
00000000: 3fc4 cbbc 55eb c6bb 3276 34be 72a8 a1be
00000010: 18ea 1abe 5e2f 38bd 292a a2bc fab2 9dbb
00000020: 5138 be3c 83d7 3a3d e60f 3a3d 09ee 5d3d
00000030: 27f3 2f3e 54ed 11be 23d1 fa3c f3fb a5bd
00000040: 4ae1 153e 183d 9a3c 90cd 5ebe 25ce 2bbe
00000050: 7b15 883e 6ebb 93bc 49c4 bc3d a822 6bbe
00000060: d59f ddbb 5d08 5ebd 8f17 bcbe 2dc7 0abe
00000070: fabb 4bbe 01d3 42bd 16e4 f8bd cf45 053e
00000080: 5f66 cebb e450 a43d c6b1 0a3e a806 b6bd
00000090: 3af1 31bd 667c c43c 2d07 b4bd a854 27be
000000a0: 7417 2fbe b1b3 4dbd 673d 123e 5c98 f7bd
000000b0: c582 24be f37b 503d e3d8 3abe b231 ab3d
000000c0: fea4 5dbe d87c 5abe eb4b 81be 8a50 20be
000000d0: 91e2 ccbe c89d b33c 213f a2be 9bc5 29bd
000000e0: f1fd 4f3e f25f efbd aa4b 7e3c 72f6 0cbe
000000f0: 73f8 c2bd 33bb 2e3e abab 363d 6546 81bd
00000100: 9a41 65be 9dfa 433c 8afb f53b fa6d 3cbd
00000110: c2d3 003e 3e31 27bc 1605 a13d 6110 a1be
00000120: abb2 283e dfed 9bbd 1d7f f7bc 9f1d 4abd
00000130: 35a8 8b3d de32 42bd 0ce1 86be e0d2 2b3e
00000140: 5d2c 35be 2fde 91bd 2fcd 82bd ca67 d4bc
00000150: d0d6 04bc dd17 b73d f440 dcbd 6b93 8ebe
00000160: 5ab4 6dbd 8df1 0b3e b7e7 88be 84d4 edbd
00000170: ed55 00bd bd9b 26be ee5d 62be ee67 43bd
00000180: bbb8 213e 2f52 93bb 1bde e4bd 5f40 18be
00000190: f6d2 8ebe fc0c a63d 1e16 ca3c 6f31 f63c
000001a0: 3ea5 a0bc 493f c93d 70f8 41be be6d 023d
000001b0: 1df4 1bbc 4de8 b7bc 81fd b2be 9620 633d
000001c0: 9a96 9a3c 4f95 57be 38ea 31b9 9e17 d4bd
000001d0: 1154 55bc d2cc 12be e585 11be a880 d33c
000001e0: 5be3 a1bc 4763 493e 5715 9c3d 44d4 a93d
000001f0: cf85 b8bc 23ce 62bd 994c 1cbe 8061 5ebe
00000200: f760 94be 5f17 2f3d c294 dc3c a7ac dc3d
00000210: 11ae af3b c0d0 2b3d 7a1e 17bd 7750 40be
00000220: 0f6e 52be 0adf eb3d 321a 583d 6d18 4fbc
00000230: 6d44 c73c 0c48 7fbe ed59 d03d 9a7a 45bd
00000240: 7e28 b3bd 1294 54bd f25e 4dbd db78 c7bc
00000250: fe84 6ebc 69e5 bf3c cdfb 51be 381d 7bbd
00000260: 763c 373d 4bc0 1d3d e1ff 14be 21ff 823d
00000270: 6666 15be 09a6 edbb 2dfa 26be 16ab 7bbe
00000280: cec9 74bd f50f 903c b6eb 0a3e c78a 54be
00000290: e8ed 313b 952b 1cbe b9d5 48be 1aef c03d
000002a0: cf74 85bd 0b02 c9bd 605a f1bd 7b93 39be
000002b0: 92da febd 60f4 f4bb 9d43 60bd 6253 d0bd
000002c0: 6502 c4bd d8b6 42bd 9926 0abe f548 d1bd
000002d0: 129d a83d 12b1 1bbe 380c 16be 995f 1cbe
000002e0: f2ca f6bc 80f2 a03d 1967 e23d 29f5 89be
000002f0: d0b6 e63b ec7d ee3b 508d 09be 4d4b 33bd
00000300: 21c8 56be 41ea b63d 2079 363d a7d2 38bd
00000310: e5d1 7ebe 4910 e0bd bd67 bcbd 0ea2 e3be
00000320: 7bbc 3dbe 8e6b 92be 47a3 31bd 81c8 0ebe
00000330: 5bcd 553d f998 8bbd d44f 5fbe 5f27 cdbd
00000340: 5b30 60be a1dd 813c 580d 1bbf a71a 1fbe
00000350: 9578 d5bd e15e 083d dcb3 b2bd 737d 983c
00000360: 629e 00bf e119 c2bd 8eb8 11be 125e bcbe
00000370: 6bc3 edbd de98 13bd c371 7fbc 14f5 f6bc
00000380: b84d 763c 7706 2bbd bb0d 2e3e e0ab c4be
00000390: 1514 253e 069b 04bd 51cd bebd ad88 0f3d
000003a0: ee41 ab3c 8c6e 723d b3af 7bbe d364 3ebe
000003b0: 5295 2dbe 2575 03be 511d 113d bfab 95bd
000003c0: df23 943d eafa 8b3d c973 1ebe 7676 2dbd
000003d0: 4862 873d cb55 92bd 365e 6bbd d1db 8cbd
000003e0: faac 8ebc 40db e4bd 1a78 393e f93a aabd
000003f0: 3a15 0fbe 4282 5cbe d20d 4cbe 5dfb 4dbe
