a.pt (torch, 9712 bytes, 18 tensors)

bias f4 [10]
00000000: afcc a0be 3d88 33be aae5 d9be c798 2e3f
00000010: bcfe 0fbf f922 04be 431b 25bf 6b8d 133f
00000020: 13d2 85be 8b8e 813e
-0.3140616 -0.1753244 -0.42558032 0.6820187 -0.5624807 -0.12903966 -0.64494723 0.5763766
-0.26136836 0.25304064

weight_g f4 [10, 1]
00000000: 81e4 293f 8f2b 4b3f b209 1e3f b020 ed3e
00000010: d455 ad3d dce4 a83e 5b6d 2c3f 7b18 383e
00000020: ca6d c43e e94c 303f
0.66364294 0.7936334 0.61733544 0.46314 0.08463636 0.32987106 0.67354363 0.17978089
0.38365012 0.68867356

weight_v f4 [10, 2]
00000000: 944d de3e 997c 00bf 6b65 34bf 10ed babe
00000010: 0ff1 103f fdf6 7b3e 7984 93be eda7 b9be
00000020: 1135 80ba dd52 ad3d b4d1 993e 367f 0bbe
00000030: 65fa 933e ecbe 1bbf f804 943d 5790 28be
00000040: 642d bfbe b477 b4bd b31e 96be 1886 1fbf
0.43418562 -0.5019012 -0.7046725 -0.3650899 0.56617826 0.24605937 -0.28812006 -0.3626093
-0.000978144 0.084630705 0.30042803 -0.13622746 0.28901973 -0.608382 0.0722751 -0.16461311
-0.37339318 -0.08811894 -0.29320297 -0.62313986

weight f4 [10, 2]
00000000: 944d de3e 997c 00bf 6b65 34bf 10ed babe
00000010: 0ff1 103f fdf6 7b3e 7984 93be eda7 b9be
00000020: 1135 80ba dd52 ad3d b4d1 993e 367f 0bbe
00000030: 65fa 933e ecbe 1bbf f804 943d 5790 28be
00000040: 642d bfbe b477 b4bd b31e 96be 1886 1fbf
0.43418562 -0.5019012 -0.7046725 -0.3650899 0.56617826 0.24605937 -0.28812006 -0.3626093
-0.000978144 0.084630705 0.30042803 -0.13622746 0.28901973 -0.608382 0.0722751 -0.16461311
-0.37339318 -0.08811894 -0.29320297 -0.62313986

bias f4 [10]
00000000: f96c a6bc cede 723b 3249 463e b637 3d3e
00000010: fcc3 bebd b758 93be 905e 803e e318 2d3e
00000020: dee6 9b3c a34b 87be
-0.020315634 0.0037059071 0.1936386 0.18478283 -0.09314725 -0.28778622 0.25072145 0.16904025
0.019030984 -0.26424894

weight_g f4 [10, 1]
00000000: 37f5 2f3f 9ee7 213f 6b25 053f bcfa 313f
00000010: f911 2a3f 0b26 0a3f 1b1e 183f 54f0 013f
00000020: e54e 193f cad0 133f
0.68733543 0.63244045 0.5201022 0.69523215 0.66433674 0.539643 0.5942094 0.50757337
0.5988601 0.5774046

weight_v f4 [10, 10]
00000000: b81a 243e eda7 91be 236b 0bbe ca85 973e
00000010: ab54 943e e21f 3bbd aa92 963d b5b8 813e
00000020: 36d4 9abe cd34 e63d cd3c 983e 8964 99be
00000030: ba8b a0bc d732 9e3e 135f 66be 18e4 cdbd
00000040: 3d29 16bd fcf8 083e d3ac dcbb 4a86 5bbe
00000050: b6e1 9abe 7057 dbbd 6be0 90be 15dc 1abe
00000060: 2324 123e 65db c03d b20c a2bd cf1c 11be
00000070: 7cbc 6dbd 68d5 993d e08e 7ebe a686 eabd
00000080: 69bc 82be 91a4 95be 9f5b 9d3c b0d1 93be
00000090: 8105 823c 2d1a 9f3e a370 4bbe 581a 473e
000000a0: 4757 4cbe 256f 433d 1abc 573e 6237 c23c
000000b0: 1a87 92be dbed 2b3e 3f7b 32be 7cd4 8ebe
000000c0: 1675 9abe d536 593e 4b4d 803e f0b0 563d
000000d0: 3fe5 fbbd 8a4d 673e 054a 75be 64b2 b73d
000000e0: 77dd 44be 6523 f43d fb74 8d3d 4d05 48be
000000f0: 895e 523e e643 843e 6b53 dd3d a531 023e
00000100: c3c9 6ebe 3a0f 4c3e 436f bc3d 1d9e 683c
00000110: 7d4e 52be acc6 883e 44af 343d afba 96bd
00000120: 5648 95be 4201 43be fc73 293e fd5c c13d
00000130: 807f 163e c273 5b3a c06d 87be 417a 093d
00000140: e43d 903e f462 203e e853 6c3d 5808 a53c
00000150: ffcc 7d3e b410 20be 9b9b f5bd d641 c8bd
00000160: 04db 963e c3c9 6e3e ee73 ed3d e8a7 27be
00000170: 1222 823e e5c5 2dbe ac6e 973e c0bd 67bd
00000180: 2d21 0e3e a104 57be 6f5b 65bc f777 5a3e
0.16025817 -0.2844843 -0.13615088 0.2959426 0.28970847 -0.045684703 0.07352193 0.25336233
-0.3024003 0.1124054 0.29733887 -0.29959515 -0.019597877 0.30898163 -0.22497205 -0.10053271
-0.03666042 0.1337623 -0.0067344694 -0.21437946 -0.3025033 -0.10710037 -0.28296217 -0.15123017
0.14271598 0.09416846 -0.07912578 -0.14171146 -0.05804108 0.07511407 -0.2485919 -0.114514634
-0.2553437 -0.29227117 0.019208727 -0.28870916 0.015871765 0.31074658 -0.19867186 0.19443643
-0.19955169 0.047713418 0.21067849 0.02370805 -0.286187 0.16789953 -0.17429827 -0.27896488
-0.30167454 0.21212323 0.2505897 0.052414834 -0.122995846 0.22588173 -0.23954017 0.08969572
-0.19225107 0.119208135 0.06907078 -0.19533272 0.20543875 0.25833052 0.10806926 0.1271425
-0.23319153 0.19927683 0.09200909 0.014197853 -0.20537753 0.26714075 0.04411246 -0.07359826
-0.2915675 -0.19043449 0.16548151 0.09441564 0.14697075 0.0008371436 -0.2645092 0.033563856
0.2817222 0.15662748 0.057697207 0.02014558 0.24785231 -0.15631372 -0.1199257 -0.09778182
0.2946397 0.23319153 0.115943775 -0.16372645 0.2541662 -0.16970022 0.29576623 -0.056577444
0.13879843 -0.2099786 -0.01399885 0.21334825

weight f4 [10, 10]
00000000: b81a 243e eda7 91be 236b 0bbe ca85 973e
00000010: ab54 943e e21f 3bbd aa92 963d b5b8 813e
00000020: 36d4 9abe cd34 e63d ce3c 983e 8a64 99be
00000030: bb8b a0bc d832 9e3e 155f 66be 1ae4 cdbd
00000040: 3e29 16bd fdf8 083e d5ac dcbb 4c86 5bbe
00000050: b6e1 9abe 7057 dbbd 6be0 90be 15dc 1abe
00000060: 2324 123e 65db c03d b20c a2bd cf1c 11be
00000070: 7cbc 6dbd 68d5 993d e08e 7ebe a686 eabd
00000080: 69bc 82be 91a4 95be 9f5b 9d3c b0d1 93be
00000090: 8105 823c 2d1a 9f3e a370 4bbe 581a 473e
000000a0: 4757 4cbe 256f 433d 1abc 573e 6237 c23c
000000b0: 1a87 92be dbed 2b3e 3f7b 32be 7cd4 8ebe
000000c0: 1675 9abe d536 593e 4b4d 803e f0b0 563d
000000d0: 3fe5 fbbd 8a4d 673e 054a 75be 64b2 b73d
000000e0: 77dd 44be 6523 f43d fb74 8d3d 4d05 48be
000000f0: 875e 523e e543 843e 6953 dd3d a431 023e
00000100: c1c9 6ebe 380f 4c3e 426f bc3d 1b9e 683c
00000110: 7b4e 52be abc6 883e 44af 343d afba 96bd
00000120: 5648 95be 4201 43be fc73 293e fd5c c13d
00000130: 807f 163e c273 5b3a c06d 87be 417a 093d
00000140: e43d 903e f462 203e e853 6c3d 5808 a53c
00000150: ffcc 7d3e b410 20be 9b9b f5bd d641 c8bd
00000160: 04db 963e c3c9 6e3e ee73 ed3d e8a7 27be
00000170: 1222 823e e5c5 2dbe ac6e 973e c0bd 67bd
00000180: 2d21 0e3e a104 57be 6f5b 65bc f777 5a3e
0.16025817 -0.2844843 -0.13615088 0.2959426 0.28970847 -0.045684703 0.07352193 0.25336233
-0.3024003 0.1124054 0.2973389 -0.29959518 -0.019597879 0.30898166 -0.22497208 -0.100532725
-0.036660425 0.13376231 -0.0067344704 -0.21437949 -0.3025033 -0.10710037 -0.28296217 -0.15123017
0.14271598 0.09416846 -0.07912578 -0.14171146 -0.05804108 0.07511407 -0.2485919 -0.114514634
-0.2553437 -0.29227117 0.019208727 -0.28870916 0.015871765 0.31074658 -0.19867186 0.19443643
-0.19955169 0.047713418 0.21067849 0.02370805 -0.286187 0.16789953 -0.17429827 -0.27896488
-0.30167454 0.21212323 0.2505897 0.052414834 -0.122995846 0.22588173 -0.23954017 0.08969572
-0.19225107 0.119208135 0.06907078 -0.19533272 0.20543872 0.2583305 0.10806925 0.12714249
-0.2331915 0.1992768 0.09200908 0.0141978515 -0.2053775 0.26714072 0.04411246 -0.07359826
-0.2915675 -0.19043449 0.16548151 0.09441564 0.14697075 0.0008371436 -0.2645092 0.033563856
0.2817222 0.15662748 0.057697207 0.02014558 0.24785231 -0.15631372 -0.1199257 -0.09778182
0.2946397 0.23319153 0.115943775 -0.16372645 0.2541662 -0.16970022 0.29576623 -0.056577444
0.13879843 -0.2099786 -0.01399885 0.21334825

bias f4 [10]
00000000: 5774 8fbd 4476 1d3e 2a68 8cbe cc74 263d
00000010: c805 36bd f9d1 9a3d 5021 b9bd 52a4 21be
00000020: e12d 15be 378c 2fbe
-0.07004612 0.15377146 -0.2742322 0.04063873 -0.044439107 0.0755958 -0.09039557 -0.1578534
-0.14568283 -0.17143331

weight_g f4 [10, 1]
00000000: 54c9 f63e 9af1 0d3f 3bf9 f43e ea7a 2a3f
00000010: 15c4 fc3e 2814 003f 755c 103f c36e 273f
00000020: 87f5 0e3f b7c6 1c3f
0.48200476 0.5544678 0.47846398 0.665938 0.4936835 0.50030756 0.5639108 0.65403384
0.55843395 0.61240715

weight_v f4 [10, 10]
00000000: 6c46 8bbd 5e1e 893d 2b39 39be eb6a 94be
00000010: 3931 e3bd 4864 d1bd 623a cebd 99e6 63be
00000020: 5a59 643d c627 143e da58 95be fbd6 0dbe
00000030: 172f 01be 415e 443e 6c68 82bd 1e51 a5bd
00000040: a7c3 00be 32ec 063e daa7 9fbe ed8b c7bd
00000050: 5925 52be 7cb3 b2bd aa1e 8c3b 9e8a 86bd
00000060: f24b 56bd cf68 543e da22 923e 0601 dabd
00000070: c0c4 3abe dfb3 613d 2632 973e 0a1c 6abe
00000080: b655 9d3e cf12 033d 2a4a 953e d698 c1bd
00000090: 32e5 763d 27e6 5e3e 4290 61be bf45 fb3d
000000a0: e744 9fbe 7593 2a3d 1147 403d c83e 8f3d
000000b0: 75a4 fe3c 5355 453e a9c0 1a3e bd9d 21bd
000000c0: ee5d d63d ab34 823e 4b10 793e 7f5a 00be
000000d0: 3bdc 6e3e 4534 4a3c d307 05be d942 0b3e
000000e0: e57b 993d a518 3cbe 75f4 4abe 76a3 a9bd
000000f0: e054 7b3e 3554 6dbb 8d57 373e 4dd7 193e
00000100: 13e8 16be c625 8c3e f9eb 2c3e 41e0 e63d
00000110: 77d9 2fbe fe9f 41be 0cbc 21be ae8c ee3d
00000120: 8a56 6dbd 265a 3dbe 748e 9abe cb39 813e
00000130: 81f0 a3bd 65b5 593e 39bc 9cbe a47d 68be
00000140: 0029 8a3e 9097 243e 9028 713e ce4b 633b
00000150: 1859 52be 3b34 403e d677 1a3e 2e15 0e3e
00000160: a294 bf3d 63fc 2f3e 2e1f 703e b0f2 45be
00000170: 9986 48bd d49b 993e 8545 863e b5c7 4bbe
00000180: 7e65 723e 3898 3a3d a898 1a3e d68e 01bd
-0.06800541 0.06695245 -0.18088214 -0.28987822 -0.11093373 -0.10224205 -0.100697294 -0.22255935
0.055749275 0.14468297 -0.2916935 -0.1385154 -0.1261562 0.1917658 -0.06367573 -0.080721125
-0.12574635 0.13176039 -0.31182748 -0.097434856 -0.2052206 -0.0872564 0.0042761164 -0.06569408
-0.05231852 0.20743106 0.28542215 -0.106447265 -0.18239117 0.05510318 0.29530448 -0.22862259
0.30729455 0.03200036 0.29158145 -0.09452979 0.06027717 0.21767484 -0.22027686 0.122691624
-0.31107256 0.041644532 0.046942774 0.069943964 0.031084279 0.1927083 0.15112557 -0.03945707
0.104671344 0.25430807 0.24322622 -0.12534522 0.23326199 0.012341564 -0.12991266 0.13599719
0.07494334 -0.18368776 -0.19819815 -0.08283131 0.24544096 -0.0036213521 0.17904492 0.15023537
-0.14736967 0.2737257 0.16886891 0.11273242 -0.171728 -0.18908688 -0.1579439 0.11647926
-0.05794386 -0.1849142 -0.30186808 0.25239405 -0.08004857 0.21260603 -0.30612352 -0.22704178
0.26984406 0.16073442 0.2355063 0.0034682634 -0.20541799 0.18769924 0.15084776 0.13875267
0.09354521 0.17186122 0.23449394 -0.19330859 -0.048956487 0.300017 0.26224914 -0.19900401
0.23671529 0.045555323 0.15097296 -0.03163036

weight f4 [10, 10]
00000000: 6c46 8bbd 5e1e 893d 2b39 39be eb6a 94be
00000010: 3931 e3bd 4864 d1bd 623a cebd 99e6 63be
00000020: 5a59 643d c627 143e db58 95be fcd6 0dbe
00000030: 182f 01be 435e 443e 6d68 82bd 1f51 a5bd
00000040: a8c3 00be 33ec 063e dba7 9fbe ef8b c7bd
00000050: 5b25 52be 7db3 b2bd ab1e 8c3b 9f8a 86bd
00000060: f44b 56bd d168 543e db22 923e 0801 dabd
00000070: c1c4 3abe e1b3 613d 2732 973e 0c1c 6abe
00000080: b755 9d3e d012 033d 2b4a 953e d898 c1bd
00000090: 34e5 763d 29e6 5e3e 4490 61be c145 fb3d
000000a0: e744 9fbe 7593 2a3d 1147 403d c83e 8f3d
000000b0: 75a4 fe3c 5355 453e a9c0 1a3e bd9d 21bd
000000c0: ee5d d63d ab34 823e 4b10 793e 7f5a 00be
000000d0: 3bdc 6e3e 4534 4a3c d307 05be d942 0b3e
000000e0: e57b 993d a518 3cbe 75f4 4abe 76a3 a9bd
000000f0: e054 7b3e 3554 6dbb 8d57 373e 4dd7 193e
00000100: 13e8 16be c625 8c3e f9eb 2c3e 41e0 e63d
00000110: 77d9 2fbe fe9f 41be 0cbc 21be ae8c ee3d
00000120: 8a56 6dbd 265a 3dbe 748e 9abe cb39 813e
00000130: 81f0 a3bd 65b5 593e 39bc 9cbe a47d 68be
00000140: 0029 8a3e 9097 243e 9028 713e ce4b 633b
00000150: 1859 52be 3b34 403e d677 1a3e 2e15 0e3e
00000160: a294 bf3d 63fc 2f3e 2e1f 703e b0f2 45be
00000170: 9986 48bd d49b 993e 8545 863e b5c7 4bbe
00000180: 7e65 723e 3898 3a3d a898 1a3e d68e 01bd
-0.06800541 0.06695245 -0.18088214 -0.28987822 -0.11093373 -0.10224205 -0.100697294 -0.22255935
0.055749275 0.14468297 -0.29169354 -0.13851541 -0.12615621 0.19176583 -0.06367574 -0.08072113
-0.12574637 0.1317604 -0.3118275 -0.09743487 -0.20522062 -0.08725641 0.004276117 -0.065694086
-0.05231853 0.2074311 0.28542218 -0.10644728 -0.18239118 0.055103187 0.2953045 -0.22862262
0.30729458 0.032000363 0.29158148 -0.09452981 0.06027718 0.21767487 -0.22027689 0.12269164
-0.31107256 0.041644532 0.046942774 0.069943964 0.031084279 0.1927083 0.15112557 -0.03945707
0.104671344 0.25430807 0.24322622 -0.12534522 0.23326199 0.012341564 -0.12991266 0.13599719
0.07494334 -0.18368776 -0.19819815 -0.08283131 0.24544096 -0.0036213521 0.17904492 0.15023537
-0.14736967 0.2737257 0.16886891 0.11273242 -0.171728 -0.18908688 -0.1579439 0.11647926
-0.05794386 -0.1849142 -0.30186808 0.25239405 -0.08004857 0.21260603 -0.30612352 -0.22704178
0.26984406 0.16073442 0.2355063 0.0034682634 -0.20541799 0.18769924 0.15084776 0.13875267
0.09354521 0.17186122 0.23449394 -0.19330859 -0.048956487 0.300017 0.26224914 -0.19900401
0.23671529 0.045555323 0.15097296 -0.03163036

bias f4 [10]
00000000: 9003 89be b7f6 613d 3578 ce3b c6b6 e73d
00000010: 3f1b 943e 1c5a 2d3e 73c3 a1bc 8e95 5e3c
00000020: ea2a 5abe d085 e33d
-0.2676053 0.055166926 0.006300951 0.11314158 0.28927037 0.16928905 -0.019746518 0.013585461
-0.21305433 0.11109507

weight_g f4 [10, 1]
00000000: f402 203f d302 353f 50c0 173f e60a 1a3f
00000010: 0f46 123f 07fb 0a3f 3483 1d3f cbb9 223f
00000020: d358 2a3f 369d f83e
0.62504506 0.70707434 0.5927782 0.6017288 0.5713815 0.5428929 0.61528325 0.6356475
0.66541785 0.48557442

weight_v f4 [10, 10]
00000000: 5c43 90be 6fad 55bd 73a2 a0be adca adbd
00000010: d393 373e 202d abbd 5379 78be a005 283e
00000020: 0bb6 853e f3cc cabd 7e04 9cbe 678c 3cbe
00000030: 7a61 943d 35bb 66be 0a1b 6b3e 415f 8dbe
00000040: 41fa 0cbe 68ff 72be f7d5 6ebe 74c9 773e
00000050: 213b edbd 86af 22be 180d f63c 383a 3dbe
00000060: 20e6 b63d aa0c 983e 994b 783d a7fe 9d3e
00000070: 840e f63c a45a 923e b293 0a3a 80e4 203e
00000080: e9ac a6bd 0548 4c3e dcf8 6cbd 950a 923e
00000090: 1084 903e 6389 f9bd 0b40 9abe c254 143e
000000a0: 6430 41be c49c c7bd edfc 9bbe 2059 0fbe
000000b0: c397 213e 9f51 003e 74b7 99be 4530 c5bd
000000c0: 85cb 8fbd ebb7 1e3e 61b1 2d3d 4855 693e
000000d0: bdfd 6cbe 592f 553e d119 2d3e fb89 10be
000000e0: 30be 9abd 9ec3 9c3d f250 1ebe d31c 7b3e
000000f0: 3d6a 35be b789 27be 4e75 9b3e cbbd 4cbe
00000100: d778 92be f014 91be fdfe fd3c 1481 aa3c
00000110: 9741 193d 1860 1c3e 5a1f 4fbe 2b47 3a3e
00000120: 2f1f 743d 683c 4cbe 55b9 92be bd0b ee3d
00000130: 8b69 11bd 1b6b 623e d7f7 943e 29ea 723e
00000140: 28d7 e5bd b8ae 8f3e 5171 8f3e c113 343e
00000150: 10ea 32be 1ed5 1cbe 1e10 4b3e 652d 2f3e
00000160: 9a6b a03e 215a 153e 078c 9fbe ec0d 22bb
00000170: f453 ddbc f800 eebd 28ed 2fbc 87e7 36be
00000180: fe3c 8dbe 9bbb d53d b310 7ebd 6dec 22bd
-0.2817639 -0.052167352 -0.3137394 -0.08485923 0.17927484 -0.08358216 -0.24265032 0.16408396
0.2611545 -0.09902372 -0.30472177 -0.18412934 0.07245155 -0.22532351 0.22959533 -0.27611735
-0.1376734 -0.23730242 -0.23323809 0.24197942 -0.115835436 -0.1588727 0.03003554 -0.1847924
0.089306116 0.29697162 0.06061897 0.30858347 0.030036218 0.28584778 0.00052862905 0.15712166
-0.08138449 0.19949348 -0.05785452 0.28523698 0.28225756 -0.121844076 -0.30126986 0.14485458
-0.18866116 -0.097466975 -0.30466405 -0.13998842 0.15780549 0.12531136 -0.30022776 -0.09628347
-0.0702124 0.15499847 0.04240549 0.22786438 -0.23143668 0.20818843 0.1690438 -0.14115135
-0.07555807 0.076544985 -0.15460566 0.24522714 -0.17716308 -0.16361128 0.30362934 -0.19994275
-0.28607818 -0.28336287 0.031005377 0.020813502 0.037416067 0.15271032 -0.20226803 0.18191211
0.05960005 -0.19944918 -0.28657022 0.11623333 -0.035501044 0.2211117 0.29095337 0.23722138
-0.112226784 0.28062987 0.2801614 0.1758566 -0.174721 -0.15315673 0.19830367 0.1710716
0.31332093 0.14585163 -0.3116152 -0.0024727536 -0.027017571 -0.116212785 -0.010737695 -0.17861758
-0.27585596 0.104361735 -0.062027644 -0.039776254

weight f4 [10, 10]
00000000: 5b43 90be 6dad 55bd 72a2 a0be acca adbd
00000010: d293 373e 1f2d abbd 5179 78be 9f05 283e
00000020: 0ab6 853e f1cc cabd 7e04 9cbe 678c 3cbe
00000030: 7a61 943d 35bb 66be 0a1b 6b3e 415f 8dbe
00000040: 41fa 0cbe 68ff 72be f7d5 6ebe 74c9 773e
00000050: 213b edbd 86af 22be 180d f63c 383a 3dbe
00000060: 20e6 b63d aa0c 983e 994b 783d a7fe 9d3e
00000070: 840e f63c a45a 923e b293 0a3a 80e4 203e
00000080: e9ac a6bd 0548 4c3e dcf8 6cbd 950a 923e
00000090: 1084 903e 6389 f9bd 0b40 9abe c254 143e
000000a0: 6430 41be c49c c7bd edfc 9bbe 2059 0fbe
000000b0: c397 213e 9f51 003e 74b7 99be 4530 c5bd
000000c0: 85cb 8fbd ebb7 1e3e 61b1 2d3d 4855 693e
000000d0: bdfd 6cbe 592f 553e d119 2d3e fb89 10be
000000e0: 30be 9abd 9ec3 9c3d f250 1ebe d31c 7b3e
000000f0: 3d6a 35be b789 27be 4e75 9b3e cbbd 4cbe
00000100: d778 92be f014 91be fdfe fd3c 1481 aa3c
00000110: 9741 193d 1860 1c3e 5a1f 4fbe 2b47 3a3e
00000120: 2f1f 743d 683c 4cbe 55b9 92be bd0b ee3d
00000130: 8b69 11bd 1b6b 623e d7f7 943e 29ea 723e
00000140: 28d7 e5bd b8ae 8f3e 5171 8f3e c113 343e
00000150: 10ea 32be 1ed5 1cbe 1e10 4b3e 652d 2f3e
00000160: 9a6b a03e 215a 153e 088c 9fbe ed0d 22bb
00000170: f653 ddbc fa00 eebd 29ed 2fbc 88e7 36be
00000180: ff3c 8dbe 9dbb d53d b510 7ebd 6eec 22bd
-0.28176388 -0.052167345 -0.31373936 -0.08485922 0.17927483 -0.083582155 -0.24265029 0.16408394
0.26115447 -0.09902371 -0.30472177 -0.18412934 0.07245155 -0.22532351 0.22959533 -0.27611735
-0.1376734 -0.23730242 -0.23323809 0.24197942 -0.115835436 -0.1588727 0.03003554 -0.1847924
0.089306116 0.29697162 0.06061897 0.30858347 0.030036218 0.28584778 0.00052862905 0.15712166
-0.08138449 0.19949348 -0.05785452 0.28523698 0.28225756 -0.121844076 -0.30126986 0.14485458
-0.18866116 -0.097466975 -0.30466405 -0.13998842 0.15780549 0.12531136 -0.30022776 -0.09628347
-0.0702124 0.15499847 0.04240549 0.22786438 -0.23143668 0.20818843 0.1690438 -0.14115135
-0.07555807 0.076544985 -0.15460566 0.24522714 -0.17716308 -0.16361128 0.30362934 -0.19994275
-0.28607818 -0.28336287 0.031005377 0.020813502 0.037416067 0.15271032 -0.20226803 0.18191211
0.05960005 -0.19944918 -0.28657022 0.11623333 -0.035501044 0.2211117 0.29095337 0.23722138
-0.112226784 0.28062987 0.2801614 0.1758566 -0.174721 -0.15315673 0.19830367 0.1710716
0.31332093 0.14585163 -0.31161523 -0.0024727539 -0.027017575 -0.1162128 -0.010737696 -0.1786176
-0.275856 0.10436175 -0.06202765 -0.03977626

weight f4 [2, 10]
00000000: 90d9 51bd 4a9b 213d 600d 65be bad0 0a3c
00000010: 811c 8b3d 252e 573e 569a 923e 75d5 67be
00000020: 87f8 503d cd6c 213d 0e2d 1b3e 1f54 32be
00000030: 9038 573e d8a2 7e3e 7715 81be c889 903e
00000040: 48b8 013e 37d2 9fbe a885 58be aac0 a03e
-0.051232874 0.039454736 -0.22368383 0.008472616 0.06792546 0.21013696 0.28633374 -0.22640021
0.051018264 0.0394104 0.15153906 -0.17414902 0.2101767 0.24866807 -0.2521169 0.2823012
0.12667954 -0.3121507 -0.21144736 0.3139699

bias f4 [2]
00000000: e9ad 523d cd68 703e
0.051435385 0.23477478
