model.onnx (onnx, 24355 bytes, 14 tensors)

layers.0.bias f4 [32]
000000 0a e5 1d be 97 68 2a be c2 a8 9e 3e 8b 2c 60 3c
       -0.15419403 -0.1664146 0.30988127 0.013682495
000010 66 42 45 3e 1c a3 c6 3e b8 ec ef bd b2 74 21 3e
       0.1926361 0.38796318 -0.117150724 0.15767172
000020 56 36 92 3f 2a 65 8a 3d cc 79 17 3e 15 03 a0 be
       1.1422832 0.06757577 0.14792556 -0.3125235
000030 db dc 06 3f 70 a2 55 bd d6 0e d8 3e 30 31 c2 3e
       0.5268075 -0.052156866 0.4219882 0.37928152
000040 b4 62 38 3d 38 c0 9f 3b 2a a9 23 3f 25 66 60 3f
       0.045016006 0.004875209 0.6393 0.8765586
000050 0c 52 a8 3e ca ac 8d 3e ef c8 ae 3e 4e 26 8f 3d
       0.32875097 0.2767089 0.34137675 0.06989728
000060 b6 fc 56 3e ee 27 84 be 4f 3f a6 be d2 2e a0 be
       0.20994839 -0.25811714 -0.32470176 -0.3128572
000070 c2 80 56 be 53 6b b9 be 95 7f a6 be 5d 81 e4 3e
       -0.20947555 -0.36214694 -0.32519212 0.44629946

layers.1.bias f4 [32]
000000 0c 94 13 3e 2c 0f c2 be d5 bf 8c 3e ae a0 ad 3e
       0.14411944 -0.379022 0.27490106 0.3391165
000010 e5 e0 1f 3d ec 55 f4 3e fd 69 db 3e 74 5b c8 3e
       0.039032836 0.47721803 0.428543 0.39132273
000020 33 2a 7f bd ff 7e d1 3e fc 21 11 3f 0a 1c 3f be
       -0.062296104 0.40917203 0.5669248 -0.1866304
000030 9a 07 c7 3e 17 d4 9a 3d c0 c7 69 3f 23 c7 a7 bd
       0.38872987 0.07559984 0.9132042 -0.08192279
000040 91 e9 44 be 19 2b 86 3d f4 1e a6 be bb 45 a4 3c
       -0.19229724 0.06551189 -0.3244549 0.020052781
000050 46 79 f2 bd 5c a5 a3 3e e0 92 a7 3e 76 ab c1 3e
       -0.11839537 0.31962097 0.32729244 0.37826127
000060 07 52 db 3e 93 65 9d 3e c3 44 4c bd f1 1a 8c be
       0.4283602 0.30741557 -0.049870264 -0.27364305
000070 5d da df be 62 56 49 3e 64 fa 87 bd 5e 81 be 3c
       -0.43721285 0.19661859 -0.06639555 0.023255046

layers.2.bias f4 [32]
000000 af e7 0c 3f 57 bc 0c 3f 09 77 59 be f0 0f 29 3f
       0.5504102 0.54974884 -0.21236815 0.66039944
000010 d1 90 48 3e 99 5f a7 be c1 8d 53 be 42 e3 83 3e
       0.19586493 -0.32690123 -0.20659544 0.2575932
000020 f7 d0 76 3d fc 86 bf 3e 4c c7 73 3e 5c 88 d9 3e
       0.06025788 0.37407672 0.23806494 0.42486846
000030 5c e5 5c be e1 da eb 3d fb 73 31 3e ba f7 c9 be
       -0.21571869 0.11516357 0.173294 -0.39446813
000040 e8 21 2f 3f 02 4d e4 bd 77 74 19 bf 78 2c 0b 3d
       0.6841111 -0.111475006 -0.59943336 0.033977956
000050 e4 f5 6a 3e 88 21 7d be fd 3f e4 3c 89 2e 42 3e
       0.22945362 -0.24719822 0.027862543 0.18963064
000060 63 14 0e bc dd 31 cc bd d7 bf 73 3f d7 92 8b 3e
       -0.008671853 -0.09970448 0.952146 0.27260467
000070 a7 0d c9 bc 86 13 05 3f cf 40 51 be 07 61 1f 3b
       -0.024542643 0.51982915 -0.20434879 0.0024319307

layers.3.bias f4 [32]
000000 c7 3a 77 be 4a c9 0d 3d a8 c8 28 3d 5c dd db 3b
       -0.24143516 0.034615792 0.041206986 0.0067097377
000010 16 fe 4f bc 13 4a b1 3c 4a cb a0 3e 6e d5 61 bd
       -0.012694856 0.021641767 0.31405097 -0.055135183
000020 27 31 c1 bb 94 88 dc bc 48 43 15 3f a0 e6 85 3e
       -0.005895752 -0.026920594 0.5830579 0.26152515
000030 d8 0d af 3e ce a9 c5 3d 9f 8e 82 3d 62 45 e5 3d
       0.3419025 0.09651528 0.06374859 0.11194874
000040 eb 80 fb 3e 1c 30 83 3d 65 89 04 be 89 23 e3 3b
       0.49121794 0.064056605 -0.12943037 0.0069317264
000050 7f 11 29 bd 88 b5 52 3d 28 a3 72 bd 0a 2e 98 ba
       -0.04127645 0.051442653 -0.05923763 -0.00116104
000060 8e 4e 14 3e 28 2d fb 3e 5a a3 98 3e 12 2b 7a 3e
       0.14483091 0.4905789 0.29812127 0.24430493
000070 b4 70 8a 3d d9 87 50 3c 2f 66 e1 bd 35 95 b3 bd
       0.06759778 0.012727701 -0.11005818 -0.08768693

layers.4.bias f4 [32]
000000 d7 5a a2 bd 79 e3 16 3e 62 8c a1 bd 3a 05 66 3e
       -0.079274826 0.14735211 -0.07888104 0.22462931
000010 b2 f0 f0 3e 51 c9 18 3d d0 e6 9d bd 3b a9 7a bd
       0.47058636 0.037301365 -0.077100396 -0.061196547
000020 f2 80 27 be 1e a1 ae 3d ad af 56 bd 0a ed 04 3d
       -0.16357782 0.085268244 -0.05241363 0.03245262
000030 b0 54 f5 3d 7f ff 08 3d 28 1e 8d 3a 38 43 10 3d
       0.119790435 0.033446785 0.0010766434 0.035220355
000040 c5 c9 34 bc 88 7c 2e 3d 10 4a ee 3d 8f e8 d8 3d
       -0.011034434 0.04259923 0.1163522 0.10591232
000050 fc 42 20 bc 8f df 1c 3e 36 37 4b 3d ff 91 0a be
       -0.009781595 0.15319656 0.0496132 -0.13532256
000060 f9 20 6d be 12 67 67 bd b0 c0 94 3e 2c be e9 be
       -0.2315711 -0.05649478 0.2905326 -0.45652902
000070 9d 71 64 bd 77 b5 25 3c 45 ec fb 3d ea a3 1f bd
       -0.055772413 0.010114065 0.12300924 -0.03897468

layers.5.bias f4 [32]
000000 30 66 65 3d 90 32 0f bd 61 18 89 3d 11 7e 85 bd
       0.056005657 -0.03496033 0.06694103 -0.06518186
000010 8a df 54 be 92 b5 97 bd 2c f4 f3 3c d0 f8 83 3c
       -0.20788398 -0.07407679 0.029779516 0.016109854
000020 ca ba 9c 3c bc 35 03 3e 75 7f f2 bc 2f b3 54 3d
       0.019132037 0.12813467 -0.029601792 0.051928695
000030 2f e3 28 bd 5c 45 d3 3d 6d 16 f4 3c 5a e9 a7 3c
       -0.041232284 0.103159636 0.02979585 0.020497013
000040 96 27 76 3d e4 d9 50 3d fc d7 09 3e 88 fe 12 be
       0.060096346 0.050989047 0.13461298 -0.14354908
000050 a8 69 66 bb c6 42 31 ba f6 a1 f7 bc a3 ee d1 3d
       -0.003515819 -0.0006761964 -0.030228596 0.102505945
000060 eb b8 b6 bc 0e de 34 3c 3b 1b 65 3e 48 a3 19 3d
       -0.022304973 0.01103927 0.22373669 0.037509233
000070 fe a6 60 3d b0 a5 09 3e 02 5e de 3c bf 7a 9a 3c
       0.054846756 0.13442111 0.027144436 0.018857358

final_layer.weight f4 [2, 32]
000000 5f 08 63 be e3 4a 82 3d ec d5 2a 3e 18 07 01 bf
       -0.22171162 0.0636194 0.16683167 -0.5040145
000010 46 63 21 bf 25 be 3a bd 7b fb 8a 3e 12 32 11 3e
       -0.63042104 -0.045591492 0.2714499 0.14179257
000020 2f 02 e0 3e 19 aa a0 3e e7 6b 03 bf da 54 e0 3e
       0.43751666 0.31379774 -0.5133652 0.43814737
000030 34 28 3b be b4 32 02 3f f7 db 06 3f 11 38 15 3e
       -0.18277055 0.50858617 0.5267939 0.14572169
000040 17 d3 79 be 79 79 db 3e f7 98 03 3f 2e 4b 1f 3e
       -0.2439693 0.42866114 0.5140528 0.15556023
000050 61 3f 4a 3d 24 0b a6 3e 76 f5 9d bc e7 52 9a 3c
       0.04937685 0.32430375 -0.019282084 0.018838359
000060 20 6a 9b 3e 69 75 b6 3e 6d f0 20 bf f0 2b 35 3e
       0.30354404 0.35636452 -0.6286686 0.17692542
000070 e0 82 22 bd c7 96 11 3f 4d 15 ee 3e a2 0d d5 be
       -0.039675593 0.5687069 0.46500626 -0.41611964
000080 ab 9e 38 3d 71 c1 8c be ce 29 46 3e d1 f7 bc bb
       0.045073193 -0.27491334 0.19351885 -0.0057668467
000090 e0 05 0a bd 3d ef 21 be 4f d8 e2 3d c2 94 43 3d
       -0.03369701 -0.15813918 0.11076414 0.04774929
0000a0 7b 0d 43 bc 04 68 91 bc de b6 b6 bc 68 56 8e 3d
       -0.011905069 -0.017749794 -0.022303995 0.069500744
0000b0 9f db 22 be 4f 53 13 bc b4 c0 3f 3d f6 71 d5 3b
       -0.15904091 -0.00899203 0.046814635 0.0065138293
0000c0 f2 80 cf 3d 7e c2 0e 3e b5 bc bb bb c7 4e e4 bd
       0.10132016 0.1394138 -0.0057292827 -0.11147838
0000d0 6b 2e f0 3d 2e 43 4e 3c 43 9f 52 bd f1 98 3e 3e
       0.117276035 0.012589259 -0.051421415 0.1861303
0000e0 fb bb e5 bd f1 f3 33 bd 6b 10 ae bc 01 2b 50 be
       -0.11217495 -0.043933813 -0.021248063 -0.20328905
0000f0 a7 d0 50 3e 88 7a bc 3c fc 00 32 3d ab 54 6e bc
       0.20392095 0.023007646 0.04345797 -0.014546554

final_layer.bias f4 [2]
000000 03 10 04 3d bd a1 1a 3d
       0.032241832 0.037751902

onnx::Gemm_60 f4 [32, 4]
000000 fa 66 0f 3f d7 cc 99 bd 81 b2 f0 3e a8 31 1a 3f
       0.56016505 -0.07509773 0.47011188 0.6023202
000010 20 fb 5d 3d 3a c2 1e 3f 9d f8 26 bf 08 60 14 bf
       0.05419457 0.62015116 -0.65223104 -0.5795903
000020 b8 4a 1a 3d 17 53 9c 3d b1 23 7c bf a4 3b 8c bf
       0.037668914 0.07633036 -0.9849196 -1.0955701
000030 0d 81 cd 3e 01 15 18 3f 18 80 04 3e 22 72 1d bf
       0.4013752 0.5940705 0.12939489 -0.6150228
000040 60 c3 6e 3e 31 94 28 bf da a8 ba be a3 54 14 3f
       0.23316717 -0.6585112 -0.3645695 0.57941645
000050 60 6c f5 3c 8c 04 08 bf 3a b7 8a 3d de c9 07 c0
       0.029958904 -0.5313194 0.06773229 -2.121696
000060 f2 9a e8 3e a6 c4 01 3f de 87 73 3e 72 37 29 3f
       0.45430714 0.50690687 0.23782298 0.6610023
000070 9b 01 f6 3c 40 a0 99 3f 10 70 bc be e2 04 37 40
       0.030030062 1.200203 -0.36804247 2.859673
000080 e7 aa 1d bf a7 e3 3b 3f fd f1 42 3f 0d 28 d6 3f
       -0.615889 0.73394245 0.76150495 1.6730973
000090 1a f2 cf 3e 6f b6 00 bf 8c e6 0c bf 97 4f 6a 3e
       0.40614396 -0.5027837 -0.55039287 0.22881924
0000a0 26 64 9f bd 4f 5a 1b 3f 75 3c 02 bf 15 47 0c bf
       -0.07782774 0.60684675 -0.508735 -0.5479596
0000b0 4f c3 f6 3e 30 51 02 3f 23 ba fd be 3b 72 ca be
       0.48195884 0.5090513 -0.49556074 -0.39540276
0000c0 e6 01 b2 bd 65 52 df 3d 9c 8a 70 bf ec 78 67 3f
       -0.08691768 0.109043874 -0.939615 0.9041889
0000d0 9b dc 00 3f 01 71 c5 3e 51 5d 27 bf 27 6c 2b 3e
       0.5033662 0.38562778 -0.65376765 0.16740476
0000e0 e6 b2 2e c0 0f 50 95 be 29 6c 08 3d eb 2e e1 be
       -2.729669 -0.29162642 0.033306275 -0.43981108
0000f0 b3 da e0 3e f9 ed 52 bc e2 29 40 bf f1 8c d9 be
       0.43916854 -0.01287412 -0.7506391 -0.42490342
000100 e0 df 58 3e 2f c5 81 be af 17 20 3f 24 03 39 3f
       0.21179152 -0.25345752 0.6253614 0.7227042
000110 88 68 62 3e 03 88 2a bf 62 c2 14 bd c0 6f 32 3f
       0.22110188 -0.6661379 -0.03631819 0.69701767
000120 01 88 77 bf 74 70 a7 3f 98 f5 e5 3f d5 1e b3 bf
       -0.966919 1.3081193 1.7965574 -1.3993784
000130 90 7e 69 bf 5f ad 82 3d de 11 16 c0 ea 2b 82 3f
       -0.91208744 0.06380724 -2.3448405 1.0169652
000140 df f9 0c 3d 49 fc 06 3f a7 cd 8d be 57 93 fd bf
       0.034417983 0.52728707 -0.27695963 -1.981059
000150 8a 26 0e 3d df 3e 85 3f f0 01 f4 3f 63 15 1a c0
       0.034704722 1.0409812 1.9063091 -2.4075553
000160 c9 2f de 3c 35 9c ef 3e e2 47 85 be 91 65 d8 bf
       0.027122395 0.46798864 -0.26031405 -1.6905996
000170 18 26 83 3e 44 ea 0a bf 4c f8 1b bf 93 66 02 bf
       0.25615 -0.5426371 -0.60925746 -0.50937766
000180 ca be 9c bd 94 2a 65 3c 4e fe b6 bf 95 a3 93 3f
       -0.076535776 0.013987202 -1.4296358 1.1534296
000190 f5 ed 3d 3e 7b 2d b2 3e a6 59 29 bf 7c 69 1b bf
       0.18547805 0.34800324 -0.6615242 -0.6070783
0001a0 60 79 7d 3d f9 40 1b bf 21 a9 4b bf 48 8c 16 bf
       0.06188333 -0.60646015 -0.79554945 -0.588078
0001b0 cf bc 6c 3e a0 5c 30 3f 86 89 f7 be b5 32 e3 3e
       0.231189 0.68891335 -0.4834711 0.44374624
0001c0 d1 5c fb 3d 93 8a c9 3e 43 36 b0 be 2d 40 53 3f
       0.12273563 0.39363536 -0.34416398 0.825198
0001d0 80 d9 39 3d 2c cb fc 3e 20 3f 70 3f 40 4d 47 bf
       0.04537344 0.49373758 0.9384632 -0.7785225
0001e0 e8 79 af 3d 65 e7 41 bf 37 30 b6 3d b3 71 18 bf
       0.08568174 -0.75743705 0.08895915 -0.5954849
0001f0 e4 ab 62 bd 89 0d 80 3f 9f 0c aa 3d 35 93 5d bf
       -0.05533971 1.0004131 0.083031885 -0.86552745

onnx::Gemm_63 f4 [32, 32]
000000 45 0c 03 3f c6 d3 03 bd 69 18 1d bd a7 69 48 be
       0.51190597 -0.032184385 -0.038353357 -0.19571553
000010 33 f8 0d bd 34 1b 93 3f bc 72 b3 3d ac 2f f1 bf
       -0.03466053 1.1492677 0.08762118 -1.8842673
000020 83 14 91 be 2a 03 b3 3e 9d e5 dc be 6a 84 8c be
       -0.28335962 0.3496335 -0.4314393 -0.27444774
000030 33 3f 07 be c6 50 f8 3d e6 45 49 3d 48 2e 1f bd
       -0.13207702 0.12124781 0.049138926 -0.038862497
000040 80 af a7 3d 63 66 30 3d cd a4 aa be 6a 48 07 be
       0.08187771 0.043066394 -0.33328858 -0.13211218
000050 f6 bf 5d 3f c8 8d f2 3f da 78 15 3f 9e d3 7c be
       0.86621034 1.8949518 0.5838753 -0.246901
000060 02 d7 c6 be 34 9f 00 bf bc e1 56 bf 37 ef d8 be
       -0.38835913 -0.50242925 -0.83938193 -0.42370006
000070 43 77 f5 be c2 89 22 3f 07 90 66 be 66 0f 1f bf
       -0.47942552 0.6349145 -0.2251588 -0.6213287
000080 61 f0 48 3e b5 5d 97 bb 3e 44 a5 be e1 cb 1c be
       0.19622947 -0.004619325 -0.32278627 -0.15312149
000090 66 c8 dd bd 48 46 5c be 6b 20 4b 3e 05 a9 b9 3e
       -0.108292386 -0.21511185 0.19836585 0.36261764
0000a0 54 9f f9 3c c2 4b 2a bd a3 a3 1e 3e 69 66 25 be
       0.030471481 -0.041576155 0.1549211 -0.16152348
0000b0 4b 30 4d 3e b5 7e 53 be ca 8b 21 be 37 8a 32 3e
       0.20037954 -0.20653804 -0.15775982 0.17435537
0000c0 bf 8b 0a 3e fa 04 89 3d ba 95 8f 3d 20 13 82 3d
       0.13529871 0.06690402 0.0701098 0.06351304
0000d0 c7 75 75 be d0 e8 55 be 5e 0c 76 be cf bc 39 3e
       -0.2397071 -0.20889592 -0.24028155 0.18138431
0000e0 4d 85 1d 3e 88 89 43 be ed 6c 34 3e c6 93 86 3d
       0.15382881 -0.19095433 0.17619677 0.06571154
0000f0 56 03 a9 3d e9 db d9 bd 7f 8c 49 3e 1c 34 81 3e
       0.082525894 -0.10637648 0.19682501 0.2523507
000100 16 6f d2 3d ed f7 25 bf cc d5 dd be 50 e0 4a 3f
       0.10275094 -0.6483143 -0.43327177 0.79248524
000110 53 87 ec be 7f c7 38 3d 09 2e a9 3b b0 63 30 bf
       -0.46196994 0.04511213 0.0051629585 -0.6890211
000120 eb 93 3f bd bc 95 ac be 3a 4b 15 bf 42 e9 ae 3e
       -0.046771925 -0.33707988 -0.5831791 0.34162337
000130 8e f6 fa be 10 22 5a 3e ee 0e e8 3d 2a 82 e5 be
       -0.4901623 0.21302056 0.113309726 -0.4482587
000140 9b 25 00 3f 61 fa f4 bd cf 20 0c bd 1d b4 d1 bd
       0.5005738 -0.119618185 -0.034210976 -0.10239432
000150 f1 c7 24 3f f4 33 ad 3f 4b 93 96 3e 83 98 ab be
       0.64367586 1.353148 0.2940925 -0.33514795
000160 ee 6c 2d bf c6 4d 00 bf a2 c6 68 bf ff 18 cb be
       -0.6774434 -0.5011867 -0.9092809 -0.39667508
000170 2a 85 91 be fc 08 10 3f 78 d0 32 3e 18 3b 10 be
       -0.2842191 0.5626371 0.17462337 -0.14085042
000180 7d a2 13 3e 00 8e 9b be 44 70 91 be fc 65 60 bc
       0.14417453 -0.30381775 -0.28405964 -0.01369619
000190 41 69 12 3e b0 70 44 be f1 bd 77 bd ac 2e d0 3e
       0.14297964 -0.19183612 -0.060483877 0.40660608
0001a0 90 c0 32 be 58 be 26 be 0b 70 46 be 7c 22 87 3d
       -0.1745627 -0.16283548 -0.19378679 0.06598374
0001b0 38 ec eb 3d 99 60 22 3e 0f bf b3 3d fc 46 62 be
       0.115196645 0.15857162 0.08776676 -0.22097391
0001c0 d5 2e 26 be 5c a5 52 3e 5b 2a 7a bd 13 d4 0f 3c
       -0.16228803 0.20570892 -0.06107555 0.00877859
0001d0 39 8c 76 be 30 37 5d be e1 93 88 be 8e e5 be 3d
       -0.24076928 -0.21603084 -0.26675323 0.09321128
0001e0 92 e2 a2 be 26 e6 90 3d fe 9b 71 be 0d db 9c 3d
       -0.31813484 0.07075147 -0.23594663 0.07658968
0001f0 8d 4c 89 bd 24 05 41 bd b1 67 2d bd 7d 6a 8a be
       -0.06704054 -0.047124043 -0.042335216 -0.2703437
000200 46 75 c0 be f5 cb 12 3f 07 8b 80 3e 70 aa 13 3e
       -0.37589473 0.57342464 0.2510607 0.14420485
000210 77 db cb be 6c a2 01 bf d6 63 07 bc 19 68 9e 3f
       -0.39815876 -0.5063846 -0.008263549 1.2375518
000220 ab c4 1b be 0a 02 60 3e 22 db 68 3e b2 0d fa 3e
       -0.15211742 0.21875778 0.22739843 0.48838574
000230 3c 7c 8a be d3 e0 3b 3d 66 0e e5 bc 2b 6a b4 3d
       -0.27047908 0.045868706 -0.027960967 0.088093124
000240 9a 6c 21 bf c6 e0 a9 be e6 ee c4 bd 29 d2 16 be
       -0.6305634 -0.331793 -0.09615879 -0.14728607
000250 19 84 30 be 8b 2a e6 be 09 2f f1 3d ba bd a0 be
       -0.17237891 -0.44954333 0.11776549 -0.3139475
000260 52 86 e7 bd 96 39 48 3e be 94 b3 bd c1 a1 92 3e
       -0.113049164 0.19553217 -0.08768605 0.28639033
000270 1b b7 f8 3e ee d3 18 be 8c 6d 9b be e2 3f c2 3e
       0.48577198 -0.14924595 -0.30357015 0.37939364
000280 0d 0d 86 be 3a 20 44 3f 98 5b ad 3f 95 0c c1 3c
       -0.26181832 0.76611674 1.3543577 0.02356557
000290 90 98 dc 3e 17 29 c1 3e 68 5a 2f bf 89 5d fa 3e
       0.43085146 0.37726662 -0.68497324 0.48899487
0002a0 b0 be 9b bd 88 73 e4 3c a0 71 47 bf 32 9d 19 be
       -0.0760473 0.02788712 -0.77907753 -0.15001372
0002b0 24 58 52 bf d8 59 be bd 1e c5 35 3d f0 58 81 3f
       -0.8216574 -0.0929448 0.04437744 1.0105267
0002c0 37 37 6b bf 6c b7 d2 3c db 48 91 3d b7 01 21 be
       -0.91881126 0.025722228 0.07093974 -0.1572331
0002d0 43 15 80 3f c5 0c 7f bf f2 bb a5 3f 65 75 eb 3e
       1.0006489 -0.9962886 1.2947981 0.45988002
0002e0 4a 01 7a bf 63 89 94 3e 5a 09 36 3f 4d 6f 0b 3e
       -0.97658217 0.29011068 0.7110802 0.13616677
0002f0 77 b9 0c bf a3 9d 06 c0 96 bb 35 be a1 98 ad 3e
       -0.54970497 -2.1033714 -0.1774734 0.3390551
000300 a1 2a 63 bd 8e 7a 25 3e 6a 4f b7 bd 7d bd e7 3c
       -0.055460576 0.16160032 -0.08950694 0.028288597
000310 7f ed fc 3d ae c7 6a 3e 99 97 13 be 0a cb a5 3e
       0.12349986 0.22927734 -0.14413299 0.3238147
000320 f7 32 f8 bd 13 7b 46 3d 09 37 8f be 27 31 bc 3d
       -0.12119096 0.048457216 -0.27971676 0.091890626
000330 82 24 9f be 1d b2 22 bc 7c a7 1b 3e 3d 0a 3e bd
       -0.3108254 -0.009930161 0.15200609 -0.046396483
000340 ab bd 70 be 46 50 36 3e 7d b3 31 3e 19 ee 09 be
       -0.23509853 0.1780406 0.17353626 -0.13469733
000350 89 12 20 be dd 02 22 be 6c 96 dd 3d dc 6e 93 bc
       -0.1563207 -0.15821405 0.10819706 -0.017997198
000360 fc 19 52 be c2 3a ee 3c d4 b2 16 3c 73 c6 3d bc
       -0.20517725 0.029080752 0.009197909 -0.0115829585
000370 02 d3 4a be 45 e8 f5 be e4 77 ef bd 22 7d 14 be
       -0.19807056 -0.4802877 -0.11692789 -0.1450086
000380 fe 3c 8e be 45 a5 8d be 5d 0b 2e 3f e8 b4 8b 3e
       -0.27780908 -0.27665153 0.6798609 0.27286458
000390 dc b1 9e be 6d 79 8c 3d 34 41 17 bf 79 24 68 3e
       -0.3099507 0.06859098 -0.5908387 0.22670163
0003a0 aa 1e d7 bd e7 10 04 3e 9e ab 8b be 11 03 1f 3d
       -0.105038956 0.12897073 -0.2727937 0.038821284
0003b0 ea 63 21 bf 10 15 ac bd da 57 84 be 4c d0 17 3f
       -0.6304308 -0.08402455 -0.25848275 0.5930221
0003c0 26 25 6e be 97 c8 c9 be e1 1b a5 bd 69 a9 da 3d
       -0.23256359 -0.3941085 -0.08061958 0.10676844
0003d0 d9 e7 14 3f cc 07 8f bd db 39 35 3f 73 45 2c 3f
       0.5816627 -0.06983909 0.70791405 0.6729347
0003e0 44 55 46 bf 62 e6 96 bd c8 9a 2e bd 56 51 6e 3e
       -0.77473855 -0.07368161 -0.04262808 0.23273215
0003f0 da 7b bd be 93 c9 46 bf 91 ea d4 be d0 14 43 3f
       -0.37008554 -0.7765133 -0.4158521 0.7620363

onnx::Gemm_66 f4 [32, 32]
000000 e7 d4 87 bf a5 c6 d4 be 52 fa 1e 3d ac 43 a2 bd
       -1.0611848 -0.41557804 0.038812943 -0.07923064
000010 c5 f8 a0 3f 97 55 13 40 3f 2a 01 bf b4 e8 cc 3e
       1.2575918 2.302099 -0.5045509 0.40021288
000020 52 4e a2 be 30 d9 8c be f3 40 4c bf 6d 14 1f bf
       -0.3170038 -0.2750945 -0.79786605 -0.6214054
000030 8c 03 e7 3e 34 80 c9 3e 05 b1 46 be 42 af 93 be
       0.45119894 0.39355624 -0.19403465 -0.2884465
000040 07 0e 5d be f8 d7 8e be e4 9d 22 bf 2a 57 d0 3e
       -0.21587382 -0.27899146 -0.6352217 0.406915
000050 28 fa 6d be 8a ef b9 be 00 a5 1c bf 99 f8 0d bf
       -0.23239958 -0.36315566 -0.6118927 -0.55457455
000060 2e e5 42 3f 2a 5b 0b bf d9 8d 82 3e eb 40 c4 be
       0.7613095 -0.5443598 0.25498846 -0.38330778
000070 29 51 11 bf 89 77 4f 3e 54 fc 26 bf 7e ea 1e bf
       -0.56764466 0.20260443 -0.6522877 -0.62076557
000080 6e 21 9f be 67 50 01 bf 92 c1 d3 3e 0a 72 da bd
       -0.31080192 -0.5051331 0.4135862 -0.106662825
000090 64 f5 77 3f b3 3d 22 3f ed 0e 81 be b0 f9 14 3f
       0.9685881 0.63375396 -0.252067 0.5819349
0000a0 42 26 2e be 1e 71 a7 be 3c e2 01 bf 32 7c cc be
       -0.17006782 -0.3270349 -0.5073583 -0.39938504
0000b0 0f f7 a2 3e 63 27 55 3e 38 5f 40 3e 04 86 3e be
       0.31829116 0.20815806 0.18786323 -0.1860581
0000c0 9a 36 38 be 93 23 67 be 94 5b 3f bf ed e2 8b be
       -0.17989579 -0.22572164 -0.7474911 -0.27321568
0000d0 91 f2 82 be a3 7e a2 be d7 06 0d bf c7 69 13 bf
       -0.25575688 -0.3173724 -0.5508856 -0.5758328
0000e0 94 4d c3 be b3 97 0f bf 01 ee 63 3e 64 dc 56 3e
       -0.38145125 -0.5609085 0.2225876 0.2098251
0000f0 8a 6e 16 bf dc a9 31 bf 9d 90 33 bf cf 0c 98 bd
       -0.5876242 -0.6939981 -0.7014254 -0.07424318
000100 39 3c 5e bd 4e f5 8a 3e 9a e8 dd 3e 4a 48 37 be
       -0.05425665 0.27140278 0.43341523 -0.1789867
000110 6e fb b7 3e 65 d9 44 3e ec 31 8a 3e 43 61 fd 3e
       0.35934013 0.19223554 0.26991212 0.49488267
000120 73 14 13 3e e1 ce ad 3e 5e 55 92 3e ac a6 22 bd
       0.1436327 0.339469 0.28580755 -0.039709732
000130 95 7e 8b 3e a2 ed 01 bd b5 20 d4 3d 86 29 69 be
       0.27245012 -0.031720765 0.10357801 -0.22769746
000140 41 33 a9 bc b0 15 0a 3e 1c d2 a4 bd 8e a1 92 3d
       -0.020654323 0.13484836 -0.08047888 0.0715972
000150 89 ec 8f bd c5 49 b8 3e c5 1d 57 3e 8d b4 9c 3e
       -0.070275374 0.35993782 0.2100745 0.306065
000160 a2 9c ab bd 64 73 3c 3e 73 c6 1e 3e 61 a8 e3 3d
       -0.08379485 0.18403393 0.1550539 0.111161
000170 ab b1 55 3d ba 94 ff 3d 7f e0 68 3e e6 ec d6 3e
       0.05217139 0.12479539 0.22741888 0.41977614
000180 3f 00 f0 bf dc 36 00 b9 77 59 16 bf 02 96 ca 3e
       -1.8750075 -0.00012227468 -0.5873026 0.39567572
000190 6e 24 88 3f 6d 59 8b 3f 8a db 8e 3e e6 18 f9 3e
       1.0636117 1.0886666 0.2790187 0.48651809
0001a0 22 e3 23 be c8 b2 44 3e f2 99 00 3f 7c b3 20 be
       -0.16004613 0.19208825 0.502349 -0.15693468
0001b0 51 de 4b 3f 79 7e f4 be 94 8c cf bf 82 66 80 bf
       0.796361 -0.4775274 -1.6214776 -1.0031283
0001c0 2a 1b 76 bf a4 39 94 be b9 c1 f2 be d0 24 36 be
       -0.961352 -0.28950226 -0.47413424 -0.1778748
0001d0 75 1f 3e bf d3 05 82 be 50 ef 0b 3e 80 3c 86 3d
       -0.7426675 -0.2539507 0.13665509 0.06554508
0001e0 19 bd 12 40 f5 ec ba bd fe b9 15 bf 11 e6 7f bf
       2.2927916 -0.09127227 -0.58486927 -0.9996043
0001f0 aa 43 2f bf af 6a 1f 3f 39 4f 08 3f 01 c6 84 3e
       -0.6846262 0.6227216 0.53245884 0.25932315
000200 db 73 01 c0 da 80 a1 3e d6 92 f6 be cb 8d ae 3e
       -2.0226963 0.31543618 -0.48158902 0.34092554
000210 c5 b2 c1 3e 8a 9d d0 be 8b 7f cc 3e 7a ff 39 3f
       0.37831703 -0.40745193 0.39941058 0.7265545
000220 e8 c3 c7 bd ea 43 fd 3e e7 bc 02 bd aa f9 b4 3e
       -0.09754163 0.49465877 -0.031918433 0.3534673
000230 28 26 0f 3f b4 7e f5 be 24 26 8e be 3f f9 fd be
       0.55917597 -0.4794823 -0.27763474 -0.49604222
000240 d5 80 73 be 6f fc d1 bd af 7e 14 3f 31 bc 1e be
       -0.23779614 -0.10253226 0.58005804 -0.15501477
000250 b3 60 86 be e0 41 c4 3e 83 4e ff 3d 02 e5 ed 3e
       -0.2624565 0.3833151 0.12466147 0.46463782
000260 1b 86 a7 3f 1d 12 d9 3e fa 10 f2 be 35 a9 a0 3e
       1.3087801 0.42396632 -0.47278577 0.31379095
000270 b3 78 65 be 7d 77 1c 3d c4 0b 1f 3f 64 fd 29 3e
       -0.22409324 0.03819989 0.6212733 0.16600567
000280 2e d2 23 bd 5e 94 99 bd f5 26 21 bd 02 fe 31 3e
       -0.039995365 -0.07499002 -0.039343793 0.17382053
000290 2d a1 59 3d af e5 3d bc fd 0c 6d 3e 1f f7 9f 3e
       0.053132225 -0.011590405 0.23149486 0.31243226
0002a0 ec c6 2c 3e 8b cb 79 3e d8 4b bf 3e f9 9a 45 be
       0.16872758 0.24394052 0.37362552 -0.19297399
0002b0 16 3e 7e be db 06 d1 3c b9 2e 25 3d f4 31 ee 3c
       -0.24828371 0.025515964 0.04032776 0.029076554
0002c0 1c 20 d2 3d a9 4a fe 3d c4 47 a3 bd e4 bb 17 3e
       0.102600306 0.12416584 -0.079726726 0.14817768
0002d0 a9 c0 99 3e fe e6 8a 3e 75 e5 65 3e 30 ac 61 3e
       0.300298 0.27129358 0.22450812 0.2203834
0002e0 37 4b 96 be bf 2e 5a 3e 5e 40 9c 3e 50 4d 88 3e
       -0.2935426 0.21306895 0.30517858 0.26621485
0002f0 0a 5c 49 3e a5 fb 7c 3e 65 74 9d 3e 97 c8 22 be
       0.19664016 0.2470537 0.30752864 -0.15896831
000300 2a 40 e9 be e6 df 08 3e 54 c7 84 be 15 22 c6 bc
       -0.45556766 0.1336666 -0.25933325 -0.024186173
000310 ac 23 4b 3d 33 6f b7 be fe 8a 50 3e 8b 03 51 3e
       0.049594566 -0.35827026 0.20365521 0.20411508
000320 5b 59 0a 3e 3b 5f 84 3e 7d cc b0 3d aa 83 d1 3d
       0.13510649 0.25853905 0.08632753 0.10230191
000330 fb b3 e1 3d 9e 65 2e be 48 91 4b bd 9e 86 43 3d
       0.11020657 -0.17030951 -0.049699098 0.047735803
000340 35 80 2c bc 13 40 1c be 14 d4 00 3d 7f 8f 34 3e
       -0.010528614 -0.15258817 0.031452253 0.17632864
000350 77 90 21 be 9e b2 1e 3e 09 d4 28 3e 25 d1 68 3e
       -0.15777765 0.15497825 0.16487135 0.22736032
000360 4a a5 1d 3d 00 f9 cc 3d 7b 71 8e 3d 21 77 95 3d
       0.03848771 0.100084305 0.069552384 0.07298113
000370 3b 77 ae 3d eb f6 2c be 01 5a 37 3f 1b 5b 6a 3d
       0.08518835 -0.16891067 0.7162171 0.05721579
000380 f1 a9 94 bf 4d 14 d6 3c fd f2 ac 3d 7b 83 e0 bc
       -1.1614362 0.026132727 0.08444784 -0.027406445
000390 c2 ac 54 3f b5 27 8c 3f c1 f1 c3 bd 8e 10 98 be
       0.8307611 1.0949618 -0.09567595 -0.2970013
0003a0 b8 65 a8 bd 7b bd 12 be e2 f3 5f bd 0b 3b 95 be
       -0.08222526 -0.14330094 -0.054675944 -0.2914661
0003b0 52 a1 38 3f f4 52 17 3e ee 69 08 be d8 22 2f be
       0.72121155 0.14777738 -0.13321659 -0.17103136
0003c0 1d 95 db be 27 8b 73 3e 4d a5 51 bd 6b 82 d2 3e
       -0.42887202 0.23783551 -0.051183034 0.41115126
0003d0 0d 38 de be a2 db f7 bd 85 9d 86 bd 8f 4c be bd
       -0.43402138 -0.121024385 -0.06573013 -0.09291946
0003e0 91 aa e8 bc 7d 5c a5 bd 23 dc 2b 3e 4f 92 75 bd
       -0.028401645 -0.08074281 0.16783194 -0.059953984
0003f0 4c dd a6 3d 36 24 e4 bd 0f 94 4e be 90 20 f0 3e
       0.08147678 -0.11139719 -0.20173667 0.46899843

onnx::Gemm_69 f4 [32, 32]
000000 31 60 09 bf 6e b7 cb be 80 6d ce bd 61 eb 3a bf
       -0.536624 -0.39788383 -0.10079479 -0.7301541
000010 46 67 58 3e 09 e2 bb bc 1b 7d bb bc a5 b7 49 3f
       0.21133146 -0.02293493 -0.022886803 0.78795844
000020 54 9d 42 3e 80 fd a9 be be bd df 3d 07 c0 f4 3d
       0.19005328 -0.33201218 0.10924862 0.11950689
000030 3e 0a 1e 3e 49 94 77 3e 67 c2 3a 3d d9 46 9e bd
       0.15433595 0.2417766 0.045595553 -0.07728357
000040 18 2c 69 3e 08 bd b7 3d 63 2f 96 be b8 15 e1 3c
       0.22770727 0.08971602 -0.29333028 0.027476177
000050 4a 64 e5 bd eb e3 2a bb df 52 9c 3e 09 13 5b bd
       -0.11200769 -0.002607579 0.30531976 -0.05348495
000060 f5 2f 42 3e 5b a2 19 3e ec 5f d9 3b fc 9f 55 bd
       0.18963607 0.1500334 0.006633749 -0.052154526
000070 f2 e5 e6 3c a7 5b ef bc 96 0a 52 be 0b 00 f5 bc
       0.028185818 -0.029218508 -0.2051185 -0.029907247
000080 d7 f0 59 bf 02 27 8a be 87 ee da be 84 f3 c2 be
       -0.8513312 -0.26982886 -0.42760107 -0.38076413
000090 87 6f e0 3e a2 b9 cb bd 54 5f 1f bc 7a 20 c3 be
       0.4383509 -0.09947516 -0.009727318 -0.38110715
0000a0 f4 a3 b6 be 45 03 ac 3d 87 c0 70 be 7e 47 de be
       -0.3567196 0.08399061 -0.23510943 -0.4341392
0000b0 d0 15 01 bf 81 99 36 be 8b 55 11 bc 83 6a 86 bd
       -0.5042391 -0.17831995 -0.008870493 -0.06563284
0000c0 3f 4e c7 3f fd 81 fa bd aa ea 10 bd 02 d6 a2 bf
       1.5570754 -0.122318245 -0.035380043 -1.272156
0000d0 f4 77 47 3e 3a 39 ed be 83 28 0e bf c1 d5 4f 3d
       0.19479352 -0.46332723 -0.55530566 0.05074096
0000e0 dc 8c 13 be df ee a0 be a1 7c 6e 3f ce a4 bf 3d
       -0.14409202 -0.31432244 0.9315892 0.09357606
0000f0 7d b2 38 be 0f 13 c7 bd 8e a0 c3 bc 11 12 1d bf
       -0.18036838 -0.09720432 -0.02388027 -0.6135569
000100 29 87 b9 3e 04 a0 e5 bd 21 be 48 be 5f 93 0f bf
       0.36235932 -0.11212161 -0.19603778 -0.56084245
000110 18 a8 f6 bd d1 0a 26 bd 65 b6 5a 3e 25 81 af 3e
       -0.1204378 -0.04053766 0.2135864 0.34278217
000120 1e 0f dc 3d 6e 77 0d be 78 f7 7f be 03 81 5a bd
       0.10745071 -0.1381509 -0.24996746 -0.05334569
000130 df 41 81 be b8 59 3b 3f 4f bf 9a be 9e 54 43 3e
       -0.25245568 0.73183775 -0.30224082 0.19075248
000140 72 fe 5a 3e 3d 8f 28 bd 58 75 86 3e 4b 8b 16 be
       0.21386126 -0.041152228 0.262614 -0.14701574
000150 0e ae c2 3f 9b 0b 74 bd b7 66 f8 be b4 0b b9 3d
       1.5209367 -0.05958138 -0.48515865 0.09035435
000160 5c 29 39 bf 6e 95 6c 3d e9 e8 9a be ba 38 9f 3f
       -0.72328734 0.057759695 -0.3025582 1.2439187
000170 57 99 f6 3e 1b c7 d4 3d 79 e9 21 be 1a 25 2c bf
       0.48163864 0.10389539 -0.15811719 -0.6724411
000180 77 d1 a7 be eb 6b 3b be c7 16 39 be 41 bb b6 3e
       -0.32776996 -0.18302886 -0.18075095 0.35689738
000190 e8 0d 19 be ae 79 c3 3e 75 58 7f bd 2f 7c 33 3e
       -0.14946711 0.38178772 -0.06234022 0.17527841
0001a0 81 50 32 3e f5 8c c3 bd 90 0e 4c bd a7 fb 2c be
       0.17413522 -0.0954837 -0.049818575 -0.16892873
0001b0 cd 6f 6a 3e 15 43 42 3d 59 5c 03 bd 45 22 dc 3d
       0.22894211 0.047427256 -0.03207049 0.10748724
0001c0 7a 1b 0a be 2d a9 a8 3e 78 e2 5f 3c 05 60 af 3d
       -0.13487044 0.3294157 0.013664834 0.08563236
0001d0 f5 f4 c6 bd bb 6a 83 3d 51 e5 10 3e ef be ae bc
       -0.097146906 0.064168416 0.14149977 -0.021331279
0001e0 fe cb 86 3e 29 04 41 be 7e 2c 70 3d 6b b2 84 be
       0.2632751 -0.18849243 0.05863618 -0.25917372
0001f0 c5 13 27 3e 60 b0 61 3e 61 52 38 3e 1c df 8b 3e
       0.16316135 0.22039938 0.18000175 0.27318656
000200 fe 3a 99 bb b1 93 8e 3e 0a 23 5a be 6a 0b e1 3d
       -0.004676222 0.27847055 -0.21302429 0.10988505
000210 b2 20 27 be b9 05 a0 be 72 da 99 3d a7 6f 8b 3e
       -0.16321066 -0.31254366 0.07512368 0.2723362
000220 ff 3b 01 be 19 c9 bf 3d 03 1a 48 be c6 1f 9b 3e
       -0.12620543 0.09364528 -0.19541173 0.3029768
000230 7c bd 92 3e 55 87 20 be dc 65 21 be 7c 31 ca bc
       0.2866019 -0.15676625 -0.15761513 -0.0246818
000240 66 63 52 be 88 ef 9b 3e c5 fe 90 3e 62 e5 7d 3d
       -0.2054573 0.30456185 0.28319374 0.061986335
000250 b1 55 f3 3e 25 1e 24 3e 6d c2 e0 bd ce 0f cd 3d
       0.47526315 0.16027124 -0.10974584 0.1001278
000260 67 8a 41 be a6 bf 81 be 04 6e 8e bc ac 51 e0 3e
       -0.18900453 -0.2534153 -0.017386444 0.4381231
000270 9a 59 84 3e fd 67 bc 3d 46 15 26 be 4f a8 90 be
       0.2584961 0.09199522 -0.16219053 -0.2825341
000280 1b 49 55 bd a7 fd 84 be 01 bc 94 3e 6d 19 eb 3e
       -0.052071672 -0.2597477 0.29049686 0.45917836
000290 0a 77 d9 be 04 86 30 be fd 5a 8a be ad c9 09 bf
       -0.42473632 -0.17238623 -0.27022544 -0.5382336
0002a0 52 28 b7 be bf 3a 65 3e 81 b0 3d be b4 21 d7 bd
       -0.3577295 0.22385691 -0.18524362 -0.10504475
0002b0 88 23 15 3e b9 ac 9f be a9 8a 0b 3e 10 4c a2 bd
       0.14564335 -0.31186464 0.13627113 -0.07924664
0002c0 bc ca 5a 3d 12 14 a1 3d 19 a5 04 3e e5 ef 14 3e
       0.053416 0.07865156 0.12953605 0.14544638
0002d0 eb 45 b3 3d 7b ed 1a be 31 aa de be db 4e 81 3e
       0.0875357 -0.15129654 -0.4348922 0.25255474
0002e0 fc d3 bd 3d 5c 47 d7 3e 37 32 16 bf be 03 b0 3e
       0.092689484 0.4204663 -0.5867037 0.34377855
0002f0 b3 4b 28 3e ec a4 4e bd cd 46 b2 3e 85 d0 a5 3e
       0.16435127 -0.05045025 0.34819642 0.3238565
000300 ff 17 bf 3e 32 18 17 3e 0d b4 40 bc 15 85 38 3e
       0.37322995 0.14755324 -0.011761677 0.18019517
000310 1e 3d d1 bd 41 c5 35 be 98 d8 2a 3e b0 91 31 bd
       -0.10216735 -0.17751028 0.16684186 -0.04335183
000320 d1 18 c2 bd 73 54 c4 bd e3 22 5e be 63 38 b5 3e
       -0.094773896 -0.0958642 -0.21692996 0.35394582
000330 ad 6e 87 3e 39 f6 26 be b5 10 c9 3d 2c a9 7e bd
       0.26451626 -0.16304864 0.0981764 -0.062173054
000340 77 2b 74 be 8e 29 ed bd 75 5f 02 3d 79 32 a0 bc
       -0.23844706 -0.115801916 0.031829316 -0.019555317
000350 ba 4f d8 3e 62 be f0 3c 78 55 97 3e 65 1a b4 bd
       0.42248327 0.029387657 0.29557395 -0.08794097
000360 86 25 76 be 0a 3a e9 bd 09 5f 1f bc 1f 71 dd 3e
       -0.24037752 -0.11388023 -0.009727248 0.43250367
000370 51 7f de 3d 5d 1f ce bd 07 ed 8a 3d 0c 27 cc 3e
       0.108641274 -0.10064576 0.06783491 0.3987354
000380 71 13 25 be ea ef ab 3d 47 ae 0f be 13 d2 34 bc
       -0.16120698 0.08395369 -0.14031325 -0.011036414
000390 f0 f1 8c 3d 66 c4 3a be 54 da 06 3e e9 af bd 3e
       0.068820834 -0.18238983 0.13169223 0.3704827
0003a0 63 0f 80 3e a2 b2 41 be e4 39 d6 bb 75 73 88 be
       0.2501174 -0.189158 -0.006537663 -0.26650587
0003b0 6b 1c 63 3e 1f ec e0 3e 29 c8 62 be 20 8d eb 3d
       0.2217881 0.43930146 -0.22146668 0.11501527
0003c0 e1 a5 09 bd e7 15 de 3d 7f fc 28 3e 61 95 ff 3c
       -0.03360546 0.10844021 0.1650257 0.03119916
0003d0 d9 04 c4 3e 08 e1 75 be 5e 6e a0 3e 1e 38 14 3d
       0.38284948 -0.24011624 0.31334203 0.03618633
0003e0 30 52 6d be 7e 80 9c 3d 5f 4a 12 3e 32 ce e2 3e
       -0.23175883 0.076416954 0.14286183 0.4429794
0003f0 f0 35 80 bd e4 85 88 3d 77 dd 85 be 30 a2 93 be
       -0.06260288 0.066661626 -0.26145527 -0.28834677

onnx::Gemm_72 f4 [32, 32]
000000 b8 17 77 bd cf 2b 68 3e aa a3 0f bf 89 97 4c 3e
       -0.060325354 0.22672962 -0.56109107 0.19979681
000010 0b 5d 77 3e 39 66 64 3e 68 3d a7 3a 1e 9b 04 3f
       0.24156587 0.2230462 0.0012759389 0.5179919
000020 0b 82 94 bd 55 1d 95 be 9c 34 d7 bd 50 69 9c be
       -0.07251366 -0.2912394 -0.10508081 -0.30549097
000030 56 15 12 3e ae 66 74 3e 85 05 23 be 5d 31 03 bd
       0.14265952 0.23867294 -0.15920074 -0.0320295
000040 41 6f 23 bf 0c 58 a2 bd 18 a4 33 3e 79 4e a4 bb
       -0.63841635 -0.0792695 0.17543066 -0.0050142375
000050 c7 55 10 3d f5 3c 61 3d 92 ee c0 bd 6a e6 fb bd
       0.035238054 0.054989774 -0.09420504 -0.12299807
000060 48 6f 58 3d 59 fd f2 3d ac 24 cb be 70 d0 e1 be
       0.0528405 0.118647285 -0.39676416 -0.44104338
000070 36 32 0c 3e 88 b9 2c be 2b 4e ed 3d c7 67 ee 3d
       0.13691029 -0.1686765 0.11587175 0.11640888
000080 dd ae 1a 3e 74 6d d2 bd 0c 45 da 3e ae a9 53 3d
       0.15105768 -0.10274783 0.42630804 0.05167549
000090 19 28 4c be 5a 4c ab 3d 98 ad 01 be 10 c7 03 3e
       -0.19937171 0.08364172 -0.12663877 0.12868905
0000a0 59 bf 29 bd 06 d2 0b be 76 f7 9a be b7 eb ae 3e
       -0.04144225 -0.13654336 -0.30266923 0.3416421
0000b0 97 73 9d bf 7d 3d 5b 3e 66 11 5c 3e 1a 12 4f 3d
       -1.23009 0.21410175 0.21491012 0.050554372
0000c0 24 4a 4a bf 3a e3 80 3c 48 53 ce be 43 cf da 3d
       -0.7901938 0.01573335 -0.40297914 0.10684063
0000d0 5a 1f 89 3d 4a 54 06 3d 04 e1 ab bd d1 4b 78 be
       0.06695433 0.032795228 -0.08392528 -0.24247672
0000e0 d6 3b 74 3d 68 8f dd bd f5 f0 de be 07 fe b4 3d
       0.059627376 -0.10818368 -0.4354321 0.08837514
0000f0 d0 6b 11 bf cc 39 f2 3d d9 dd 83 bd 37 8e dc bd
       -0.56805134 0.1182743 -0.064387985 -0.10769313
000100 cb af 4f be e5 d8 25 3d b2 19 f7 3e e2 9c 0c bd
       -0.20281903 0.04049005 0.4826179 -0.034329303
000110 39 b4 00 be 84 11 7a be 9e d9 2b 3e bf c0 0d bf
       -0.1256875 -0.24420744 0.16782233 -0.5537223
000120 48 63 3b 3e 25 af 5a be 22 fc b5 3e 72 47 32 be
       0.18299592 -0.21355875 0.35543925 -0.17410067
000130 a9 1b b9 3e 71 3a 9c be de 78 69 be d5 3d 0b be
       0.36153916 -0.30513337 -0.22800013 -0.13597806
000140 c6 4d 0e 3e 07 0a 19 be cf 01 ef be 1d 74 91 bd
       0.13896856 -0.14945231 -0.46681067 -0.07102225
000150 5a dd cc bd 17 2f 3c 3d d0 5b 15 3e 6b ea 38 bc
       -0.10003157 0.045943346 0.14585805 -0.011286358
000160 7b 66 03 bf d7 ec a1 bc 10 4a de 3e 55 7c 8c be
       -0.5132825 -0.019766254 0.4341588 -0.27438608
000170 35 6d 93 bc f2 b6 ee 3e ed 2e 29 bf 90 bd 46 be
       -0.01799641 0.4662395 -0.6608723 -0.1940825
000180 52 3c 04 3f bb 1d e7 be 90 dd 89 3e 5d c4 2c bf
       0.5165454 -0.4513987 0.2692685 -0.67487127
000190 58 d8 8c 3e b3 d3 0f bd 9d e0 ee bd 44 cd e9 bd
       0.27508807 -0.035114 -0.11663935 -0.114161044
0001a0 ce ae e8 3d 15 2a c3 be af e8 17 3f 6c 17 ed 3c
       0.11361466 -0.38118044 0.5933942 0.028941832
0001b0 4b 62 18 be 18 2e 83 3d 4b f1 42 3d 5d 0d bd be
       -0.14881246 0.06405276 0.047593396 -0.36924258
0001c0 ab b6 86 3e f6 fa bd 3d 50 fc c3 bd f3 fd 1d bf
       0.2631124 0.092763826 -0.09569609 -0.6171562
0001d0 e4 ec 70 bd 49 8c 04 3e 5b f6 c5 3e b6 39 a2 3c
       -0.058819667 0.1294414 0.38664517 0.01980291
0001e0 a6 f8 b5 3c 14 10 fc bd c9 b2 f1 3d ea f2 b7 3e
       0.022213291 -0.12307754 0.11801679 0.35927516
0001f0 0e 02 08 3e d9 f8 0a 3e f1 2b fa be 52 66 2f bd
       0.13282034 0.1357149 -0.4886165 -0.04282219
000200 2d 5c 3d 3e 11 8b 30 3c cb 5c bc be 50 fc d3 bd
       0.18492194 0.0107753435 -0.36789545 -0.10350859
000210 09 30 19 be b3 23 f8 3c 59 43 7e be a3 0e a8 bd
       -0.1495973 0.03029046 -0.24830379 -0.08205917
000220 a8 d7 d5 bd 06 bc 09 bd 17 6e 46 be 22 96 89 be
       -0.10441524 -0.03362658 -0.19377933 -0.26872355
000230 8f 8e 9b bd b2 e1 7f be 4e e3 e9 3d 8f f6 7d be
       -0.0759555 -0.2498844 0.11420308 -0.24801086
000240 33 60 b0 3e 4f 3b ed bd b8 c0 20 be 21 67 8f be
       0.34448394 -0.11583578 -0.15698516 -0.2800837
000250 30 06 91 be 78 fc 97 3e 0f 74 a2 bc 43 c0 c2 be
       -0.28325033 0.29684806 -0.019830732 -0.3803731
000260 0f 84 ae bd 80 58 25 bf 0c 05 dc bd f2 17 a6 3e
       -0.08521282 -0.64588165 -0.1074315 0.32440144
000270 c2 bd c3 bd e9 5d 0c be 50 0b 02 3e 11 cc 16 bd
       -0.09557678 -0.13707699 0.12699628 -0.036815707
000280 6f 23 23 bf 7d c9 b8 be 93 2d f4 3e 62 47 a5 bc
       -0.6372594 -0.36091223 0.4769102 -0.02017564
000290 1c ff 66 be 49 ab 55 3e 1f 86 6d be ef 40 46 3e
       -0.22558254 0.20866121 -0.23195694 0.19360708
0002a0 43 46 eb bd 6e fd 18 be f7 00 66 be cc 46 5f be
       -0.11488011 -0.14940426 -0.22461306 -0.2180435
0002b0 13 af 00 3e 8c a2 47 bf f4 97 aa 3e 6f 9a 9b be
       0.12566786 -0.779824 0.33319056 -0.3039126
0002c0 ba d1 ba bc 40 21 a3 3b 3c cc 03 3e 3f 93 44 be
       -0.022805084 0.004978329 0.12870878 -0.19196795
0002d0 1c f2 2e 3e 46 c6 8b 3e a1 a0 53 3e 0c ff 86 3e
       0.17084545 0.27299708 0.20666744 0.2636646
0002e0 46 1d f8 bd be 68 84 3b 01 f2 42 3e e5 82 c2 be
       -0.121149585 0.0040408066 0.1903763 -0.3799049
0002f0 92 90 9f 3e a8 a8 09 3e f6 37 22 be 87 ff 44 3e
       0.31164986 0.13443244 -0.1584166 0.19238101
000300 62 6b 90 bf 55 1c 0e 3e 54 67 00 3f ed bd 2d be
       -1.1282771 0.13877995 0.50157666 -0.16966982
000310 01 9b 78 be 89 56 45 be 21 44 e9 bd e4 60 d0 bb
       -0.2427788 -0.19271292 -0.11389948 -0.0063592065
000320 2c 9c 1d 3d 80 43 56 3d 90 bf 5b 3d 01 67 a3 bd
       0.038479015 0.052310467 0.053649485 -0.07978631
000330 96 3e 00 3f 06 df 28 be 8b 55 3a 3e 78 b7 9e 3e
       0.500955 -0.16491327 0.18196695 0.3099935
000340 72 d1 90 3d 24 71 cb 3d 58 4b 68 3e f5 ec 62 3c
       0.070711985 0.09933689 0.22684991 0.01385044
000350 d8 75 81 3e 82 ee 8f be 84 dc 23 3c 0a 9d 08 3e
       0.2528522 -0.28111655 0.0100013055 0.13341156
000360 66 0e 93 bd dd aa d0 3d 6e 85 fd 3e 12 29 c2 bd
       -0.07180481 0.101888396 0.4951586 -0.0948049
000370 50 f1 bd 3d 68 94 cd 3e 34 45 a2 3d ae a7 51 bd
       0.09274542 0.40152287 0.07923356 -0.051185302
000380 e6 a8 be 3d 9d 01 b5 3e 13 2a b2 be 57 82 e7 3d
       0.093095586 0.35352793 -0.34797725 0.11304157
000390 9e cc 2a 3e d8 01 ce 3e 3c 1e 5a bd 24 83 cd be
       0.16679618 0.40235782 -0.05325149 -0.40139115
0003a0 81 75 98 3e 33 e1 de 3c 65 df 2e bd 86 8f ab 3c
       0.29777148 0.027206993 -0.042693514 0.02094246
0003b0 c5 ba ae bd 69 cd 89 be 05 c8 d6 be 49 79 c3 3e
       -0.08531717 -0.26914528 -0.41949478 0.3817847
0003c0 ff 44 c5 3d e4 6e 3a bd b0 ea 83 be 7b 07 d7 bd
       0.096323006 -0.04551591 -0.2576499 -0.10499474
0003d0 32 0f d2 be 82 be b8 3d 9a 11 c6 3c f0 c9 f9 3d
       -0.41027218 0.090207115 0.024178315 0.1219672
0003e0 75 10 43 be 7d 45 f3 be 87 b9 31 bf fb e2 a5 bc
       -0.19049247 -0.47513953 -0.6942372 -0.020249834
0003f0 8b c6 64 be c4 09 3c 3e f2 71 02 3d da a2 30 be
       -0.22341363 0.183631 0.031846948 -0.17249623

onnx::Gemm_75 f4 [32, 32]
000000 75 b7 32 3c 59 1e 04 3e ef f5 30 3e 5c 7f 7a 3e
       0.010907997 0.12902202 0.17281316 0.24462646
000010 87 66 ba bd db aa fd 3d aa 5c 4a be 19 24 2d bd
       -0.09101587 0.12386104 -0.19761911 -0.042270754
000020 56 3d 78 bd 4e e7 0d be 6c 78 06 3e 50 a3 dd bd
       -0.06060537 -0.13857767 0.13131875 -0.10822165
000030 29 bb 54 be 57 d6 c0 bd 84 ab 2a be 3c 45 8a 3e
       -0.20774521 -0.09415882 -0.1666699 0.27005947
000040 46 7c a5 bd a9 d6 24 3d 2c 84 a7 3d 58 71 88 be
       -0.08080344 0.04024378 0.08179507 -0.26648974
000050 86 95 3f be 79 1c df bd 75 86 b6 bd 1b ad 15 3d
       -0.18709382 -0.108941026 -0.089123644 0.03654204
000060 12 3b 14 be 15 6a 1f be 55 6b 7d 3e d5 ea 17 3e
       -0.14475659 -0.15567811 0.24747975 0.14835675
000070 6a 72 63 3d 2e 85 5a 3e 5a 7c 09 be 84 a1 89 be
       0.055529036 0.21339867 -0.13426343 -0.2688104
000080 11 2a 8e bd 25 89 0e bd 65 b8 dd 3d b1 12 ac bd
       -0.06941617 -0.03479876 0.10826186 -0.084020026
000090 c2 79 5b bc 66 c7 6e 3e 4c 85 5a be 46 e8 89 be
       -0.013395729 0.23318252 -0.21339911 -0.26935023
0000a0 2e e2 0b 3d 29 2b f8 bd 0e b9 08 be 1a 3f 3a bd
       0.03415125 -0.12117607 -0.13351843 -0.045470335
0000b0 ff cf 91 3c d3 bf 9a 3e c0 a7 e7 bd 7c 23 81 3e
       0.017799376 0.30224475 -0.11311293 0.25222385
0000c0 1e 8a fa 3c 87 7a 96 bb 02 4f b2 3d a0 ec 1f 3e
       0.030583438 -0.004592243 0.08706476 0.15617609
0000d0 d7 dc 55 be df fa ba 3d 6a 10 6d bd 02 0b 94 bc
       -0.20885025 0.09129881 -0.05787698 -0.018071655
0000e0 e5 07 8c 3d 83 e4 a3 3d 0c e5 fe 3c b8 ad a7 3d
       0.06837443 0.080025695 0.031115077 0.08187431
0000f0 0f 19 a7 3d 4b 43 a4 3c 38 3a 6f bd eb d3 46 be
       0.081590764 0.020051619 -0.05840513 -0.19416778
000100 68 f7 ff 3d fd 76 8d 3e 2c c9 0f be fd 28 7f 3e
       0.12498361 0.27629843 -0.14041585 0.2491798
000110 f0 09 38 3d c3 ac dc 3b 1b 4f 26 3e 9e 6d 37 3e
       0.044931352 0.006734462 0.16241114 0.1791291
000120 75 96 3b be db 42 58 3e cd 61 89 be 10 f6 36 39
       -0.18319114 0.21119253 -0.2683243 0.00017448538
000130 b3 1c 57 3e 67 9c 17 3e 3f fa 60 3d 09 6d a4 be
       0.21007042 0.14805757 0.054926153 -0.32114437
000140 75 e2 df bd 3f 98 19 bd 79 44 15 3e 7b 45 11 3e
       -0.10931865 -0.03749871 0.14576901 0.14186661
000150 67 cd 02 3e ae b4 3f bb ec 2d 41 3d 93 a2 52 3d
       0.12773667 -0.002925198 0.047162935 0.051424574
000160 88 01 9b bd c0 ba 3b be b1 97 d3 3c d9 9f 0f bd
       -0.075686514 -0.18332958 0.025829168 -0.035064552
000170 16 53 f6 3d d7 b7 18 be b5 99 97 3d e4 84 41 3e
       0.12027566 -0.1491388 0.07402364 0.1889835
000180 ea 30 1b 3e 03 88 42 be ba 60 4d 3e 4b 82 0c be
       0.15155378 -0.18997197 0.2005643 -0.13721578
000190 6f 37 27 3e ca aa 06 3e a6 f6 2f be c2 59 ef bc
       0.1632974 0.13151088 -0.17183933 -0.029217605
0001a0 52 43 f4 3d 31 6d 50 be 51 33 e7 3d 34 f2 8c 3e
       0.11926903 -0.20354153 0.11289085 0.27528536
0001b0 42 f5 2b be 0a 3d c4 bd ad 7d 70 be 75 7c 8f be
       -0.16792777 -0.09581955 -0.23485442 -0.2802464
0001c0 68 ce ac 3e 91 ca 6e be 09 85 15 be f0 7b 31 3e
       0.33751225 -0.2331946 -0.1460153 0.17332435
0001d0 74 41 54 3e 43 32 70 3e 06 af f0 bc 47 5d 81 3e
       0.20728093 0.23456673 -0.029380333 0.25266477
0001e0 9e 7f a7 3e b0 8b 13 3e cb d1 25 3d 17 6e 5d 3e
       0.32714552 0.14408755 0.040483277 0.21624027
0001f0 e4 5d fa bd 35 67 3b bd b8 c9 5a be d8 b6 26 3d
       -0.122249395 -0.045752723 -0.21366012 0.040701717
000200 05 20 5d 3e 0b 28 b6 3d 06 4a 8c 3e 08 c7 46 be
       0.21594246 0.08894356 0.27400225 -0.19411862
000210 c2 a1 85 bc 81 16 3b bd 97 e4 f3 bd ad f5 9e be
       -0.016312484 -0.04567576 -0.119088344 -0.3104681
000220 a8 4c bf bf cc 23 d0 3d db c6 8c be 5f 31 1e bd
       -1.4945269 0.10163078 -0.27495465 -0.038621303
000230 a7 e1 1f 3f 94 09 58 be 85 a4 15 be 49 51 cc be
       0.62453693 -0.21097404 -0.1461354 -0.39905766
000240 52 1e 9e bd 14 1e e7 3e 0e c8 0f 3e 83 60 b9 3e
       -0.07720627 0.45140135 0.14041159 0.36206445
000250 a2 b5 da 3d a2 d6 20 bf 5b c3 a0 3e 59 68 e4 be
       0.10679175 -0.62827504 0.31399044 -0.4461086
000260 33 be 4f 3e e5 ad f9 bd f1 6c 4a 3f e2 cc 98 be
       0.20287399 -0.12191371 0.7907248 -0.29843813
000270 34 69 79 3d 64 03 f2 be be 27 c4 3e dd 55 b4 3e
       0.060891345 -0.47268212 0.3831157 0.35221758
000280 20 b6 13 3e 26 87 31 be 7d 06 c9 bd d2 88 b3 bc
       0.14424944 -0.17336711 -0.09815691 -0.021915827
000290 fa a7 00 bd 76 d7 ae 3e f4 89 f8 3d 83 b4 4b 3c
       -0.031410195 0.3414876 0.121356875 0.012433174
0002a0 12 17 a7 bd 30 df 83 bd 30 bd ac be 94 c8 c4 bd
       -0.08158697 -0.06439054 -0.3373809 -0.0960857
0002b0 8f 83 ac 3d 57 07 5d be d7 cf 1c 3e c7 f8 42 be
       0.0842353 -0.21584831 0.1531366 -0.19040214
0002c0 07 4d 70 3d 58 0a f4 3e 8b 0c ff 3d b4 3f 5c be
       0.05866721 0.47664142 0.12453564 -0.21508676
0002d0 39 31 e9 3e 6a 7a e1 bd f0 d9 0e 3e 3b 72 b3 bd
       0.45545366 -0.11009677 0.13950324 -0.08762022
0002e0 da be 81 3c aa bf 1a be 90 03 66 bd 10 a9 62 3e
       0.015838075 -0.15112177 -0.05615574 0.22134805
0002f0 2c 42 78 3d e9 62 82 be 3f 09 74 bc c2 37 8b bc
       0.06060998 -0.25466087 -0.014894783 -0.01699436
000300 6c e6 69 bd 77 7c d3 3a 13 74 27 3d 10 04 22 3d
       -0.057104513 0.0016135116 0.04088218 0.039554656
000310 cd 2b 0f 3e fc e8 9b bc f4 49 66 3c 2e cd a7 be
       0.13981552 -0.019031994 0.014055718 -0.32773727
000320 e1 38 56 3d 0e 62 85 3d 0c 31 cf be fc 8a b5 3d
       0.052300338 0.06512843 -0.40467107 0.088644
000330 7a 8a 3b 3d 8e 71 e7 bd 7a 31 4f be d9 03 5f 3d
       0.04578636 -0.11300956 -0.20233718 0.05444703
000340 81 6b 5d be 6a bf e6 3d dc f2 c4 bc 5b 31 21 be
       -0.2162304 0.11266978 -0.024041586 -0.15741484
000350 9b 03 f9 be 32 05 48 bd 64 ce 24 3c c3 cb db 3c
       -0.48635563 -0.04883308 0.010058973 0.02683056
000360 f4 bf 05 bd 10 4d 9c bc 23 e8 c1 3c 21 33 6f bd
       -0.032653764 -0.019079715 0.023670262 -0.05839837
000370 33 be a8 3d 70 09 a3 be 18 c6 cc 3d 8b d0 9c 3d
       0.082394026 -0.31843138 0.09998721 0.07656964
000380 32 6f dd 3d a0 9a a3 3d 1b 77 63 be 28 49 99 be
       0.108122244 0.07988477 -0.22213404 -0.29938626
000390 ea 6e 67 3e 7b ac 59 3e 56 66 93 3d e6 7b 2f be
       0.22600904 0.21257202 0.071972534 -0.17137107
0003a0 2d 77 7a 3d 38 91 b0 3d 86 2c 3d be 53 1e 6c be
       0.06114881 0.08621448 -0.18474016 -0.23058443
0003b0 ea 9b 59 bd 61 3c 84 3e 73 8f 35 be 01 1c fd bd
       -0.053127207 0.25827315 -0.17730503 -0.12358857
0003c0 de 85 25 bd da 4c bf bd 9d b8 33 bd 31 bb 56 3e
       -0.04041087 -0.0934083 -0.043877233 0.20969845
0003d0 d0 6c 56 be ad cb 94 be c7 c7 8c 3e e8 49 0d 3e
       -0.20939946 -0.29061642 0.27496168 0.13797724
0003e0 c2 fc 0c 3e cb 2e 27 be 91 0b 7a 3e e4 62 2e 3e
       0.13768294 -0.16326444 0.24418475 0.17029911
0003f0 ec ea b5 3d 92 ef 6b bd 81 4a 74 3d 53 92 5b 3e
       0.088826984 -0.05760152 0.059641365 0.21442537
