network.0.pth (torch, 93397 bytes, 20 tensors)

_impl.layers.0.linear.weight f4 [64, 4]
00000000: 31ab 09bd 3c98 b5be 517d 63be f490 f9bd
00000010: 5ca9 2dbd d883 07bf 3613 e5be f282 d13e
00000020: bcaa 6b3c 7ceb 62bd 2063 d93e b2ce 16bf
00000030: 6c18 08bd 62dd 5cbe 6a77 66be 0cd1 c6be
00000040: e830 2a3e e5af 5f3e 0619 64be 94d4 943e
00000050: d7f6 083e fa30 19be db05 583e c958 d0bd
00000060: 8fd0 1e3e 265e c63d 536f 5bbe a5e6 963e
00000070: bd6a d63d cc1f 7f3e d797 32be 47f6 96bd
00000080: 9bdd 1f3e 50e7 173e 7ec2 62be 78a9 d8bd
00000090: f003 3f3e a148 733e 320b 01be 0581 55bd
000000a0: 45fb 9f3c a0fd 073e 928f c53e 03f1 5ebe
000000b0: 3c02 013d 7dd0 453e 2010 8e3e 542a 91be
000000c0: 66eb 09bd ec15 643e c496 a4be 9cc6 02be
000000d0: 0cda 743c d14d cf3a ec98 53be c8aa debd
000000e0: 4d4a c33d 4c4a 0bbe 0a8f 6bbe ff6c a03e
000000f0: 8196 2d3e 15c6 423e d029 883e 7834 fcbd
00000100: 1504 873d ea30 e9bd 9226 5cbe 05a5 61be
00000110: b0ba ee3d 60ad dc3d ee0d afbe 3e79 8cbe
00000120: fd19 913d 6fa1 5bbe 4b1e 663e 9f42 9abd
00000130: 4ea0 033d 5a86 9c3d 79fc 343e 58d0 83be
00000140: a7dc 143e 7440 91be 6c51 cd3e f425 7dbe
00000150: a6bc 833d 3bb4 483e bb5d 0ebe 770c 2ebd
00000160: 088d 273e fd4b 5d3e 6bfa 2d3e 6aa0 d93d
00000170: 5455 bbbc 1591 9cbe e059 7cbe dc22 443e
00000180: 1b90 413e 21a4 193e f1ed 453e 44f3 c93d
00000190: ecc7 083e 5013 7a3e 5b6c 26be bdd5 983e
000001a0: c036 a23c 42fd a63e 038e 413e 81a6 07be
000001b0: 95d0 33b9 60ac 063e 7fb0 a73e bb44 213f
000001c0: dabc 3ebc 9d34 2dbe 604f 94bc 4fe8 1cbe
000001d0: 75e0 663d 5f2a 143e 7999 77be 2b39 47be
000001e0: faa8 043e 357b b23d 2138 9a3e 7d40 53bd
000001f0: 645b 0c3d 3a5b da3e b713 32be c262 183f
00000200: d54f e7bc 61f4 b0be bd7a 2bbd dd8f 793e
00000210: cdaa 5f3d b9b7 cb3d 1d1b 543d 56ff e73d
00000220: 05bd fcbc 9434 8c3e 216b 31be 9a01 32be
00000230: f00d 243e deb6 b6be acfd bcbe 58a8 cb3e
00000240: 9835 a2bc 42bf 8fbe 2b47 0bbe 2595 84be
00000250: cf1a 343e 288c 0d3e e737 a1be c8e6 e33d
00000260: 5f6d 403e 6a49 843e f045 11be 3ac5 1d3e
00000270: e29e 473e ff0c a0be 6797 983d c381 9e3e
00000280: 72cc 70bd 65e1 a6be 12a5 46bf 4c31 efbe
00000290: f617 9f3d 31ee a43e fdc8 0fbe 1f11 2b3d
000002a0: c668 e13d 3ed4 053e fa05 9ebe 41a6 f13d
000002b0: a8cb 2b3d 66e4 09be 22b2 8ebe 864c 9a3e
000002c0: fdbf ce3c 7c31 59be 4580 583e 2ccc 82be
000002d0: c919 d43b 701e ca3d 08b8 133d f023 01bf
000002e0: 21e7 153d 1293 033e 0d9e f9bd 1491 643e
000002f0: d34e 2c3e 23ef 49be 8e02 983e dcb0 da3d
00000300: 08b7 7dbd baf3 b43e 6d4c fe3d aefe d93d
00000310: bec5 123e f90b 083e 6766 8c3e 5d30 1ebe
00000320: b1fe eabc 81ad 76bd 40a9 513e 35d3 46be
00000330: e097 b23c 02e8 c0bc 66ad 973e 9072 84be
00000340: cea0 d83d 209c adbe 234e 963e 882b 633e
00000350: 390d 07bd 7881 82be 9e9a af3e 16f4 8cbe
00000360: c6b9 023e fe5f 86be 0602 ae3e 89e4 41be
00000370: f9a1 f03d 692f 9ebe f3e7 c33e 28ac 753d
00000380: 756a 2c3c 7614 7d3c 3fe0 8b3e 605d 0abf
00000390: d88b fe3d 5031 663d c87f ef3d ce10 903e
000003a0: eab1 dcbc 584a 04be 8f77 fcbe 0b0f 5fbe
000003b0: 0cd1 293e bd2c bb3d 05ec 203e c0a9 cc3d
000003c0: f1cc 96bc 24d9 e8bd 9702 88be 1db3 4dbe
000003d0: 5485 1fbd 30ef 273e eb95 683e 8724 2cbf
000003e0: a8c7 133e e9f3 8c3d 750c 0d3e a2fb 0fbe
000003f0: 4257 1f3d 4c0b d73d 30c7 e3bd 4341 9b3b
-0.033610526 -0.35467708 -0.22215773 -0.12185851 -0.04239784 -0.5293555 -0.4474122 0.40920216
0.014383968 -0.055400357 0.4245844 -0.5890914 -0.033226416 -0.21568826 -0.2250649 -0.38831365
0.16620219 0.21844442 -0.2227517 0.29068434 0.13375412 -0.1496009 0.21095984 -0.101731844
0.15509246 0.09685926 -0.21429186 0.29472843 0.104695775 0.24914473 -0.17440735 -0.073711924
0.1561188 0.14834332 -0.22144505 -0.105791986 0.18653846 0.23758174 -0.12601927 -0.052124996
0.019528994 0.13280344 0.38586098 -0.21771626 0.03149627 0.19317813 0.27746677 -0.28352606
-0.03367176 0.22273988 -0.32146275 -0.12771076 0.014944565 0.0015816038 -0.20663804 -0.10872418
0.09535656 -0.13602561 -0.23003784 0.31333157 0.16951944 0.19020875 0.265944 -0.12314695
0.065925755 -0.11386283 -0.21499088 -0.22035606 0.116567016 0.10775256 -0.34190315 -0.2743625
0.07085035 -0.21448301 0.22472493 -0.07532238 0.0321353 0.07642813 0.17674436 -0.2574489
0.14537297 -0.28369486 0.40101182 -0.24721509 0.06432466 0.19600002 -0.13902943 -0.042492356
0.16362393 0.21611018 0.16990058 0.106263 -0.022867836 -0.3057944 -0.2464366 0.19153923
0.18902628 0.15004016 0.19329049 0.09860852 0.13357514 0.2442143 -0.16252272 0.2985057
0.019801497 0.32615095 0.1890183 -0.1324711 -0.00017148473 0.13151693 0.32751843 0.629955
-0.011641705 -0.16914602 -0.018104255 -0.15322994 0.056366403 0.14469288 -0.24179639 -0.19455402
0.12955084 0.08714906 0.30120948 -0.051575173 0.034266844 0.42647725 -0.17390333 0.5952569
-0.028236309 -0.34561446 -0.0418651 0.24371286 0.054606248 0.09947152 0.05178367 0.11327998
-0.03085185 0.27383864 -0.17326023 -0.17383423 0.16020942 -0.35686392 -0.36912286 0.39776874
-0.019800946 -0.28075606 -0.13601367 -0.25895038 0.17588352 0.13822997 -0.31487963 0.111280024
0.18791722 0.2583726 -0.14186835 0.15407267 0.19494203 -0.31259915 0.07450753 0.30958375
-0.058788724 -0.32593837 -0.7759563 -0.46717298 0.07768242 0.32212976 -0.14041515 0.041764375
0.11006312 0.13069245 -0.30863935 0.117992885 0.04194227 -0.13466033 -0.2787028 0.30136508
0.025238032 -0.21210283 0.21142681 -0.25546396 0.0064728004 0.09869087 0.036064178 -0.5044546
0.036597375 0.12849072 -0.12188349 0.22320968 0.16826944 -0.1972013 0.2968945 0.106782645
-0.06194213 0.353422 0.12416921 0.106442794 0.14333245 0.13285817 0.27421877 -0.15448137
-0.0286859 -0.06022406 0.2047472 -0.19416507 0.021800935 -0.02354813 0.2962448 -0.25868654
0.10577546 -0.33908176 0.2935649 0.22184575 -0.032971594 -0.25489402 0.3429765 -0.27529973
0.1276618 -0.2624511 0.3398592 -0.18934835 0.11749644 -0.30895546 0.382629 0.059978634
0.010523428 0.015446773 0.27319524 -0.5404873 0.12429017 0.05619937 0.11694294 0.2813782
-0.026940305 -0.12918985 -0.49309966 -0.21783082 0.16583651 0.091393925 0.15715034 0.09993315
-0.01840827 -0.11369541 -0.26564476 -0.20087858 -0.03894551 0.16399837 0.22713439 -0.67243236
0.14431632 0.0688246 0.13774283 -0.14060834 0.038901575 0.105002016 -0.111219764 0.0047380044

_impl.layers.0.linear.weight_g f4 [64, 1]
00000000: 0743 883f a413 1340 9140 dc3f 7ecf 843f
00000010: 5fb8 7f3f 1948 7a3f 318b 703f b904 7e3f
00000020: 086b 753f c9b6 863f 5818 953f f3cc 863f
00000030: b8f4 8a3f c737 8c3f faba 7a3f ee5f 723f
00000040: d028 803f b11a 7a3f 420e 773f aa0d 823f
00000050: 124a 6b3f 3b8e 833f 567e 783f 0147 803f
00000060: 802a 753f 136c 6f3f 9118 833f 41d8 a040
00000070: c45c 723f 094e 853f e674 7c3f 8fb5 0940
00000080: a503 723f 71ad 7c3f 3b24 8d3f a669 683f
00000090: 29fc 8f3f b2ac 7d3f 183c 703f 4b59 7e3f
000000a0: f866 813f 1db7 bd3f c271 7e3f 195e e13f
000000b0: d61b 863f 9aa3 4540 89f0 843f c8d8 673f
000000c0: 4627 3240 8bee 803f 5b87 813f 64ad 9b3f
000000d0: 842f 763f 7e0d 703f 2d94 763f 2955 773f
000000e0: 0ff1 0e40 9cdb 7a3f 6942 c33f fd0b 6d3f
000000f0: 92c8 813f 349f 8a3f 72af 733f b564 863f
1.0645455 2.2980738 1.7207204 1.0375822 0.998907 0.9776626 0.9396239 0.99225956
0.9586644 1.0524532 1.1648054 1.0531296 1.0855932 1.0954522 0.97941554 0.9467763
1.0012455 0.9769698 0.9650613 1.016042 0.919099 1.027778 0.97067773 1.0021669
0.95767975 0.93524283 1.0241872 5.026398 0.946728 1.041444 0.9861587 2.1517065
0.9453681 0.9870215 1.1026682 0.90786207 1.1248828 0.9909164 0.93841696 0.99355
1.0109549 1.4821507 0.9939233 1.7606841 1.0477245 3.0881104 1.0385906 0.90565157
2.783647 1.0072798 1.0119432 1.216229 0.96166253 0.9377059 0.9631985 0.9661432
2.233463 0.9799135 1.5254642 0.9259642 1.0139334 1.0829835 0.95189583 1.0499483

_impl.layers.0.linear.bias f4 [64]
00000000: 1ca2 ac3e 0b6b 0640 f918 803f 509f 0d3f
00000010: 7c8c 1a3d bdb0 02bd 8ae5 49bd b1cf c63c
00000020: c293 a9bd 962c e23d 93a0 2f3d 666c 42bd
00000030: 9dee ea3d 8e08 e0bd 8835 53bd d9de 6bbd
00000040: 6705 79bd 12a1 17bd a93d 8fbd cf7f eebc
00000050: ec6b 4dbe f774 f53d 39da 94bd 286e 833e
00000060: 3e7c a7bd 2c4e 3bbd dd6f a13c e1bb d03f
00000070: 3ebf 203c 2765 87bd 0b0d 75bd 1d3c ad3f
00000080: 1daf 1dbc f72f 37bc 88ee 3c3e 42a7 00be
00000090: e3f7 b53d 7b68 1bbc b07e 90bd 1126 afbd
000000a0: 27f9 d03e 0c96 80bf 389f a7bc 3575 313f
000000b0: f41e d6bd 3a8f 773f 1f42 c13c f87e 01be
000000c0: d802 c63f 36f5 72bc 96de d43d 8ea6 c9bd
000000d0: 2a2d 32be 01f1 c93e d8d0 80bd 52ba c5bd
000000e0: 8e5a 783f 34f8 0abe 4ab2 7d3f fd87 06be
000000f0: 7227 98bd aa06 853f 6c34 8abd 2af3 823d
0.3371743 2.1002834 1.0007621 0.55321217 0.037731633 -0.031906832 -0.04929117 0.024268957
-0.08280136 0.1104366 0.042877745 -0.047466658 0.11471293 -0.10939132 -0.051564723 -0.05758557
-0.060796168 -0.037018843 -0.069941826 -0.029113678 -0.200607 0.119852 -0.07268185 0.2566998
-0.08177994 -0.045728847 0.01970666 1.6307336 0.009811221 -0.0661109 -0.059826892 1.353397
-0.00962427 -0.011180869 0.18450367 -0.12563804 0.08885171 -0.009485359 -0.07055414 -0.085521825
0.40815088 -1.0045791 -0.020461664 0.6931947 -0.104551226 0.9670292 0.0235911 -0.12646091
1.5469618 -0.014828971 0.103940174 -0.09846221 -0.17400041 0.39441684 -0.06289834 -0.096546784
0.97013175 -0.13571244 0.9910017 -0.13137813 -0.074293986 1.0392659 -0.0674828 0.06394036

_impl.layers.1.linear.weight f4 [64, 64]
00000000: c580 7cbe 7c28 183e 6ceb ae3e dd50 b83e
00000010: 0aaa dfbd 8bbb b53d 42bb 443d d32e 0ebe
00000020: c807 553e d768 513e f575 9a3e 8205 58bd
00000030: 697a a1bb 3db3 54be 4482 a7bd 511c 173e
00000040: 8007 f43d 60f7 8c3d 1900 cd3d e3b5 5b3e
00000050: a22c 673e 1351 abbb 09f8 cebc cd7c a43b
00000060: 646a 04be bedc 12be 68f7 cbbd c6b0 69be
00000070: 57f0 5abc 3984 08be 5252 fe3d 439c ca3a
00000080: 7e82 a93b 0dc2 a53d 1d58 2c3d 6370 0a3e
00000090: b856 193e ca21 be3d 15a0 55be 2a38 e0bc
000000a0: 5246 2f3d 5351 7cbe 2f80 f93d 6d1f 61bd
000000b0: 792e 213e 4c86 833e b9b8 3ebc 19ad fe3d
000000c0: 243b 383e 5d74 26be f9e2 70bd 37c7 5c3e
000000d0: 4523 873d 403a 0e3e 8eb7 ea3d d73a d9bc
000000e0: ef71 d03e 0980 1fbd c9fb 523e 9076 45be
000000f0: acb9 9e3c 1096 4e3e 8500 21be 43f0 4b3d
00000100: f588 95be 2c95 d2be 067e 0d3e b46b 97be
00000110: 5482 1c3e 0cc4 d23d 94a2 db3d dc53 9d3d
00000120: 14a8 4bbd 36c9 39bd 9583 bfbe 4455 fabe
00000130: 05db 69be 1c51 2a3b 775b 9bbd b4f0 a8bc
00000140: ba25 213e 84e5 5e3d 0b8d 58bd ae60 77bc
00000150: fe14 08be 1564 a13d 1493 183e 9b29 a0be
00000160: 7643 2ebe 2c7a c8bb 6cd3 5ebe 02df 93bd
00000170: 60c1 9dbe 22e0 373d a4e3 09ba 88b7 843e
00000180: 3dae a6be 4073 0bbe 8627 53be ed47 173e
00000190: a62b acbe 53e3 00be 737e b33d fe87 e4bd
000001a0: 56ab b4be a319 f2bd ab68 543e cba9 ab3e
000001b0: bc6b 583d 86f7 75be 4bc2 9c3d b613 e9bd
000001c0: 26e7 bc3b baf2 10be 0091 52be 05fd d7be
000001d0: c81d ad3d 134a 9abe 24f7 0e3e 73cd 02be
000001e0: 879e bc3d 3938 1d3e 0e73 4cbe a08b 1ebe
000001f0: 1ac8 cebd 551d 3abe 2d92 2c3e 180e bdbd
00000200: c770 2bbd e2d0 60bd 2a03 f53d 6166 58be
00000210: b3ef 12be 0835 a53d b784 72bc 39c4 29be
00000220: d0d2 04bc 84df 94bd 8878 cebd c0d7 0e3e
00000230: 0e36 85bd 5734 c5bc 0e15 59be 35ca 43be
00000240: 7a3d 133e 1fd7 15bd 8e2c 31be e324 473e
00000250: bcf5 973c a3ce aa3d 3dc5 2c3e 83c2 08be
00000260: d826 883c 67f0 c6bd dc8f b03d 66e9 3bbd
00000270: 2539 cbbc 78e7 58bd de27 6cbe dce1 20be
00000280: 2d51 e3bc f35d 823d 0ab1 2fbe 54af ed3d
00000290: 698c 2cbe 422a 443c d5ab 6cbe 55a8 903b
000002a0: 1621 4fbe 9cdb 173e 0a77 853c 47e8 233e
000002b0: 51d2 753c 5bf4 833e 44f7 94bd 3843 d63d
000002c0: 77d4 27be 3c01 2f3e 5d18 53be 1887 36bd
000002d0: 536f 323e 5c83 70bc 1b29 4b3d 32fc 2d3e
000002e0: 798b 6c3e 5d1d 64be a302 ad3c e706 213d
000002f0: 7967 2dbe 9aea 43bd 9ab8 0dbd 4a33 543e
00000300: 3ffb 3b3d b945 2c3e c8b6 083e 0cdf 153e
00000310: a68d 9ebd f41d d73d 66bd 18be 0b98 0a3e
00000320: 844f ab3d ac6e 5ebd 443e de3d 4661 243e
00000330: dc86 583d 8f58 dfbd 59fc 073d 8557 be3d
00000340: eb48 373d b3da e8bd 41a2 ca3d a56d 403e
00000350: 7a31 bb3d 4b2f c43d 9342 e23d bd28 01be
00000360: d6be 1c3e 0d2b 443d 2cdb e43d ff72 ccbd
00000370: 2d12 233e 0d9b 0f3e 75c3 643d 8375 1dbd
00000380: e295 a83c dd0c 13be 1d2d 19bd dd3f 80bd
00000390: 7e06 833d a437 413e 2341 6d3e 0cea 923d
000003a0: 6a8a 9a3d 2a1e 593b 2ab4 7f3d 27ee 0cbc
000003b0: 6f2c d2bd 7eed 2f3e 9a67 a6bd 5f5f 0cbd
000003c0: 062c 16be 3082 683e d47d c63c a891 033e
000003d0: 64e9 073e b26d 013e 86ba 923e f150 7e3e
000003e0: cc7f 0a3e e0e7 583e 5af6 0c3d c230 0abc
000003f0: 0fe5 cebc fafd 2e3e a923 173e c9a5 a6bd
-0.24658497 0.14859194 0.34163988 0.35999194 -0.10921104 0.088736616 0.048030145 -0.1388505
0.2080375 0.2045015 0.3016812 -0.052739628 -0.0049279225 -0.20771499 -0.08179143 0.14756896
0.11915493 0.068831205 0.10009784 0.21456103 0.2257562 -0.0052281707 -0.025264757 0.00501976
-0.1293121 -0.14342019 -0.09959298 -0.2282134 -0.013362966 -0.13331689 0.12418045 0.0015457947
0.0051730266 0.08093653 0.04207622 0.13519435 0.14974487 0.092837885 -0.20861848 -0.027370531
0.042791672 -0.24640398 0.12182652 -0.05496161 0.15740384 0.25688398 -0.011640721 0.124353595
0.1799131 -0.16255327 -0.058810208 0.2156037 0.06598524 0.13889408 0.114607915 -0.026517315
0.40711924 -0.038940463 0.20603861 -0.19283509 0.019375645 0.20174432 -0.15722854 0.04978968
-0.29206052 -0.41129434 0.13817605 -0.29574358 0.15284091 0.10291299 0.10724369 0.076820105
-0.04972084 -0.045357905 -0.37405077 -0.48893178 -0.22837456 0.0025988286 -0.07585805 -0.020622589
0.15737048 0.054418102 -0.052868884 -0.015098734 -0.13289258 0.07880417 0.14899856 -0.31281742
-0.17017922 -0.0061180796 -0.21760339 -0.0722027 -0.30811596 0.044891484 -0.00052600564 0.25921273
-0.32554808 -0.13618183 -0.20620546 0.14773531 -0.3362705 -0.12586717 0.08764353 -0.11158751
-0.3528697 -0.11821296 0.20743053 0.3352798 0.05283712 -0.24020204 0.07654246 -0.11380713
0.0057648597 -0.14155093 -0.20563126 -0.42185226 0.08452946 -0.3013464 0.13961464 -0.12773685
0.09209924 0.15353478 -0.19965765 -0.1548295 -0.1009676 -0.18175252 0.16852637 -0.09231204
-0.0418556 -0.054886706 0.11963494 -0.21132804 -0.1434925 0.080667555 -0.0148021495 -0.16578759
-0.008106902 -0.07269195 -0.10081583 0.1394949 -0.06504451 -0.02407281 -0.21199438 -0.19120105
0.1437892 -0.03658211 -0.17302153 0.19447665 0.018549792 0.08340194 0.16872115 -0.1335545
0.016620085 -0.09713822 0.08621189 -0.045876883 -0.024807522 -0.05295512 -0.23062083 -0.15711159
-0.027748669 0.06365576 -0.17157379 0.11605707 -0.16850437 0.011972966 -0.23112424 0.004414598
-0.20227465 0.14829868 0.016292114 0.16006576 0.015003757 0.25772366 -0.07273725 0.1046204
-0.16389643 0.17090315 -0.20614763 -0.04456243 0.1742528 -0.014679756 0.049599748 0.16990736
0.2310008 -0.22276826 0.021119421 0.039313223 -0.16934003 -0.047831155 -0.034599878 0.2072269
0.045893904 0.16823472 0.13350976 0.14635867 -0.07741861 0.1050376 -0.14916 0.13534562
0.08364776 -0.054304764 0.1085172 0.16052732 0.052862987 -0.10905563 0.03319964 0.09294037
0.044747274 -0.113698386 0.09894229 0.18791826 0.09140296 0.09579333 0.11047854 -0.12613197
0.15307173 0.04789262 0.11174616 -0.09982871 0.15924902 0.14023991 0.055850465 -0.038442146
0.020579282 -0.14360376 -0.03739654 -0.06262181 0.06397723 0.18868881 0.23169379 0.07173547
0.07545932 0.0033129551 0.062427677 -0.008601702 -0.10262381 0.1718044 -0.08125229 -0.03427064
-0.14665231 0.22705913 0.024229921 0.12848532 0.13272625 0.12639502 0.2865793 0.24835564
0.13525313 0.21182203 0.034414627 -0.008434476 -0.025255708 0.17089072 0.14759697 -0.0813709

_impl.layers.1.linear.weight_g f4 [64, 1]
00000000: fc1f 943f 5736 2440 ce08 823f 9ef0 843f
00000010: a108 b140 7307 7b3f 64e9 6c3f 9ea5 813f
00000020: 0ed8 4740 b93f e83f 25af 1740 bf00 853f
00000030: 3495 b840 b781 843f 2951 3940 68b6 3140
00000040: 8b9d 7f3f ab1e 1240 1123 3a40 cd70 e840
00000050: 2dbe 2640 d425 8e3f 84cb 7b3f b2f4 813f
00000060: 4c61 6e3f bb79 e13f fab1 6e3f 28ae 743f
00000070: cf3d 783f f783 8f40 3dd4 c43f 8df5 2940
00000080: 296a 933f b8da 9b3f f851 803f 9735 1541
00000090: f1d5 943f e265 853f fa60 7740 ff73 713f
000000a0: c66f 9f3f be1f 993f a68a 7340 ae82 3e40
000000b0: bb88 d83f a7ad a53f 468a af40 fdab 0b40
000000c0: 38af 853f f044 d23f b70a 2f40 8e91 793f
000000d0: 5fea 1a41 c628 843f da37 b43f e0e5 0e40
000000e0: 4278 813f c0d7 983f 8eba 823f a392 8b3f
000000f0: d75d a03f 8919 863f f183 5c3f f792 7d3f
1.1572261 2.5658166 1.0158937 1.038593 5.5323033 0.9805824 0.92543626 1.0128667
3.122562 1.8144447 2.370065 1.0390853 5.7682133 1.0352086 2.8955786 2.7767582
0.99849766 2.2831218 2.9083903 7.2637696 2.6053574 1.1105294 0.98357415 1.01528
0.93117213 1.7615274 0.9324032 0.9557824 0.9696931 4.484859 1.537727 2.6556122
1.1516773 1.2176123 1.0025015 9.325583 1.162779 1.0421717 3.865294 0.9431762
1.2455986 1.1962812 3.8053374 2.976726 1.6916727 1.294362 5.485629 2.1823723
1.0444098 1.6427288 2.735029 0.97487724 9.6822195 1.0324943 1.4079545 2.2327805
1.0114825 1.1940842 1.0213182 1.0904125 1.2528638 1.0476543 0.86138827 0.99052376

_impl.layers.1.linear.bias f4 [64]
00000000: ecb8 df3d 1a21 2d3f 9087 0e3b df9b 51bc
00000010: 8196 a13f 1bdc efbd 57fa 083e c1fd 533d
00000020: e011 683e 169a 84bd a293 7b3f b9bd aa3d
00000030: 9a35 553f 3abe 3bbd 3df0 973e 03a2 253f
00000040: 433f 71bd 3d4b 9a3f 5f19 103f 3ee2 c63d
00000050: 8b17 2f3f 57b2 893e f93d 4bbd 83f3 503e
00000060: 5d40 bf3d d81d 6a3f c476 853d ec76 a0bc
00000070: 6b5b 533d 0283 423f 9626 24bf 3e69 d73f
00000080: 22f4 4b3e fa52 9b3e 1042 e7bd 58a9 a43f
00000090: 8788 503c 60e5 dd3d eb8f c23d 02ab 023d
000000a0: 29de 633e ad12 553e e0c1 5f3f cbf5 8c3e
000000b0: e284 293e bd08 023e d0f9 813f 9628 8a3e
000000c0: e0db 603e a4df f73e b3be 313f d045 263d
000000d0: d44d 303f 14e6 ffbc 7c11 833e 7d82 a53e
000000e0: 7f8f 9e3d 5dbf 4b3e ca98 e8bd 03d4 193e
000000f0: 7482 9bbd b591 c1bd fe3e 87bc 9c54 3fbd
0.10923943 0.67628634 0.0021748282 -0.01279351 1.2624055 -0.11711904 0.13376747 0.05175567
0.22663069 -0.06474702 0.98272145 0.08336968 0.83284914 -0.04583571 0.29675475 0.64700335
-0.05889822 1.2054211 0.56288713 0.09711121 0.683953 0.26893875 -0.04961965 0.20405392
0.09338448 0.9145179 0.06516793 -0.019587956 0.051600855 0.7598115 -0.6412138 1.6828992
0.19917348 0.30336744 -0.11291897 1.286418 0.012727863 0.108347654 0.095001064 0.031901367
0.22252716 0.20807905 0.87405205 0.27531275 0.16554597 0.12698646 1.0154362 0.2698409
0.21958876 0.48412812 0.6943161 0.040593922 0.68868756 -0.03123764 0.25599277 0.32326117
0.077422135 0.19897218 -0.11357267 0.15022282 -0.07593241 -0.094516195 -0.01650953 -0.04671155

_impl.layers.2.linear.weight f4 [64, 64]
00000000: 5f4e f9bc 2861 4f3c e9f8 e1bc 39ca 3abc
00000010: 97a3 c2be 979b 62be db9c f8bc 279e d4bd
00000020: a61a 953e 68f9 85bd 858a 953b 260e 3dbe
00000030: 06ba cfbe fea1 193e 2b24 ddbd 987c 5abd
00000040: f769 48bd 48b4 a53b 4400 b1bd d178 933f
00000050: b7cf 56bb bc8e a1bd aed3 abbd 4f1b 8abd
00000060: 748d 34bd 09b6 8bbd c0b3 4ebe 0cf8 4f3e
00000070: 5a8a 8bbd ea60 a03e 3379 3f3d 1551 a1bb
00000080: f28d 3eba 9ee7 93bd 687b 863d dc3d 76bc
00000090: 52f1 163e 70b0 a6bc dec6 5ebd 5134 0cbd
000000a0: 7254 793d 7a81 9abd f5fc 6abd 0a94 cd3c
000000b0: abb8 523e 9ebb 0dbe c844 18bc f7ef e6bc
000000c0: 82ed 8fbd 3750 713d 6a45 3a3d 95dc 96bd
000000d0: 007d cebc 159b e7bc 4b7c de3d 8805 92bd
000000e0: a480 38bd 38a0 15bc c806 06be 5bbb 073e
000000f0: 5bc4 3b3e 280c fe3d 65ec 05be de4b a2bc
00000100: bfc9 1e3d cd69 b63d d7ec 8ebd b0d6 f9bd
00000110: eda6 e4be ff54 e03d faa5 91bd efb6 22be
00000120: f4d1 0ebd 26d4 bbbd e9e7 443d 9d4e 033d
00000130: a824 6e3e f3d3 fcbd 94b9 623e be72 893c
00000140: f252 c0bd 9d01 eebd f72d 2b3e c37c d33d
00000150: 7194 4dbd 38a9 67bd cd91 4a3e e9b6 3bbd
00000160: c268 b8bd 6ddf 98bd 480d 95bd a77b 113e
00000170: dc1e 1cbe 4d6a bb3e 7ecc 59be 4862 813e
00000180: d073 51bd 6c73 84bc 068f 81bd b03a 6fbe
00000190: 34d6 fb3b 0a11 80bd 7e45 8abd c57c 9abd
000001a0: 9984 143e 77a3 1ebb 877b b33d fde6 8b3c
000001b0: bab9 973e d744 2a3e a8e8 973e 7914 ff3c
000001c0: 7317 eebd 0ffa 84be 8f5b 693e b88a 4abd
000001d0: 558d 743f eac2 bebd cc97 663d 1054 45bc
000001e0: aa2b dbbd fbe9 b83c d321 4c3d 08c1 0ebd
000001f0: 8782 8e3d 451a 5a3e 7f8a 883d 3eae d23b
00000200: 0a03 84be e6ae 36be 831c 87bd bcff 8c3d
00000210: 5725 fb3e 480f 083e f4c4 90bd ba52 24bd
00000220: 8e9d e0bd dd82 753e 7b8f 50be 6598 1ebc
00000230: f54c 3a3f 390e abbd 96f4 00bf 7ce9 a7bc
00000240: bf53 0bbe 8a84 613e c9d4 8abc 28b7 f1be
00000250: 8dd5 cdbe 38f9 f4bd 3a30 e5ba f29b 52be
00000260: f689 51bb 7571 c4bd 3294 79bd f36f 0a3e
00000270: 6d9e fbbb b143 2ebf aac0 cc3d fba3 db3d
00000280: 94d1 c1bd 547b 1bbe 42b9 d7bd 4b31 ae3b
00000290: 4d9d 65be 44a1 003d 2302 05bc 7626 dc3c
000002a0: 971d b0bc 7b6f 1cbd 3008 b73e 5540 07be
000002b0: c94b a1be 436e bebe 1608 1d3e 511e 7fbe
000002c0: 0d8a 5a3d d5f2 4d3e 6c08 e83e cafd 3cbd
000002d0: a3fa 60bf 4d29 82bd 8c58 44be 629f 8abe
000002e0: 1038 c43d 6b86 3b3e 776f 9abd 7cf4 4bbd
000002f0: ee09 8abe d612 c23d b2ea d0bd fa92 80bc
00000300: adcf 573e d20b 623e 9938 f63a 100a 153e
00000310: 82d4 5c3e bb1f 2ebe a094 bcbb 1e17 1d3e
00000320: 0c78 843e 9d98 5fbd 0bb4 91bc 0c82 823e
00000330: 0d3b 643f e6e5 f53d 7143 a33e d8e7 12bb
00000340: ebb2 ac3d a1c7 73bd d7b4 c83d 1596 adbf
00000350: 7024 d3bc 3343 09bc b753 38b8 b569 d5bc
00000360: c032 2cbd 6a2b 453d e51e d5bd 2d30 c63c
00000370: 33f7 d13c 0ab8 adbe 06d6 7fbd 05c4 65bd
00000380: ba17 cabb de19 863c 8cd7 28be 0f58 0cbc
00000390: d091 2e3b aa4a 6cbd 51bd 93be 4c1a 62bd
000003a0: bd76 183e ff1c fb3b 4418 adbe 0cbb 913d
000003b0: 3e5e 073d db74 5a3e e0b8 50bd be2f 14bd
000003c0: f605 f23c 8079 bbbd 49d0 373c c5b5 80bc
000003d0: 5427 b8bc de0d 6dbd 2fb9 56bd aa4a af3d
000003e0: c667 a13c d4f8 663b e122 613c b25d 03bd
000003f0: de4f bbbe 6658 da3d cf19 dbbd 1373 1dbe
-0.030432878 0.012657441 -0.02758451 -0.011400753 -0.38015434 -0.22129665 -0.030348232 -0.10381728
0.29121894 -0.06541711 0.004563632 -0.18462428 -0.40571612 0.15003201 -0.10797914 -0.053341478
-0.04892918 0.0050568916 -0.08642629 1.1521245 -0.0032777616 -0.078885525 -0.08389984 -0.0674349
-0.044080213 -0.0682183 -0.20185757 0.20309466 -0.06813498 0.3132394 0.046746444 -0.004922996
-0.00072690763 -0.07221912 0.065665066 -0.015029397 0.14740494 -0.020347804 -0.054388873 -0.03422958
0.06087155 -0.07544227 -0.057370145 0.025095005 0.20578258 -0.13841102 -0.0092937425 -0.028190596
-0.07027723 0.05891439 0.045476355 -0.073662914 -0.025206089 -0.028272191 0.10863551 -0.07129961
-0.045044556 -0.009132437 -0.13088524 0.13255064 0.18336622 0.12404662 -0.13078459 -0.019811567
0.03876662 0.08906899 -0.06978767 -0.121991515 -0.44658604 0.10953712 -0.07111736 -0.15890096
-0.034868196 -0.091713235 0.04807273 0.032057393 0.23256171 -0.123451136 0.22141105 0.016778346
-0.093908206 -0.116214015 0.16716753 0.10326531 -0.050190393 -0.056557864 0.19782181 -0.045828734
-0.09004356 -0.0746449 -0.07277924 0.14207326 -0.15246147 0.3660454 -0.21269414 0.25270295
-0.051135838 -0.016168319 -0.06326108 -0.23362231 0.007685447 -0.0625325 -0.06751536 -0.07543329
0.14503707 -0.002420632 0.08763795 0.017077917 0.29633886 0.16627823 0.2966969 0.031137692
-0.11625566 -0.2597203 0.22788833 -0.0494487 0.95528156 -0.09314521 0.05629711 -0.012043968
-0.10701688 0.022572508 0.049836945 -0.034852058 0.0695849 0.21299084 0.06667041 0.0064294627
-0.2578357 -0.17840156 -0.06597235 0.06884715 0.49051926 0.1328708 -0.07068816 -0.040117957
-0.10967551 0.23975702 -0.20367233 -0.009679888 0.7277368 -0.08352322 -0.5037321 -0.020497076
-0.13606165 0.22023216 -0.016947167 -0.4721005 -0.4020199 -0.11961597 -0.0017485686 -0.20567301
-0.00319731 -0.09591953 -0.060932346 0.13519268 -0.007678798 -0.6807204 0.09997685 0.10724636
-0.09463802 -0.15183765 -0.10533382 0.005315935 -0.22423287 0.031403795 -0.008118185 0.026873808
-0.021498485 -0.038192254 0.35748434 -0.13208134 -0.31503132 -0.37193498 0.15335116 -0.24913909
0.05335431 0.20112164 0.45318925 -0.04614047 -0.8788244 -0.06355534 -0.19174403 -0.27074724
0.095810056 0.18312995 -0.075407915 -0.049793705 -0.269607 0.09476249 -0.102010146 -0.015695084
0.21075316 0.22074822 0.0018785178 0.1455462 0.2156544 -0.17004292 -0.005755022 0.1534085
0.25872838 -0.054588903 -0.017786046 0.25489843 0.89152604 0.1200674 0.3188739 -0.0022416022
0.084325634 -0.059516553 0.098001175 -1.3561426 -0.02577421 -0.008377838 -4.3946984e-05 -0.026051382
-0.042040586 0.048137106 -0.10406283 0.024192894 0.02563057 -0.33929473 -0.062459968 -0.056095142
-0.006167379 0.016369756 -0.16488475 -0.008565917 0.0026637204 -0.057688393 -0.28855374 -0.05520086
0.14889045 0.0076633687 -0.33807576 0.071157545 0.03304886 0.2133364 -0.05095756 -0.036178343
0.029543858 -0.09154034 0.011219093 -0.015711674 -0.02247969 -0.057874553 -0.0524227 0.08559163
0.019702803 0.0035243528 0.013741226 -0.032071777 -0.3658437 0.10661392 -0.10698282 -0.15375929

_impl.layers.2.linear.weight_g f4 [64, 1]
00000000: 1dfa b63f b520 f63f b562 cb40 ab1d 3a40
00000010: db4d c03f f00c 853f 0bb0 e23f 4f3d c33f
00000020: 512b 9e3f 25b2 ad3f 9bb7 833f d12f 1440
00000030: e176 733f 28d4 ee40 38c7 823f da8c de3f
00000040: e000 bd3f a139 de3f 1627 843f edfc 3e40
00000050: f048 963f 88df b63f f7af 1440 91b1 813f
00000060: c455 3b40 c5cc 933f c556 df3f 8cf3 9c3f
00000070: 749f 7b3f 3d32 1540 f92a 9c3f cc52 ca3f
00000080: 4b8a ae3f 76ab 8a3f 711e 793f d7a7 ad40
00000090: 1454 8b40 ec27 773f d498 823f facc e73f
000000a0: 273a d13f 480b 0d40 95cb a93f e391 7e3f
000000b0: 3e6f 943f 6f46 0340 02d6 0140 f9df 7c3f
000000c0: 3b91 b73f 5592 d23f a51a c840 c035 0d40
000000d0: a23a ad3f e591 b03f 7a55 5340 203c 953f
000000e0: 9511 7640 f68a a23f 51f2 8c3f 76fb 3840
000000f0: 091c 9b40 899d 9c3f 6d4d bb3f 57b9 8f3f
1.4295079 1.9228731 6.355799 2.9080608 1.502376 1.0394573 1.7709974 1.5253085
1.2356969 1.356999 1.0290407 2.3154185 0.9510327 7.463398 1.0217047 1.7386734
1.4765892 1.7361337 1.0324428 2.9841874 1.1741009 1.4286966 2.32324 1.0132314
2.9271097 1.1546866 1.7448355 1.2261825 0.9829018 2.3311913 1.2200614 1.5806518
1.3635954 1.0833576 0.97312075 5.4267383 4.3540134 0.9654529 1.020289 1.8109429
1.6345872 2.2038136 1.3265253 0.99441355 1.1596448 2.051174 2.028687 0.98779255
1.4341196 1.6450907 6.2532525 2.2064056 1.3533518 1.3794523 3.302092 1.1658974
3.8448231 1.2698658 1.1011449 2.890348 4.8471723 1.2235576 1.4633003 1.1228436

_impl.layers.2.linear.bias f4 [64]
00000000: 51f8 373e bbd8 1e3e 61c8 2e3e 580c bd3e
00000010: 3ba4 cabc b834 8bbb d88c 2d3e 40c4 ac3d
00000020: a377 33be 7933 fe3d 6bd0 223d 0aec d03e
00000030: 1f67 f3bb 1086 5b3f adef f8bc 9f29 fbbb
00000040: 010d ac3b e86b a33e 5312 e5bd 7c26 743e
00000050: 03bd 343d 48df b9bc c191 1a3f 0c1c 8f3d
00000060: 8192 093f 9930 94bd b7bc 1bbc d627 6abc
00000070: 89e0 c8bc c06f c83c e159 f0be 1068 1fbb
00000080: 1ded 8d3e f49d 653d 54e8 883c a07a 883f
00000090: d150 df3f 5cd5 94bd 0212 22bd 9f8a 043f
000000a0: 7001 293e 2d03 283e 2b2d afbd 0852 46bd
000000b0: 201f a53e 89ca 153e 4e0e b13d 0ea5 5bbd
000000c0: 9d6b 503d b149 56bd 6fb1 1b3f e70b 09bd
000000d0: 359e 703e b434 193d 0181 9f3e 7e82 2ebd
000000e0: 0ad2 423f d430 8f3d 9466 82bc 64b4 b73e
000000f0: 4afd 2b3d 7b55 a53d ed8e 9e3c 30e4 74bd
0.17965819 0.15512364 0.17068626 0.3692348 -0.024736514 -0.004248228 0.16948259 0.08435869
-0.17526107 0.124121614 0.039749544 0.40805084 -0.0074280645 0.8575144 -0.030387724 -0.0076648737
0.0052505736 0.31918263 -0.11185136 0.23842806 0.044125568 -0.022689477 0.6037865 0.069877714
0.5373917 -0.07235832 -0.009505442 -0.014291724 -0.02452113 0.024467349 -0.46943572 -0.00243235
0.27719966 0.05605884 0.016712345 1.0662422 1.7446538 -0.072672576 -0.039567955 0.5177402
0.16504455 0.16407461 -0.08553537 -0.048418075 0.3225031 0.14628042 0.086453065 -0.053624205
0.050883878 -0.05231637 0.6081762 -0.033458617 0.23497851 0.037403777 0.3115311 -0.042604916
0.76101744 0.06991735 -0.015918054 0.35879815 0.041989602 0.08072945 0.019355262 -0.05978793

_impl.layers.3.linear.weight f4 [64, 64]
00000000: bed4 c33e 88d5 0339 95c5 6c3d fd5c c13d
00000010: fe63 cabd 243c 0a3d 73af cebd 25c0 75be
00000020: 1066 90bd 6abc 13bd 5eb2 453d 5947 283e
00000030: 6559 7bbd 0592 69be 7cba 55bd c319 d1bd
00000040: 2bb7 3e3d 2924 bf3d 88f6 003e 84b9 3fbe
00000050: f073 ea3d dba8 f6bd cdb8 90bc ad81 b83e
00000060: c111 58be 66e9 f5bd 90f4 92bd 3180 34be
00000070: 4be6 d2bd 7760 413d 155b 5abe 3912 7abe
00000080: 6ade 51be 83f2 2dbe 5a6b 333e a370 a43e
00000090: 3cfd 1a3d 4535 6bbd d56a 203e d4fc 09bd
000000a0: 432d ddbd 0cf7 70bc 2048 6ebd fa3e 143e
000000b0: 4836 61be b66b 183d 6085 3a3c bb21 613d
000000c0: dd0e fe3d 1665 16be a2b4 cbbe 8a59 52be
000000d0: 67b1 073d d77b 8ebd 88f3 16be 15f1 1bbe
000000e0: c138 743e 94b0 cabd 6edc 8dbd 0485 a3bd
000000f0: 57f2 393e b030 4abe 1620 b1bd d3c7 a93d
00000100: 3f26 ad3d e168 a4bd 3f26 00be 1636 3d3e
00000110: 3ba5 20be aa0a c6bd 8673 183d e3e6 673e
00000120: dcea 0ebc af80 28bf c209 f0be 8359 82be
00000130: 54cd 22bd c3fe 07be cbd5 053d 3ca8 c4bd
00000140: f0bb 13be c7df 243e e9f8 b3bd 0c47 47bd
00000150: c769 1abd 4cb8 06bf 4a57 f6bd 8f37 673e
00000160: e47a c03c 8299 85bd f6a0 993d 0241 0fbd
00000170: 727d 6ebc 2376 913e fd0c 9fbe e72e 2fbd
00000180: d837 7e3c 1b49 fabd a786 9dbd 2a96 393b
00000190: 65bd 59be e9f6 e23d f9cb 10bc afd5 603e
000001a0: ccbd 05be 8d8d 243d be6e 16bd 93c1 ec3d
000001b0: 34ec 803e 64c7 39be aefe 1cbe 16d5 4b3e
000001c0: 389a 153d a792 d83e 6544 f73d 6c65 a0be
000001d0: 8252 21be 6ed3 20bc 9e70 f5ba 5bfa 9bb8
000001e0: 7f07 8e3e 03d2 b73d a577 80be d562 50bd
000001f0: bfba ae3e 1229 31be 23de 5abe a4dc 90bc
00000200: 0ffb b13d a784 b0bb c286 dfbd a898 9f3d
00000210: 4ffe 3f3d f752 0ebe e493 74bd 675d c6bb
00000220: 072e bd3c 8270 43be d48e ef3d d767 1cbd
00000230: d61a 0e3e 684f 0bbe bcea 143b a422 553d
00000240: aaa5 30bc f9a0 0abb c8c2 84be a004 febd
00000250: ddb7 e6bc ed99 41be de0a 9f3d 2fe0 5a3e
00000260: f73e 183f 28ce 59bd 0139 2e3d 4d46 f43d
00000270: bcbc 293d 10ca 8cbe fc6b 343e dc32 043e
00000280: b4ba 3e3d 537c 67bc 6f9d 76bd fe44 eb3b
00000290: b1fe dcbe 486a d93b 6cc6 65be fce4 0e3d
000002a0: 9ccb 223d 248f a2bc e437 d8bc a2ee e13d
000002b0: 9348 b73e 8955 9dbe 68a6 a13c d4e3 e2bc
000002c0: 6054 05be aff2 563e f068 e13c 5039 8abe
000002d0: 67f8 74bd 8ba7 97bd 5922 dfbc 1a88 60bc
000002e0: 13c5 6c3d f8c7 073d 6fe7 45be 7ead 3ebd
000002f0: 3e95 7a3e c6d9 293d 096a 9b3d 1c7f 313c
00000300: e886 f23c 4468 0bbc af02 c63e e28d 6fbd
00000310: 9d9a 93bd eef3 313b 89c6 7cbd 80d4 7abd
00000320: ac73 e93d 3688 c23c d019 70be c38c d2be
00000330: 7c2b b9be caba eb3d 3c62 0abe 570a 4cbf
00000340: f95e 59be 981d 433e 9832 cabd 6d0f 073e
00000350: 5c8b 553e 9b10 89be 7bac 18bf 28b6 33be
00000360: 1e21 a1be a8b1 8f3e 585a 873c 9f71 91bd
00000370: 2946 ffbd 2ad0 1ebd 5edb 7cbf 87c8 243e
00000380: f041 47be 21e5 e8bd f8a9 b9bd 6a7e 0e3f
00000390: e16d d1be 45cb aabd 550a 953c 0b9a 213d
000003a0: 8266 353d 8d27 19bd 56bb 703d 70f3 4abd
000003b0: 56cc 433e c470 a93e 50f3 85be d9c1 6fbe
000003c0: 0a76 1f3d 927f d4bd 00e6 aa3e 3f58 25bf
000003d0: ae19 d0bd c163 b6be 9c76 92be 2ef9 5f3e
000003e0: 546c 913e 2bbe a63e 7073 d9bc 222b 5d3e
000003f0: 6fd4 a83c 3250 283d 1f75 d33d 3a29 72be
0.38248247 0.0001257268 0.057805616 0.09441564 -0.09882353 0.03374876 -0.10092058 -0.23999079
-0.07050717 -0.036068358 0.048265807 0.16433467 -0.06136455 -0.22809608 -0.0521798 -0.10209992
0.0465614 0.09333069 0.12594044 -0.18723112 0.114478946 -0.120439254 -0.017666245 0.36036435
-0.21100523 -0.12007408 -0.07175553 -0.17627026 -0.10297831 0.047211137 -0.21323808 -0.24421014
-0.20495 -0.16987042 0.1752142 0.32117185 0.03783916 -0.05742385 0.15665753 -0.03368838
-0.107996486 -0.014707338 -0.058174253 0.14477149 -0.21993363 0.037212096 0.011384338 0.05496381
0.12405179 -0.14686999 -0.3978625 -0.20541969 0.03312817 -0.06957214 -0.14741337 -0.15228684
0.23849775 -0.09896961 -0.06926809 -0.07984355 0.18158852 -0.19745135 -0.08648698 0.082900666
0.084545605 -0.080278166 -0.1251459 0.18477663 -0.1568803 -0.09670003 0.037219547 0.2264667
-0.008722987 -0.65821356 -0.46882445 -0.25458917 -0.039746597 -0.13280778 0.032674592 -0.09602401
-0.14427161 0.1610099 -0.0878771 -0.04865174 -0.037698533 -0.52624965 -0.12028368 0.22579788
0.023496099 -0.0652342 0.07501404 -0.034974106 -0.014556276 0.28410444 -0.31064597 -0.04276934
0.015516244 -0.12220975 -0.076916985 0.0028318265 -0.21263655 0.110822506 -0.008837693 0.21956514
-0.13060683 0.040174056 -0.036726706 0.11560359 0.2518021 -0.18142468 -0.15331528 0.19905505
0.036524028 0.42299387 0.12073592 -0.3132738 -0.1575413 -0.009816034 -0.0018725579 -7.437608e-05
0.27740094 0.089756034 -0.25091282 -0.050875504 0.3412685 -0.17300823 -0.21373801 -0.017683335
0.08690464 -0.005386907 -0.10914375 0.07792789 0.046873387 -0.13898836 -0.059711352 -0.006053615
0.023093237 -0.19085887 0.11697164 -0.038184967 0.13877425 -0.1360451 0.002272292 0.05203499
-0.010781685 -0.0021153076 -0.25929856 -0.12403226 -0.028163845 -0.18906374 0.077657446 0.21374582
0.59471077 -0.05317512 0.042534832 0.11927471 0.041439757 -0.2749791 0.17619318 0.12910026
0.046564773 -0.014128762 -0.060208734 0.0071798554 -0.43163064 0.006634984 -0.22438973 0.034886345
0.03974496 -0.019843645 -0.026393838 0.11031844 0.35797557 -0.3072932 0.019732669 -0.027696528
-0.13020468 0.20991014 0.027515858 -0.2699685 -0.059807207 -0.07405003 -0.027238058 -0.013704324
0.057805132 0.03314969 -0.19326566 -0.046552174 0.24470994 0.04146745 0.07588584 0.010833528
0.029605344 -0.008508746 0.38673922 -0.05848492 -0.072072245 0.002715345 -0.061712775 -0.061237812
0.11399016 0.023746591 -0.23447347 -0.41123018 -0.36165988 0.115102366 -0.13514036 -0.7970328
-0.21227635 0.19054258 -0.09872931 0.13189478 0.20853943 -0.2677048 -0.59638184 -0.17549956
-0.3147058 0.28065228 0.016522571 -0.0710175 -0.12464554 -0.03877274 -0.9877223 0.1609212
-0.19458747 -0.11371828 -0.09065622 0.5566164 -0.40904143 -0.08339552 0.018193403 0.039453547
0.044287212 -0.037391234 0.058772407 -0.049548566 0.19120917 0.33093846 -0.26162195 -0.23413791
0.03893093 -0.103758946 0.333786 -0.6458778 -0.10161148 -0.3562298 -0.28606117 0.21872398
0.2840296 0.32566962 -0.026544303 0.21598485 0.020609109 0.041092105 0.103250735 -0.23648539

_impl.layers.3.linear.weight_g f4 [64, 1]
00000000: 72fa 853f 5f47 ca40 7d3a a13f d8df 0e40
00000010: c65c f13f edd7 da3f e154 b23f 60d0 843f
00000020: 1b3a ec3f 21ee 7c3f bb91 843f eedf 813f
00000030: a07d 4b40 03f4 ea3f be4e 823f 2d07 793f
00000040: 3981 833f 9d15 e53f 4ee4 913f 009f 8b3f
00000050: 6ce7 8d3f be6e f43f e798 9a3f e4a2 d83f
00000060: 8879 873f e089 e93f 4d5b 823f 1c18 3940
00000070: c99a 923f 5a1b 913f c85a 843f 6b5a 1b40
00000080: 095d b53f e884 e63f 513b 813f 1e86 8b3f
00000090: 6f48 c53f 944c 2c40 40e1 8c3f 075c 5340
000000a0: 74c9 0e40 ede4 933f 251b 7b3f 45a8 8940
000000b0: 9b2d 823f c6ff 723f 9454 a73f 31f3 703f
000000c0: 0515 833f 0683 8b3f f2d3 0140 6153 7b3f
000000d0: de4c bc3f c616 843f 2f1a 7e3f 2954 7b3f
000000e0: a117 be3f 241e 873f 846f d23f adce a33f
000000f0: 2959 ce3f 7bb3 843f e27d c240 9f33 f23f
1.0467055 6.3212123 1.2595974 2.2324123 1.8856437 1.7097145 1.3932153 1.0376091
1.8455232 0.98800856 1.0356973 1.0146463 3.1795425 1.8355716 1.018028 0.97276574
1.0273811 1.7897221 1.1397798 1.0907898 1.1086249 1.9096296 1.2077912 1.692471
1.0583963 1.8245201 1.0184113 2.8920965 1.1453487 1.1336472 1.0340204 2.4273937
1.4169017 1.800931 1.0096227 1.0900304 1.541273 2.692174 1.1006241 3.302492
2.2310457 1.1554238 0.98088294 4.3017907 1.0170168 0.9492153 1.3072686 0.9412108
1.024079 1.089936 2.028561 0.981741 1.4710958 1.031945 0.99258703 0.98175293
1.4850961 1.0556073 1.6440282 1.2797447 1.612096 1.0367273 6.0778666 1.8922004

_impl.layers.3.linear.bias f4 [64]
00000000: 444c 8a3e c334 ad3f 0c7d 44bd 91d7 303f
00000010: e8d0 f4bc 5bb8 893e dc54 063e 8fa1 adbd
00000020: 9293 4c3e 0661 d0bd 0222 073d 77fd f83c
00000030: 2aa2 d93e 9626 e33e fcfc 1d3d b90b 78bc
00000040: a93c a1ba 1bf1 323e 7214 c5bc 55da 863b
00000050: 31ec d43c 2e13 c93d bb01 923c 9910 e23c
00000060: a47f 063c 2830 1a3d 520e b0bd 644b 4b3f
00000070: 67de 503e 9018 0e3e 2480 d13c 856f 3e3e
00000080: 30a7 063e 9ec6 fb3d 13ee 48bd a90e 453c
00000090: e7a6 f5bb bbec 253d e3e8 e53d f527 013e
000000a0: 9aef 7d3d 4e8f cabd 893d 20bd 9ec1 5b3f
000000b0: 3154 8f3c 6a64 47bd 9e7b 01bd 4d7b 2fb9
000000c0: 9ef2 dcbc 55c6 3a3e 461f 1a3d f12e ebbd
000000d0: b89a 3f3d f7ca 3abc ce1f 113e 8c0f 5cbd
000000e0: 64a5 9c3d d4d3 ca3c 785c 5b3d 35e7 9b3c
000000f0: f5b9 ca3c 0754 f2bb 2979 583f a98d d73d
0.2701131 1.3531727 -0.047970816 0.6907893 -0.02988477 0.26898465 0.13118309 -0.084780805
0.19978169 -0.10174756 0.032991417 0.030394299 0.42506534 0.44365376 0.038571343 -0.015139514
-0.0012301403 0.17474787 -0.0240576 0.0041153827 0.025991531 0.09818111 0.01782309 0.027595805
0.008209143 0.03764358 -0.085964814 0.7941191 0.2039734 0.13876557 0.025573798 0.18597229
0.13149714 0.122937426 -0.04905517 0.012027421 -0.007496703 0.040508967 0.1122606 0.12612899
0.06199608 -0.098906144 -0.039121184 0.8584231 0.0174962 -0.048679747 -0.03161203 -0.00016735234
-0.026971158 0.1823972 0.03762748 -0.11483563 0.04677841 -0.01140093 0.14172289 -0.053725764
0.07648733 0.02475921 0.053554982 0.019031147 0.024746874 -0.0073952707 0.84559876 0.105250664

_impl.layers.4.linear.weight f4 [64, 64]
00000000: ed76 183e a105 b9be 0a97 7abc feca 063d
00000010: 8669 823d 9447 123e 9e44 f7bb 6365 2fbe
00000020: 3466 bebc 4ce5 2dbe 3669 113e eefa 5c3e
00000030: 3c11 fa3d ef50 28be c383 3dbd fc2d 0b3e
00000040: e17e eabc e258 c0bd dcb4 a03d 8dd6 a93d
00000050: 5043 343d 182e 0a3e 7e0a 2abc 0039 4b3d
00000060: 040e 5c3e e287 ac3a dd96 313d 6234 2dbb
00000070: 9077 03be c392 ca3d 0aeb b43c 76ac 85be
00000080: 3bde 3f3d 1719 9fbe 9445 83bd 6925 d9bd
00000090: 97c3 3ebe ff37 de3b 4c25 6bbd ccab 7e3d
000000a0: e7c3 16be 4824 c0bd 6042 223e 6f9a 0d3e
000000b0: e6fa 203e 91af adbd 22f0 9bbd aa4d 3bbe
000000c0: a516 813d e80d af3d 5e68 433c f7fc 473d
000000d0: 349b 18bd e833 383d 56c2 c63d d16a 32bd
000000e0: 9853 4abd e772 473d 3811 653d 331f 33bd
000000f0: a046 f0bd 0b6a 323d 090f 963d bb2d 303d
00000100: 2208 013e 68bf 033f a845 ab3e 5a55 9f3d
00000110: 7dd9 1d3d c663 bbbc 1bb4 9bbe b9bd 2fbe
00000120: 28c3 90bd d2ff 53be 9234 85bd 2f94 39be
00000130: 5c8d e43c 97a3 6bbe 29a2 e03b 61a3 113e
00000140: 733f c0bc b884 89bd b5c3 cdbd ec21 333e
00000150: 9f13 95bd a43c a6be d953 a93c 529c 723d
00000160: 8159 e0bd 048f 9c3d 789d 873d d906 54bd
00000170: e8f3 833e 48e4 3dbd 9d01 3dbe 3aac 62bc
00000180: b5de c1be fe1e 6c3e 758e e0bc a500 f2bc
00000190: f5a6 9bbd 63a0 44be 0984 25be 25dd f13d
000001a0: 7bf9 b7be 0612 aa3d 359a 773d 9a0d 493e
000001b0: 8731 7f3d 869f 54be f267 88be d779 5f3d
000001c0: eca9 983d 59f1 a13b f73f 063c 1e0a 403e
000001d0: 3803 00bd 5f19 2ebe b1ef f6bd 15ee 033d
000001e0: b5c6 2bbe 01eb e43d 9aa3 75bd a99b 1ebd
000001f0: ae9b 13be 20d6 263d 5f94 48bd 55e7 58be
00000200: b19b 3fbb b959 893e 548d 393d bb23 963e
00000210: 4ca2 d13c 12c5 3bbe 44cf 583e 13e3 2ebe
00000220: 4b10 a13d b9f1 95bd a2b2 a33d f78d 5cbe
00000230: e261 e3bd 012d d4bd 53da 973d 496d 13bd
00000240: 5d6b 9e3d f014 eb3d 65e4 9b3d f4d3 f4bd
00000250: 28a2 dabe 5677 b63d 2ae4 923d 567c 07be
00000260: 7b52 09bd 4ce0 8c3c 5187 243e 60e7 df3d
00000270: d430 b1be 2ff8 bb3d ff21 62be 0515 8c3c
00000280: 2741 483e 18d7 3d3d c7f3 5cbe a631 963d
00000290: 8d90 86bd 6992 4abe c2d6 b7be 1780 913e
000002a0: 3df3 bebd c0ed 013d 83dc 383e 10d7 143d
000002b0: 5d44 66be 19ce 163e c2f6 97be e85a fe3b
000002c0: 3320 053e 76c6 2dbe 0da2 20be df5e 2cbe
000002d0: 348c 983d 7575 e0bc 6f49 333e fa0b 1abe
000002e0: 118d e9bc 1044 5fbe e3c3 6dbd 92fc 513e
000002f0: 0875 993d 26e7 e33d 51aa 6dbe c93b 073e
00000300: 5879 fe3d 0251 42ba 9cc6 99be e4ae 013d
00000310: 830c adbc 49df 05be 7d8c f13c 00b7 16be
00000320: 16f8 a8ba 3e76 d8bd c324 593e a86a 193e
00000330: d9bc 8cbd 4ae6 9ebe e73b 5dbc e173 59be
00000340: 0bfe 0a3d 3db1 b4bc 270a c4bc d22f 9b3d
00000350: ba2e f1bd cb0e 773e f2be c9bb 7466 46bc
00000360: 1661 9a3e 0d4d c13d 0fe7 d53d 63a0 15bc
00000370: 8aa5 9abe a9be b93d 4435 a23c 6afc f2bc
00000380: 0832 a53e 11c2 83be 21fd c6bc 9336 94bd
00000390: 673a e0bd 68ce 7fbd d361 4fbe 6b7f f9bd
000003a0: a4ef 47be d9e8 583d aec0 d3bc 4773 e7bd
000003b0: 66a9 79bd a072 54bc 008d c13e de33 c9bd
000003c0: 1b22 7e3a add7 87bd 5890 26bc 9150 e1bd
000003d0: 7c02 59bc 757b 7ebb 6af2 223c ad34 35be
000003e0: 3a5d 833d c2f7 273d 741b 863d 61d3 ac3c
000003f0: faac 863e 8700 233d 9d00 15bd 3136 4c3e
0.14889117 -0.36137107 -0.0152948 0.032908432 0.06367783 0.14285117 -0.0075460216 -0.1712852
-0.023242094 -0.16982001 0.14200291 0.21580097 0.122103184 -0.16437124 -0.046268236 0.1359176
-0.028624954 -0.09391953 0.07846996 0.082928754 0.044009507 0.13494146 -0.010378478 0.049614906
0.21489722 0.0013163055 0.043356765 -0.0026428928 -0.12838578 0.09891274 0.022084732 -0.2610814
0.046842795 -0.3107383 -0.06409755 -0.106028385 -0.18629299 0.0067815776 -0.057408616 0.062175557
-0.14723168 -0.0938192 0.15845633 0.13828443 0.1572071 -0.08480752 -0.07614161 -0.18291345
0.06303147 0.08547574 0.011926739 0.04882523 -0.03725739 0.044971377 0.097050354 -0.0435589
-0.049396127 0.048693564 0.055924624 -0.043730926 -0.11732221 0.04355816 0.073270865 0.043012362
0.12600759 0.5146394 0.3345158 0.077799514 0.03853749 -0.022874724 -0.30410847 -0.17162217
-0.07068473 -0.20703056 -0.065041676 -0.18122934 0.027899437 -0.23011623 0.0068552685 0.1422248
-0.023467755 -0.06714767 -0.10047094 0.17493409 -0.07279133 -0.3246814 0.020669864 0.05923111
-0.109545715 0.076444656 0.06621832 -0.051764343 0.25772023 -0.046360284 -0.18457647 -0.013835007
-0.37865224 0.23058698 -0.027411679 -0.029541323 -0.07600204 -0.19201808 -0.16163649 0.11809758
-0.35932526 0.08304219 0.060449798 0.19634095 0.062303092 -0.20763978 -0.26641804 0.054559555
0.07454285 0.004942101 0.008193961 0.1875386 -0.03125307 -0.17001866 -0.12057436 0.032209475
-0.1677502 0.11177636 -0.059970476 -0.038722668 -0.14414856 0.04073155 -0.048969623 -0.21181996
-0.0029237086 0.26826265 0.045300797 0.29324135 0.025590084 -0.18336895 0.21172816 -0.1707881
0.07864436 -0.073214956 0.07993056 -0.2153853 -0.11102654 -0.10360146 0.07414689 -0.035992894
0.07735322 0.11478603 0.07611922 -0.11954489 -0.4270184 0.0890948 0.07172425 -0.13231024
-0.033525925 0.017196797 0.16067244 0.10932803 -0.34607565 0.09178197 -0.22083281 0.017099867
0.19556104 0.046347708 -0.21577369 0.073336884 -0.065705396 -0.19782414 -0.35906035 0.28418037
-0.09323738 0.031720877 0.18052869 0.036337912 -0.22487016 0.14727058 -0.2968045 0.0077623017
0.13000564 -0.16970238 -0.15686817 -0.16833065 0.074486166 -0.027399758 0.17508481 -0.15043631
-0.028509649 -0.21803308 -0.05804814 0.20506504 0.07493025 0.111280724 -0.23209502 0.132064
0.12425488 -0.0007412584 -0.3003434 0.03166093 -0.02112413 -0.13073458 0.029485935 -0.14718246
-0.0012891318 -0.10569428 0.2120543 0.14982092 -0.06871957 -0.31035072 -0.013503051 -0.2123561
0.03393368 -0.02205717 -0.023930622 0.075774804 -0.117764905 0.24126737 -0.0061567957 -0.012109388
0.30152196 0.094385244 0.104444616 -0.009132477 -0.3020442 0.09069569 0.01980079 -0.029661376
0.32264733 -0.25733998 -0.024290623 -0.07236972 -0.10948639 -0.062452704 -0.2025216 -0.12182506
-0.1952501 0.052956436 -0.025848713 -0.11301284 -0.060952567 -0.012966782 0.37802887 -0.09824346
0.0009694413 -0.06632934 -0.01016625 -0.11001695 -0.013245221 -0.003883091 0.009945491 -0.17695875
0.06414266 0.041007765 0.06548205 0.021096887 0.26303846 0.039795425 -0.036377538 0.19942547

_impl.layers.4.linear.weight_g f4 [64, 1]
00000000: 44cf 9a3f 6dc5 e63f 8ed0 863f 2030 dd3f
00000010: fbbe 813f 351c 853f a571 c13f 2fde df3f
00000020: 9e43 8c3f ab6a 843f 3d84 903f 5d41 953f
00000030: 622f a03f 5dba 893f eb24 843f 0f36 a13f
00000040: daea f73f 7af5 843f 6a12 9e3f 58f4 2040
00000050: 93e5 7a3f fb23 833f 5dc1 0a40 bbd9 ca3f
00000060: ac18 b23f 2af3 833f 54ad 843f 085a 903f
00000070: 66b0 5640 3e83 803f 5c4b 713f 0469 df3f
00000080: 7cbb 9b3f ab30 873f 4c3c 8d3f 49e4 5040
00000090: 8218 873f c96f 9e3f 96bc 7a3f f4b8 ec3f
000000a0: 8dfb b23f f9ff 9b3f 8cfe 943f 7d2a 993f
000000b0: a4f4 833f 7ec6 833f 209f 8c3f 55d1 783f
000000c0: 1dec a03f 91d7 e23f 5fc2 873f c329 793f
000000d0: 04ca 7840 76b6 863f a24b 943f fc0a 8e3f
000000e0: 28f0 ec40 dcc3 7e3f 40a3 803f ad67 a63f
000000f0: 11fc 843f 02df 903f 3967 3840 7055 7e3f
1.2094502 1.8029 1.0532396 1.7280312 1.0136408 1.0399233 1.5112807 1.748968
1.0958135 1.0345052 1.1290356 1.1660572 1.251446 1.0759999 1.0323766 1.2594622
1.9368546 1.0387414 1.234937 2.5149136 0.9800655 1.0245355 2.168052 1.5847696
1.3913779 1.0308583 1.0365396 1.1277475 3.3545165 1.0040052 0.94255614 1.7453923
1.2166591 1.0561727 1.1034026 3.2639334 1.0554354 1.2377864 0.9794401 1.8493943
1.3983017 1.2187492 1.1640182 1.1966091 1.0309033 1.029495 1.0986061 0.97194415
1.2572056 1.7722036 1.0606192 0.9732935 3.88733 1.0524433 1.1585581 1.1097102
7.404316 0.9951761 1.004982 1.3000389 1.0389425 1.1318057 2.8813002 0.9934912

_impl.layers.4.linear.bias f4 [64]
00000000: e653 4c3c 0a91 843d 51bc b0bd 9087 bc3e
00000010: cb68 ea3c 48a5 5e3d d51a cc3d 2755 723d
00000020: f7bf 39bd 3b72 903c 8fe2 503d 2eaf 893d
00000030: f33b d53b 8667 8ebd 9276 a53e dcba 59bd
00000040: 5a2f 04be c06e 1d3d a431 b8bd 642f 543e
00000050: e8f5 b6bb e4b2 0a3c ec7a 4b3d a851 2739
00000060: 35e8 66bc af2a 363d a01d fe3b 74ea e43d
00000070: 09fd 0a3f 3b44 d5bb 61fa d53a 9b2c cbbc
00000080: 12b8 c33d a404 0c3e 23b3 e3be 96bb c83d
00000090: 7247 1a3c d794 863e 021f 863c 15f5 f43d
000000a0: 2941 793d 6aa4 8bba 546f e6bd 6e32 fd3c
000000b0: 750e b4bb ab79 2ebd f5e5 02be df43 ee3c
000000c0: 8821 4b3d a514 e63e fade 723d 4a89 04bd
000000d0: 5c61 8e3e 95e6 573d eca8 0b3d b308 44be
000000e0: 6190 8cbe fd10 833c 7dc5 083c b0a7 6f3c
000000f0: bc1b 173d 299d 173d 0dfb b53d 25c2 e23c
0.012471175 0.064729765 -0.086296685 0.36822176 0.028614422 0.054356843 0.09966055 0.05916324
-0.045349088 0.017632594 0.050997313 0.06722866 0.0065073906 -0.06953339 0.32317024 -0.05315672
-0.12908688 0.038435698 -0.08993843 0.20721203 -0.0055835135 0.008465502 0.049677774 0.0001595678
-0.014093448 0.0444743 0.0077549964 0.11177531 0.5429235 -0.006508378 0.0016325229 -0.024801543
0.09556593 0.13673645 -0.44472608 0.09801404 0.009416448 0.2628543 0.016372208 0.11960808
0.060853157 -0.0010653858 -0.11251703 0.030907836 -0.0054948875 -0.0425965 -0.12783034 0.029085098
0.049592525 0.44937626 0.05929468 -0.03235749 0.27808654 0.052710135 0.034096643 -0.19143943
-0.27453902 0.015999312 0.008347866 0.014627382 0.036891684 0.037015114 0.08885775 0.027680466
