network.0.pth (torch, 29653 bytes, 20 tensors)

_impl.layers.0.linear.weight f4 [32, 4]
000000 a7 f0 90 3e 11 73 1b bd 49 47 73 3e f6 d8 9b 3e
       0.28308603 -0.037951533 0.23757662 0.30438966
000010 bc c3 0e 3d 32 35 cc 3e 73 c5 d6 be 05 da be be
       0.034854636 0.39884335 -0.41947517 -0.3727571
000020 1a c7 9c 3c db d7 1e 3d d3 19 00 bf 09 7e 0e bf
       0.019137908 0.038780075 -0.50039405 -0.55661064
000030 2a fe 91 3e 0a 15 d8 3e 91 42 bc 3d 05 b4 df be
       0.28514224 0.42203552 0.09192384 -0.43692032
000040 2d 72 de 3d e1 0e 9d be 36 e7 2d be 91 31 8a 3e
       0.10861621 -0.30675414 -0.16982731 0.2699094
000050 cd ab 26 3c 6e be 38 be 89 68 bc 3c bb 6e 38 bf
       0.010172796 -0.18041393 0.022999065 -0.7204396
000060 d2 fa 9b 3e 03 0a ae 3e 5f 4e 23 3e 0e f2 e2 3e
       0.30464798 0.33992013 0.15947865 0.44325298
000070 f2 4c c0 3b f9 2c 70 3e c2 4c 93 bd 6a 10 0f 3f
       0.0058685476 0.23454656 -0.07192375 0.5588442
000080 47 5e 3a be 5f 17 5e 3e 84 6e 66 3e d4 23 fd 3e
       -0.18200026 0.21688603 0.22503096 0.49441397
000090 db 39 88 3e e6 a3 a8 be e6 9b b8 be 79 7f 19 3e
       0.2660664 -0.32937545 -0.3605644 0.14990033
0000a0 32 27 23 bd f4 04 9f 3e 59 4f 85 be a5 96 8f be
       -0.0398323 0.31058466 -0.260371 -0.2804462
0000b0 76 6d 81 3e 00 b4 88 3e 8f 14 85 be e4 5d 54 be
       0.25278825 0.2669983 -0.25992247 -0.20738941
0000c0 f3 f6 63 bd 8c ff 8e 3d 3b 06 1a bf 99 37 14 3f
       -0.05565543 0.069823354 -0.60165757 0.57897335
0000d0 12 e8 6d 3e 7b 42 36 3e d7 7e 9a be cc 3d 9e 3d
       0.23233059 0.17798798 -0.30174896 0.077266306
0000e0 b3 a7 e1 be 47 dd 40 bd db 36 b0 3b b4 6e 91 bd
       -0.44073257 -0.047086027 0.005377633 -0.07101193
0000f0 e8 d3 4c 3e ac 24 c0 bb 75 0c af be ad 2c 46 be
       0.20002711 -0.0058637466 -0.3418919 -0.1935298
000100 f3 47 e5 3d a3 31 09 be 34 40 a9 3e 99 98 c3 3e
       0.11195364 -0.13397841 0.33056796 0.3820236
000110 b8 6a 00 3e a3 72 c1 be 00 c0 a8 bc 54 6a ca 3e
       0.1254071 -0.37782773 -0.020599365 0.39534247
000120 8b e7 25 be a3 72 60 3e 8c 20 9a 3e 28 1b 70 be
       -0.16201608 0.2191873 0.30102956 -0.2344786
000130 3c 6d 16 be 13 60 28 3c be 5c c1 be 46 b9 27 3e
       -0.14690107 0.010276812 -0.3776607 0.1637927
000140 07 48 85 3c 4e 3c 7f 3e 41 10 06 be 29 bc 6f bf
       0.016269697 0.24925348 -0.13092138 -0.93646485
000150 17 26 23 3c ac ed 98 3e a7 06 0c 3f 32 d8 30 bf
       0.009957812 0.2986883 0.5469765 -0.6907989
000160 27 6d 78 3c 2c f4 85 3e 5c 05 15 be e4 f3 71 bf
       0.015162743 0.2616285 -0.14552826 -0.9451277
000170 a1 d9 31 3e c7 61 bc be 86 82 d3 be e9 d5 b0 be
       0.17368175 -0.36793348 -0.4131052 -0.345382
000180 76 fc c7 bc 63 31 92 3b ac 79 e9 be 26 5e bc 3e
       -0.024412375 0.0044614538 -0.4560064 0.3679058
000190 a5 78 08 3e f2 06 80 3e 58 5e f3 be a2 56 df be
       0.13327272 0.250053 -0.47532916 -0.43620783
0001a0 ee a5 17 3d 23 c5 b9 be 11 b1 f3 be a8 23 b4 be
       0.037023477 -0.36283216 -0.47596028 -0.35183454
0001b0 a8 38 0c 3e b4 eb d0 3e 38 9e 92 be 2f 92 86 3e
       0.13693488 0.40804827 -0.28636336 0.26283404
0001c0 86 ef 8e 3d d1 35 65 3e 4c 67 48 be a9 40 f0 3e
       0.06979279 0.2238381 -0.19570655 0.46924332
0001d0 28 8e 92 3c 66 58 47 3e 7a 73 bd 3e ca 29 9d be
       0.017890051 0.19467315 0.37002164 -0.30695945
0001e0 39 8e 1f 3d b3 4f b0 be a2 a8 25 3d f7 9c 8a be
       0.038953993 -0.34435806 0.040444024 -0.2707288
0001f0 9b ae 99 bc 6a a3 ad 3e c6 95 e6 3c 09 3a 96 be
       -0.018760016 0.33913738 0.02814759 -0.29341152

_impl.layers.0.linear.weight_g f4 [32, 1]
000000 01 4c 73 3f 44 32 89 3f 93 e2 bc 3f 9d 13 74 3f
       0.9503785 1.0718465 1.4756645 0.9534243
000010 60 63 7a 3f d0 0f 0c 40 e9 69 7a 3f 06 e3 47 40
       0.97807884 2.188465 0.97817856 3.1232314
000020 44 ab 04 40 d4 14 61 3f c0 53 77 3f 7d f6 71 3f
       2.0729532 0.87922406 0.9661217 0.94516736
000030 52 dd a7 3f fe 0f 6d 3f 3f f2 31 40 48 cf 77 3f
       1.3114417 0.9260253 2.7804105 0.9680066
000040 2d 6e 81 3f ff 65 7d 3f c0 1b 33 40 3f ba 2d 40
       1.0111748 0.9898376 2.7985687 2.7144926
000050 88 69 04 40 99 88 4f 40 2a 05 e3 3f 79 cf 7e 3f
       2.068941 3.2427123 1.7735951 0.9953533
000060 03 56 eb 3f 9e 0b 7b 3f 07 be 94 3f 94 a8 7a 3f
       1.8385624 0.980646 1.1620492 0.9791348
000070 f3 0d 7c 3f 85 7c a8 3f fe ab 78 3f af ce a9 3f
       0.98458785 1.3163 0.9713744 1.32662

_impl.layers.0.linear.bias f4 [32]
000000 0a e5 1d be 97 68 2a be c2 a8 9e 3e 8b 2c 60 3c
       -0.15419403 -0.1664146 0.30988127 0.013682495
000010 66 42 45 3e 1c a3 c6 3e b8 ec ef bd b2 74 21 3e
       0.1926361 0.38796318 -0.117150724 0.15767172
000020 56 36 92 3f 2a 65 8a 3d cc 79 17 3e 15 03 a0 be
       1.1422832 0.06757577 0.14792556 -0.3125235
000030 db dc 06 3f 70 a2 55 bd d6 0e d8 3e 30 31 c2 3e
       0.5268075 -0.052156866 0.4219882 0.37928152
000040 b4 62 38 3d 38 c0 9f 3b 2a a9 23 3f 25 66 60 3f
       0.045016006 0.004875209 0.6393 0.8765586
000050 0c 52 a8 3e ca ac 8d 3e ef c8 ae 3e 4e 26 8f 3d
       0.32875097 0.2767089 0.34137675 0.06989728
000060 b6 fc 56 3e ee 27 84 be 4f 3f a6 be d2 2e a0 be
       0.20994839 -0.25811714 -0.32470176 -0.3128572
000070 c2 80 56 be 53 6b b9 be 95 7f a6 be 5d 81 e4 3e
       -0.20947555 -0.36214694 -0.32519212 0.44629946

_impl.layers.1.linear.weight f4 [32, 32]
000000 b3 37 92 3e 4d 16 93 bc b8 47 af bc 9e 9c df bd
       0.2855812 -0.01795497 -0.021396503 -0.10918544
000010 47 67 9e bc 81 22 24 3f 71 38 48 3d 73 8d 86 bf
       -0.019336356 0.6411515 0.04888195 -1.0511917
000020 c5 df 21 be f5 bb 47 3e 99 77 76 be 74 c8 1c be
       -0.15808018 0.19505294 -0.2406906 -0.15310842
000030 0f e7 96 bd a3 87 8a 3d 5b 92 e0 3c 65 9b b1 bc
       -0.0736829 0.06764152 0.027413538 -0.021680543
000040 a3 18 3b 3d c3 d1 c4 3c 9a 65 3e be 57 f1 96 bd
       0.045677792 0.024025803 -0.18593445 -0.07370251
000050 38 6b f7 3e c5 50 87 3f 41 c6 a6 3e e6 0b 0d be
       0.4832399 1.0571524 0.3257313 -0.1377407
000060 5c db 5d be bd 82 8f be 78 c1 ef be c7 0b 72 be
       -0.2166571 -0.28029433 -0.46827292 -0.23637305
000070 a9 f0 88 be 5b 5a b5 3e 39 a0 00 be ef 78 b1 be
       -0.2674611 0.35420498 -0.1256112 -0.34662578
000080 b7 00 84 3e ab df c6 bb 15 23 d9 be 29 02 4e be
       0.25781795 -0.006069144 -0.42409578 -0.20118012
000090 1b b2 11 be 74 b4 90 be 9f 70 85 3e 73 ee f3 3e
       -0.14228098 -0.28262675 0.26062486 0.4764286
0000a0 ff fb 23 3d b3 be 5f bd fd 6d 50 3e fa 4f 59 be
       0.040035244 -0.054625224 0.20354457 -0.21221915
0000b0 66 cb 86 3e f4 ef 8a be b3 3f 54 be 8b 93 6a 3e
       0.26327056 -0.27136195 -0.20727424 0.22907846
0000c0 a2 07 36 3e 38 06 b4 3d 7d a6 bc 3d 5f e6 aa 3d
       0.17776349 0.08790249 0.092114426 0.08344721
0000d0 01 40 a1 be 02 86 8c be ee a2 a1 be 73 08 74 3e
       -0.31494144 -0.2744599 -0.31569618 0.23831348
0000e0 c7 f5 4e 3e 48 74 80 be c2 0d 6d 3e c9 d0 b0 3d
       0.20210944 -0.25088716 0.2314978 0.086335726
0000f0 33 0f de 3d 3a 1e 0f be 46 67 84 3e 5c c1 a9 3e
       0.10842743 -0.13976374 0.2586004 0.33155334
000100 b3 86 39 3d e4 52 92 be f1 93 43 be ef dc b2 3e
       0.045294475 -0.28578866 -0.19099404 0.34934184
000110 3d 88 50 be 79 e8 a2 3c b1 27 15 3b e3 82 9b be
       -0.20364471 0.019886242 0.0022759254 -0.30373296
000120 e4 e6 a8 bc 37 28 18 be 74 9f 83 be 40 35 1a 3e
       -0.02061791 -0.14859091 -0.2570759 0.15059376
000130 16 42 5d be 62 50 c0 3d 4c 97 4c 3d cb 57 4a be
       -0.21607241 0.09390332 0.049948975 -0.19760053
000140 37 f5 61 3e 44 fb 57 bd 88 15 77 bc db e1 38 bd
       0.22066198 -0.05272986 -0.015080817 -0.045137268
000150 e3 46 91 3e b5 b3 18 3f b0 c0 04 3e f7 48 17 be
       0.28374395 0.5964921 0.1296413 -0.14773928
000160 f0 e5 98 be 0b 3c 62 be 41 39 cd be e8 0e 33 be
       -0.29862928 -0.22093217 -0.40082744 -0.17486155
000170 bd 4b 00 be 1d f9 7d 3e 31 a6 9d 3d 79 51 7e bd
       -0.12528892 0.2480206 0.07697714 -0.062089417
000180 50 4b 20 3e af e4 a8 be e1 e8 9d be e6 a3 73 bc
       0.1565373 -0.32986972 -0.30841735 -0.014870619
000190 38 f7 1e 3e df 48 55 be 24 7e 86 bd 9e 08 e2 3e
       0.15523994 -0.2082858 -0.06567028 0.441472
0001a0 77 14 42 be a4 0a 35 be 13 74 57 be ea b8 92 3d
       -0.18953119 -0.1767984 -0.21040373 0.07164176
0001b0 8e 13 00 3e 0c 4d 30 3e ca 28 c3 3d 25 ae 75 be
       0.1250746 0.17216891 0.09529264 -0.23992212
0001c0 d3 6e 34 be 62 b5 64 3e f3 ce 87 bd 58 29 1c 3c
       -0.17620401 0.22334817 -0.06631269 0.0095313415
0001d0 2d d8 85 be 3c 2f 70 be fc 49 94 be 0d 44 cf 3d
       -0.26141492 -0.23455518 -0.28962696 0.101204015
0001e0 2a da b0 be eb 52 9d 3d db 29 83 be 4a 4e aa 3d
       -0.34541446 0.07681831 -0.2561787 0.08315714
0001f0 7e 12 95 bd 3f 92 51 bd 37 46 3c bd f3 48 96 be
       -0.07278918 -0.05116486 -0.0459654 -0.2935253
000200 ec 31 74 be 44 42 ba 3e 27 19 23 3e 8e 5c bb 3d
       -0.23847169 0.36378682 0.15927564 0.09148513
000210 4b 54 81 be a7 7b a4 be 27 c9 ab bb 62 fd 48 3f
       -0.25259623 -0.3212559 -0.005242485 0.7851163
000220 62 a4 c5 bd f3 1c 0e 3e f3 b9 13 3e fc a2 9e 3e
       -0.09650494 0.13878231 0.14426403 0.30983722
000230 90 b6 2f be 4b 62 ee 3c d6 50 91 bc 04 ea 64 3d
       -0.17159486 0.029099604 -0.01773874 0.055887237
000240 8e d1 cc be 81 8b 57 be 85 df 79 bd 69 5d bf bd
       -0.40003628 -0.2104931 -0.06100418 -0.093439884
000250 a4 f7 df bd 1a 05 92 be 74 02 99 3d ab f3 4b be
       -0.109359056 -0.28519517 0.07471171 -0.1991717
000260 bc e1 92 bd bd 0c fe 3d 37 db 63 bd b7 0c 3a 3e
       -0.07171962 0.124047734 -0.05562898 0.18168913
000270 a4 c9 9d 3e 4b e9 c1 bd d7 35 45 be d1 77 76 3e
       0.30817902 -0.09468325 -0.1925882 0.24069144
000280 ca a1 97 bd 1f d9 5d 3e 0d 18 c4 3e 2c 5e da 3b
       -0.07403906 0.21664856 0.382996 0.006664058
000290 08 87 f9 3d 6c 7e da 3d db 59 46 be c1 99 0d 3e
       0.12183958 0.10668644 -0.19370215 0.13828184
0002a0 cc 2b b0 bc df 34 01 3c eb 99 61 be c2 c2 2d bd
       -0.021505259 0.007886141 -0.22031371 -0.042422064
0002b0 6a ee 6d be d7 50 d7 bc 02 9c 4d 3c c1 4f 92 3e
       -0.23235479 -0.026283665 0.012549402 0.28576472
0002c0 45 08 85 be 30 5a ee 3b c2 56 a4 3c 7c 1f 36 bd
       -0.25982872 0.007273935 0.0200609 -0.04446362
0002d0 a1 e1 90 3e 03 40 90 be 71 78 bb 3e 70 2b 05 3e
       0.2829714 -0.28173837 0.36615327 0.13004851
0002e0 95 65 8d be 7b 04 a8 3d 32 e9 4d 3e cc b8 1d 3d
       -0.27616563 0.082039796 0.20108488 0.038506314
0002f0 43 2e 1f be 56 45 18 bf 3b 91 4d bd 17 5d c4 3d
       -0.15544991 -0.594808 -0.05018733 0.09588068
000300 11 e2 93 bd 2e 73 57 3e 87 aa ee bd 49 dc 16 3d
       -0.07220853 0.21040031 -0.11653619 0.036831174
000310 42 a7 24 3e e1 d6 98 3e 78 29 40 be f7 db d7 3e
       0.16079429 0.2985144 -0.18765819 0.42160007
000320 37 93 21 be 7d 35 81 3d 84 76 ba be a9 05 f5 3d
       -0.15778814 0.0630903 -0.36418545 0.1196397
000330 4e 33 cf be 97 d3 53 bc 9b a8 4a 3e 9c 6d 77 bd
       -0.4046883 -0.012928865 0.1979088 -0.060407266
000340 48 b8 9c be 58 5e 6d 3e fc 5c 67 3e 06 95 33 be
       -0.30609345 0.2318052 0.22594064 -0.17537317
000350 37 69 50 be 6c ef 52 be 52 40 10 3e 6e f4 bf bc
       -0.20352636 -0.20599145 0.14087036 -0.023431983
000360 20 c6 88 be c1 15 1b 3d d8 34 44 3c 5a 15 77 bc
       -0.26713657 0.037862543 0.01197549 -0.015080774
000370 58 09 84 be 48 15 20 bf 34 e4 1b be 51 54 41 be
       -0.2578838 -0.6253247 -0.15223771 -0.1887982
000380 35 36 0e be 83 9e 0d be 0f 03 ae 3e 3e ae 0b 3e
       -0.13887866 -0.13829999 0.3398671 0.13640687
000390 4a aa 1e be ba 72 0c 3d fd 39 97 be 66 19 e8 3d
       -0.15494648 0.0342891 -0.2953643 0.11332969
0003a0 67 14 57 bd 9a 0a 84 3d f5 a4 0b be 7b fb 9e 3c
       -0.05250969 0.064473346 -0.13637145 0.019407025
0003b0 37 5c a1 be db 0c 2c bd 89 51 04 be 0e c9 97 3e
       -0.31515667 -0.042004447 -0.12921728 0.2964558
0003c0 c9 19 ee bd f7 be 49 be 01 14 25 bd fb 9e 5a 3d
       -0.11626012 -0.19701754 -0.04030228 0.05337427
0003d0 bf e0 94 3e f9 00 0f bd 36 31 b5 3e 3b 3d ac 3e
       0.29077718 -0.034913037 0.35389107 0.33640465
0003e0 cd 4b c6 be 2f df 16 bd 74 92 ae bc f7 45 ee 3d
       -0.38729706 -0.03683394 -0.021310069 0.116344385
0003f0 d0 72 3d be 18 c0 c6 be 68 e0 54 be 81 0b c3 3e
       -0.18500829 -0.3881843 -0.20788729 0.38094714

_impl.layers.1.linear.weight_g f4 [32, 1]
000000 e9 0b 66 40 c4 9c 81 3f 40 8f 33 40 8e 7b 87 3f
       3.594477 1.0125966 2.8056183 1.0584581
000010 56 36 07 40 e8 2c 84 40 d9 1a 80 3f d0 1a 1a 40
       2.1126914 4.1304817 1.0008193 2.4078865
000020 b3 c4 6f 3f 79 8d c4 3f e3 24 c0 3f c4 02 7b 3f
       0.93659514 1.5355674 1.5011257 0.98051095
000030 09 fa 9a 3f 03 d3 9a 3f 98 5f 0d 40 bc a6 7c 3f
       1.2107555 1.2095646 2.2089596 0.98691916
000040 f3 be 7b 3f 68 0c 7e 3f 33 0a 80 3f c7 9c 99 3f
       0.9833824 0.9923768 1.0003113 1.200097
000050 2b 5e 87 3f 1b a5 95 3f 87 35 a4 3f 9b 5b 7f 3f
       1.0575613 1.1691011 1.2828835 0.99749154
000060 2e 03 12 40 e8 63 77 3f 15 f1 87 3f c9 29 85 3f
       2.281444 0.9663682 1.0620447 1.0403377
000070 4b a9 67 3f c9 3a cf 3f b9 52 b5 3f 58 6d d7 3f
       0.90492696 1.6189815 1.416587 1.6830244

_impl.layers.1.linear.bias f4 [32]
000000 0c 94 13 3e 2c 0f c2 be d5 bf 8c 3e ae a0 ad 3e
       0.14411944 -0.379022 0.27490106 0.3391165
000010 e5 e0 1f 3d ec 55 f4 3e fd 69 db 3e 74 5b c8 3e
       0.039032836 0.47721803 0.428543 0.39132273
000020 33 2a 7f bd ff 7e d1 3e fc 21 11 3f 0a 1c 3f be
       -0.062296104 0.40917203 0.5669248 -0.1866304
000030 9a 07 c7 3e 17 d4 9a 3d c0 c7 69 3f 23 c7 a7 bd
       0.38872987 0.07559984 0.9132042 -0.08192279
000040 91 e9 44 be 19 2b 86 3d f4 1e a6 be bb 45 a4 3c
       -0.19229724 0.06551189 -0.3244549 0.020052781
000050 46 79 f2 bd 5c a5 a3 3e e0 92 a7 3e 76 ab c1 3e
       -0.11839537 0.31962097 0.32729244 0.37826127
000060 07 52 db 3e 93 65 9d 3e c3 44 4c bd f1 1a 8c be
       0.4283602 0.30741557 -0.049870264 -0.27364305
000070 5d da df be 62 56 49 3e 64 fa 87 bd 5e 81 be 3c
       -0.43721285 0.19661859 -0.06639555 0.023255046

_impl.layers.2.linear.weight f4 [32, 32]
000000 74 e3 d0 be cc 9b 23 be d9 7b 74 3c b7 89 f9 bc
       -0.40798533 -0.159774 0.014922106 -0.030461175
000010 d6 8c f7 3e ef 93 62 3f e0 a2 46 be 3a 8f 1d 3e
       0.48349637 0.8850698 -0.1939807 0.15386668
000020 18 9a f9 bd 7e 9a d8 bd 3d 0e 9d be fe a3 74 be
       -0.12187594 -0.10576342 -0.30674925 -0.23890683
000030 d4 a1 31 3e 58 f0 1a 3e 58 c7 98 bd d4 1d e3 bd
       0.17346889 0.15130746 -0.07459897 -0.11089674
000040 71 f9 a9 bd fe ab db bd 76 14 7a be b3 32 20 3e
       -0.0829953 -0.10726164 -0.24421868 0.1564434
000050 85 fc b6 bd 70 f8 0e be 42 e5 70 be 7b 54 5a be
       -0.08934883 -0.13961959 -0.23524955 -0.21321289
000060 13 dc 95 3e ff 4e 56 be bb c5 c8 3d 75 e7 16 be
       0.29269466 -0.20928572 0.09803339 -0.14736731
000070 be 79 5f be be 86 9f 3d 39 66 80 be 81 63 74 be
       -0.21823785 0.07789372 -0.2507799 -0.23866083
000080 d4 e2 dd bd 9c 4f 34 be f4 a1 13 3e db 4b 18 bd
       -0.1083428 -0.17608494 0.14417249 -0.037181716
000090 50 df ac 3e 1f 39 62 3e 4e f4 b3 bd d8 b9 4f 3e
       0.33764124 0.22092102 -0.08786832 0.20285738
0000a0 eb d3 72 bd 9a 79 e9 bd f4 1a 35 be 3c 90 0e be
       -0.059284132 -0.11400147 -0.17686063 -0.13922209
0000b0 93 3b e3 3d 6b 9b 94 3d 4a 1e 86 3d 61 d4 84 bd
       0.11095347 0.07256206 0.06548746 -0.064858206
0000c0 24 6e 80 bd 60 25 a1 bd 45 69 85 be 7d 0d c3 bd
       -0.06271008 -0.07868457 -0.26056877 -0.09524057
0000d0 ae 96 b6 bd ac 93 e2 bd 86 a4 44 be 38 8c 4d be
       -0.089154586 -0.110633224 -0.19203386 -0.2007302
0000e0 6d 29 08 be 6c 38 48 be 97 e8 9e 3d 16 cc 95 3d
       -0.13297053 -0.19552773 0.07759207 0.07314317
0000f0 bb c1 51 be 4c ba 77 be 03 61 7a be 5f 03 d4 bc
       -0.20484059 -0.2419216 -0.2445107 -0.025880514
000100 89 1f 5b bd 28 03 89 3e 15 cd da 3e 3e b7 34 be
       -0.05349687 0.2676022 0.4273459 -0.17648026
000110 e0 67 b5 3e b7 17 42 3e 82 42 88 3e ec d4 f9 3e
       0.35430813 0.18954359 0.2661324 0.4879526
000120 2f 05 11 3e cc 5f ab 3e c8 48 90 3e 96 5f 20 bd
       0.14162134 0.33471525 0.28180528 -0.039153658
000130 83 8a 89 3e db 1b 00 bd 41 28 d1 3d aa e5 65 be
       0.2686349 -0.031276565 0.10212756 -0.22450891
000140 b1 d4 a6 bc ac 26 08 3e 3f 83 a2 bd e6 93 90 3d
       -0.020365091 0.13296002 -0.079351895 0.070594594
000150 95 e8 8d bd 1f b5 b5 3e 9a 1a 54 3e c8 82 9a 3e
       -0.06929127 0.35489747 0.20713273 0.30177903
000160 6c 35 a9 bd d1 cf 39 3e 42 8d 1c 3e 41 78 e0 3d
       -0.082621425 0.18145682 0.1528826 0.109604366
000170 99 b3 52 3d 80 00 fc 3d a9 9d 65 3e 6a ea d3 3e
       0.05144081 0.12304783 0.22423424 0.4138978
000180 df a5 09 bf d8 11 13 b8 ca 75 2c be eb 60 e8 3d
       -0.53768724 -3.506415e-05 -0.16841808 0.11346611
000190 e2 29 9c 3e 9e d7 9f 3e ce dd a3 3d 6d dd 0e 3e
       0.30500704 0.3121919 0.0800129 0.13951655
0001a0 1f fd 3b bd 08 a0 61 3d 80 83 13 3e 86 55 38 bd
       -0.045895692 0.05508426 0.14405632 -0.045003437
0001b0 81 d9 69 3e 90 39 0c be 56 12 ee be 7f 48 93 be
       0.22836877 -0.13693833 -0.46498364 -0.28766248
0001c0 41 26 8d be fc 05 aa bd 7c 3a 0b be 1e ee 50 bd
       -0.27568248 -0.08301923 -0.13596529 -0.051008336
0001d0 28 15 5a be e4 24 95 bd 8b 83 20 3d 32 fa 99 3c
       -0.21297133 -0.07282427 0.03918795 0.01879606
0001e0 7b 51 28 3f 4a 6a d6 bc dc be 2b be 0a c4 92 be
       0.6574933 -0.02617373 -0.16772026 -0.2866519
0001f0 f9 09 49 be 5d dc 36 3e f8 5a 1c 3e a0 4c 98 3d
       -0.1963271 0.178575 0.15269077 0.0743649
000200 9b 0c 1e bf 1e 2e c5 3d 7b 85 16 be 16 1d d5 3d
       -0.61737984 0.09627937 -0.14699356 0.10405938
000210 b7 7c ec 3d 11 b3 fe bd 3d ac f9 3d f4 15 63 3e
       0.11547225 -0.12436498 0.12191055 0.22176343
000220 f2 e4 f3 bc 3c 9b 1a 3e 56 9e 1f bc 19 f4 dc 3d
       -0.029772256 0.1509828 -0.00974234 0.107887454
000230 76 c5 2e 3e ea dc 15 be e4 8c ad bd ee 09 1b be
       0.17067513 -0.14635053 -0.084741384 -0.15140507
000240 aa a5 94 bd bd 2f 00 bd 4d 4c 35 3e e9 cc 41 bd
       -0.072581604 -0.031295527 0.17704888 -0.04731456
000250 f8 0f a4 bd 89 9c ef 3d 41 da 1b 3d 29 39 11 3e
       -0.08010858 0.116997786 0.03804994 0.14181961
000260 d8 87 cc 3e e7 82 04 3e 1b c5 13 be d6 26 c4 3d
       0.3994739 0.1294056 -0.14430659 0.0957772
000270 d6 14 8c bd ee 07 3f 3c 10 2e 42 3e 95 8a 4f 3d
       -0.06839912 0.011659605 0.18962884 0.05066927
000280 9f 22 2e bd be 3f a3 bd 62 4c 2b bd dc 32 3d 3e
       -0.042513486 -0.07971142 -0.04182089 0.18476433
000290 e6 54 67 3d 6b da 49 bc bd f9 7b 3e 6b 09 aa 3e
       0.05647745 -0.012320141 0.24606986 0.3321031
0002a0 b7 a7 37 3e da c2 84 3e 20 57 cb 3e f3 0b 52 be
       0.17935072 0.2592991 0.3971491 -0.20512371
0002b0 f7 1f 87 be eb 2f de 3c 1d 95 2f 3d 25 31 fd 3c
       -0.26391575 0.027122458 0.042866815 0.030907223
0002c0 e1 5a df 3d a6 26 07 3e 7f 8f ad bd 85 49 21 3e
       0.10906006 0.13198337 -0.08474635 0.15750702
0002d0 d2 6e a3 3e cc a5 93 3e e4 5e 74 3e 8b e1 6f 3e
       0.31920487 0.2883743 0.23864323 0.23425882
0002e0 a1 c1 9f be 61 eb 67 3e ce 16 a6 3e 35 e2 90 3e
       -0.31202415 0.22648384 0.32439274 0.28297582
0002f0 86 09 56 3e 98 74 86 3e 39 5e a7 3e 4f 08 2d be
       0.2090207 0.2626083 0.32689074 -0.168977
000300 46 f7 f7 be 7e 82 11 3e c5 27 8d be 08 a2 d2 bc
       -0.48430842 0.14209935 -0.27569404 -0.025712028
000310 79 f4 57 3d c1 01 c3 be 10 b3 5d 3e 38 33 5e 3e
       0.05272338 -0.38087276 0.21650338 0.21699226
000320 c3 13 13 3e 1b b9 8c 3e e1 f3 bb 3d 6d bb de 3d
       0.14363007 0.27484974 0.091773756 0.108755924
000330 33 f1 ef 3d 37 66 39 be 00 69 58 bd 75 dc 4f 3d
       0.11715927 -0.18105398 -0.05283451 0.050747354
000340 2f 62 37 bc 98 1b 26 be b9 f4 08 3d a4 f3 3f 3e
       -0.011192842 -0.16221464 0.03343651 0.18745285
000350 cf c1 2b be aa b5 28 3e b2 7a 33 3e 41 81 77 3e
       -0.16773151 0.1647555 0.17527273 0.241704
000360 58 97 27 3d 69 e7 d9 3d 02 6e 97 3d 11 e5 9e 3d
       0.040915817 0.10639841 0.07394029 0.07758535
000370 f0 78 b9 3d 62 e0 37 be 3a eb 42 3f 12 24 79 3d
       0.0905627 -0.17956689 0.7614018 0.060825415
000380 b5 bd fe be 9c 6a 37 3c 6d 2d 14 3d 32 5b 40 bc
       -0.4975411 0.011194851 0.036176134 -0.011740493
000390 91 36 b6 3e 39 29 f0 3e 05 e1 27 bd c5 48 02 be
       0.35588506 0.4690645 -0.04098608 -0.12723072
0003a0 0f 47 10 bd dc 71 7b bd 2a e0 bf bc 58 b6 ff bd
       -0.035224017 -0.06138788 -0.02342232 -0.12485951
0003b0 72 2f 9e 3e 53 a6 81 3d 09 c0 69 bd 17 0d 96 bd
       0.30895573 0.06330552 -0.057067905 -0.073267154
0003c0 a3 21 3c be 17 a9 d0 3d 2d 9e b3 bc a0 5b 34 3e
       -0.18372206 0.10188501 -0.02192601 0.17613077
0003d0 e7 63 3e be 60 5b 54 bd 1b ab e6 bc d3 0a 23 bd
       -0.18592797 -0.051844954 -0.028157761 -0.039805245
0003e0 58 57 47 bc 27 ad 0d bd 84 3e 93 3d e3 65 d2 bc
       -0.0121668205 -0.03458896 0.07189658 -0.025683349
0003f0 d8 f6 0e 3d e7 76 43 bd 68 fd b0 bd c5 bb 4d 3e
       0.034903377 -0.047720816 -0.086420834 0.2009116

_impl.layers.2.linear.weight_g f4 [32, 1]
000000 d3 5a 70 40 86 68 22 40 6d f8 a9 3f 13 59 93 40
       3.7555435 2.5376296 1.3278939 4.6046233
000010 1d c2 4d 40 51 fd 94 3f 2d 28 98 3f db 09 0f 40
       3.2149727 1.1639806 1.1887261 2.2349765
000020 03 61 83 3f 42 fb f3 3f 19 c2 a2 3f 38 4c 84 3f
       1.0263981 1.9061053 1.2715484 1.033576
000030 2c c7 85 3f 7c fd d7 3f 8b d9 8c 3f 66 e5 8a 3f
       1.0451407 1.6874232 1.1003889 1.0851257
000040 8b 1d 9d 40 d8 a1 83 3f 8f fe 9b 3f 81 dd 03 40
       4.9098563 1.0283766 1.218706 2.0603945
000050 45 7e ec 3f d3 d0 82 3f 38 50 9c 3f 9e 37 9b 3f
       1.8476034 1.0219978 1.2211981 1.2126348
000060 52 6c 90 3f 56 32 0b 40 7c ba 3c 40 1a 10 ec 3f
       1.1283057 2.1749473 2.948882 1.8442414
000070 da 34 b0 3f 91 9d a4 3f 62 a6 b1 3f eb 3d 9c 3f
       1.3766129 1.2860585 1.3878901 1.2206396

_impl.layers.2.linear.bias f4 [32]
000000 af e7 0c 3f 57 bc 0c 3f 09 77 59 be f0 0f 29 3f
       0.5504102 0.54974884 -0.21236815 0.66039944
000010 d1 90 48 3e 99 5f a7 be c1 8d 53 be 42 e3 83 3e
       0.19586493 -0.32690123 -0.20659544 0.2575932
000020 f7 d0 76 3d fc 86 bf 3e 4c c7 73 3e 5c 88 d9 3e
       0.06025788 0.37407672 0.23806494 0.42486846
000030 5c e5 5c be e1 da eb 3d fb 73 31 3e ba f7 c9 be
       -0.21571869 0.11516357 0.173294 -0.39446813
000040 e8 21 2f 3f 02 4d e4 bd 77 74 19 bf 78 2c 0b 3d
       0.6841111 -0.111475006 -0.59943336 0.033977956
000050 e4 f5 6a 3e 88 21 7d be fd 3f e4 3c 89 2e 42 3e
       0.22945362 -0.24719822 0.027862543 0.18963064
000060 63 14 0e bc dd 31 cc bd d7 bf 73 3f d7 92 8b 3e
       -0.008671853 -0.09970448 0.952146 0.27260467
000070 a7 0d c9 bc 86 13 05 3f cf 40 51 be 07 61 1f 3b
       -0.024542643 0.51982915 -0.20434879 0.0024319307

_impl.layers.3.linear.weight f4 [32, 32]
000000 b6 a5 d0 be fe b3 9a be 12 c3 9c bd 84 f2 0d bf
       -0.40751427 -0.30215448 -0.07654394 -0.55448174
000010 6a 56 24 3e d4 ad 8e bc 2e 61 8e bc 57 2f 19 3f
       0.1604859 -0.017416872 -0.017380323 0.5983786
000020 81 ca 13 3e 5a 17 81 be ef e8 a9 3d 39 dd b9 3d
       0.14432718 -0.25213128 0.08296382 0.09075398
000030 49 08 f0 3d 3a 03 3c 3e 66 d3 0d 3d 55 64 70 bd
       0.1172033 0.18360606 0.034625433 -0.058689434
000040 67 12 31 3e 19 88 8b 3d 2f 1a 64 be 26 ee aa 3c
       0.17292176 0.06813068 -0.22275613 0.020865511
000050 72 33 ae bd 55 c6 01 bb f6 6c 6d 3e aa 5d 26 bd
       -0.08505906 -0.0019802053 0.23186097 -0.04061667
000060 72 77 13 3e 3d 57 e9 3d 3e 13 a5 3b 42 3a 22 bd
       0.14401034 0.113935925 0.0050376942 -0.03960634
000070 50 58 af 3c f6 c4 b5 bc 96 81 1f be d6 0d ba bc
       0.021404415 -0.022188645 -0.15576777 -0.022711676
000080 59 86 9d be a3 b5 c7 bd b5 3d 1e be 83 e8 0c be
       -0.30766562 -0.09751441 -0.15453227 -0.13760571
000090 1d 38 22 3e f9 3f 13 bd 75 62 66 bb 02 09 0d be
       0.15841718 -0.03594968 -0.00351539 -0.13772967
0000a0 9a 02 04 be 41 a8 f8 3c 32 03 ae bd 1c a9 20 be
       -0.12891617 0.030353667 -0.08496703 -0.1568951
0000b0 2d 9a 3a be 0c fb 83 bd 60 17 52 bb f2 4e c2 bc
       -0.18222876 -0.06444368 -0.003205739 -0.023719285
0000c0 39 0e 10 3f 54 10 35 bd e0 7c 51 bc 38 64 eb be
       0.562717 -0.044205025 -0.01278612 -0.45974898
0000d0 5e 2c 90 3d 4d 76 2b be 14 80 4d be 6f 38 96 3c
       0.07039712 -0.16744347 -0.20068389 0.018337457
0000e0 78 4b 55 bd 07 a4 e8 bd 0e 60 ac 3e 84 84 0a 3d
       -0.052073926 -0.11359411 0.33667034 0.033817783
0000f0 2c 7f 85 bd 71 e3 0f bd 94 65 0d bc a3 0e 63 be
       -0.06518397 -0.035129014 -0.008630175 -0.22173552
000100 8b eb 24 3e 77 1e 4c bd df 71 b2 bd 65 41 7f be
       0.16105478 -0.04983374 -0.087131254 -0.2492729
000110 3d 42 5b bd 4a 99 93 bc 27 6b c2 3d 8d 02 1c 3e
       -0.053529967 -0.01801743 0.09493094 0.15235348
000120 96 9d 43 3d 77 81 7b bd e0 88 e3 bd b4 3b c2 bc
       0.047757708 -0.061402764 -0.11110091 -0.02371011
000130 b3 cc e5 bd 47 8a a6 3e f6 8e 09 be 42 a2 ad 3d
       -0.11220684 0.32527372 -0.13433442 0.08478214
000140 33 ab c2 3d 22 d6 95 bc da 0b ef 3d 77 d2 85 bd
       0.0950531 -0.018290583 0.116721824 -0.065342836
000150 32 0e 2d 3f 02 f0 d8 bc 41 cf 5c be cd 7d 24 3d
       0.67599785 -0.026481632 -0.21563436 0.040159035
000160 29 98 a4 be 02 4e d2 3c f1 b3 09 be 26 89 0d 3f
       -0.3214734 0.025671963 -0.13447548 0.55287397
000170 20 35 5b 3e a0 24 3d 3d 65 ed 8f bd 0b 06 99 be
       0.21406984 0.046177506 -0.07027701 -0.29887423
000180 f8 0d 8b be 46 4c 1b be 7b 5d 19 be 67 69 97 3e
       -0.27159095 -0.15165815 -0.14977066 0.29572603
000190 71 a4 fd bd a7 f8 a1 3e 75 94 53 bd c6 b8 14 3e
       -0.1238488 0.3163502 -0.05165525 0.1452361
0001a0 75 c0 13 3e a1 08 a2 bd fe 14 29 bd 8a 55 0f be
       0.14428885 -0.07911802 -0.041279785 -0.13997474
0001b0 3c 41 42 3e 4a f7 20 3d 0e b1 d9 bc 47 67 b6 3d
       0.18970197 0.039298333 -0.026573684 0.08906417
0001c0 44 df e4 bd b5 c0 8b 3e e7 82 39 3c f3 50 91 3d
       -0.11175397 0.2729546 0.011322713 0.07095518
0001d0 2b db a4 bd e4 c8 59 3d 38 1f f0 3d 79 cb 90 bc
       -0.080496155 0.0531701 0.117247045 -0.017675148
0001e0 cf 62 5f 3e 08 ef 1f be 32 02 47 3d ef e7 5b be
       0.21815036 -0.15618527 0.048586078 -0.21475194
0001f0 ca 70 0a 3e a4 01 3b 3e bf ba 18 3e b6 cb 67 3e
       0.13519588 0.18262345 0.14914988 0.22636303
000200 d1 58 92 bb 08 2c 88 3e 6d 56 50 be 5c ef d6 3d
       -0.004466154 0.26596093 -0.20345469 0.10494873
000210 b2 9e 1f be 70 d5 98 be 1b f1 92 3d 1d 2c 85 3e
       -0.15587881 -0.2985034 0.071748935 0.26010218
000220 8f db f6 bd 87 2b b7 3d cf 1c 3f be d2 27 94 3e
       -0.12053596 0.08943849 -0.18663333 0.2893663
000230 f2 25 8c 3e 39 51 19 be c1 25 1a be 3a 1c c1 bc
       0.273727 -0.1497239 -0.15053464 -0.02357303
000240 e6 ef 48 be 3e ee 94 3e 4c 7b 8a 3e 89 7d 72 3d
       -0.19622764 0.29088014 0.27047193 0.05920175
000250 4d 67 e8 3e c4 be 1c 3e a7 a9 d6 bd 8e d9 c3 3d
       0.45391312 0.15307146 -0.10481577 0.0956298
000260 a7 d8 38 be 08 d7 77 be 0c 08 88 bc f6 3d d6 3e
       -0.18051396 -0.24203122 -0.0166054 0.41844147
000270 1a cf 7c 3e 48 f1 b3 3d 4a 9f 1e be b9 28 8a be
       0.24688378 0.08786255 -0.15490451 -0.26984194
000280 5c e4 1d bd f2 e6 44 be 29 36 5c 3e 58 0a ae 3e
       -0.03854786 -0.19228724 0.21505035 0.33992267
000290 6b fc a0 be 7a ad 02 be 45 d8 4c be 1f 01 cc be
       -0.3144258 -0.12761489 -0.20004375 -0.39844605
0002a0 b4 96 87 be f0 b1 29 3e 98 6c 0c be 37 42 9f bd
       -0.26482165 0.16571784 -0.137133 -0.07776301
0002b0 70 cf dc 3d d1 68 6c be df 99 ce 3d c8 4a 70 bd
       0.10781753 -0.2308686 0.10087942 -0.058665067
0002c0 e2 f7 21 3d dc 7c 6e 3d d6 63 c4 3d fd 82 dc 3d
       0.03954304 0.058224544 0.09589355 0.107671715
0002d0 90 b6 84 3d 92 61 e5 bd d9 d5 a4 be 13 73 3f 3e
       0.064801335 -0.11200251 -0.32194403 0.18696241
0002e0 dc 86 8c 3d 18 5e 9f 3e 35 60 de be 09 4d 82 3e
       0.0686166 0.31126475 -0.43432775 0.25449398
0002f0 67 2c f9 3d bd f9 18 bd b4 f9 83 3e f9 7f 75 3e
       0.12166672 -0.037347544 0.25776446 0.23974599
000300 1e a2 a6 3e 09 c1 03 3e 6e 09 28 bc 9f e6 20 3e
       0.3254556 0.12866606 -0.010256154 0.15712975
000310 a7 74 b6 bd e3 80 1e be 34 fa 14 3e fe d6 1a bd
       -0.089089684 -0.15478854 0.1454857 -0.03780269
000320 87 40 a9 bd fe 32 ab bd c9 b3 41 be 0c 06 9e 3e
       -0.08264261 -0.08359335 -0.18916239 0.30863988
000330 7e 31 6c 3e 1e 97 11 be 13 54 af 3d 4a 10 5e bd
       0.23065755 -0.14217803 0.08560958 -0.054214753
000340 5c ea 54 be 12 ce ce bd a3 5e e3 3c 08 b1 8b bc
       -0.20792526 -0.100978985 0.027755087 -0.017052189
000350 80 9f bc 3e 8b ed d1 3c 77 f6 83 3e aa 0c 9d bd
       0.3684044 0.025625965 0.25773975 -0.07668431
000360 a4 a3 56 be 86 5f cb bd a9 f8 0a bc c7 18 c1 3e
       -0.20960861 -0.09930329 -0.008482137 0.37714216
000370 63 04 c2 3d 04 bd b3 bd 3c 49 72 3d 40 05 b2 3e
       0.09473493 -0.08776286 0.059151873 0.3476963
000380 03 0e 0d be e3 ea 92 3d b9 8b f5 bd 1f 82 1a bc
       -0.13774876 0.07173707 -0.119895406 -0.009430437
000390 dd de 70 3d ed 96 1f be 8b 75 e6 3d a8 15 a2 3e
       0.05880629 -0.15584917 0.11252888 0.31657147
0003a0 bf d9 5a 3e fa 82 25 be 83 0d b7 bb bc 30 69 be
       0.21372126 -0.16163245 -0.0055863275 -0.22772497
0003b0 0c 10 42 3e 48 31 c0 3e 0d c8 41 be 56 46 c9 3d
       0.18951434 0.375376 -0.1892397 0.09827869
0003c0 66 3c eb bc be c4 bd 3d 66 65 10 3e 59 64 da 3c
       -0.028715324 0.09266041 0.1410118 0.026659178
0003d0 b9 7e a7 3e 83 19 52 be f7 15 89 3e 46 4d fd 3c
       0.3271387 -0.20517544 0.2677457 0.030920636
0003e0 79 c9 4a be 76 ba 85 3d 7a 01 fa 3d 36 cd c1 3e
       -0.19803418 0.06529705 0.12207313 0.37851876
0003f0 a1 1b 5b bd 3c 50 69 3d 68 c5 64 be 0b 4d 7c be
       -0.053493146 0.056961283 -0.2234093 -0.24638765

_impl.layers.3.linear.weight_g f4 [32, 1]
000000 17 49 c1 3f c9 08 37 40 94 53 2a 40 99 4b 8a 3f
       1.510043 2.8599112 2.6613512 1.080432
000010 26 84 a1 3f 6b f4 cb 3f d2 05 95 3f e2 c6 9c 3f
       1.2618454 1.5933965 1.1642401 1.2248194
000020 48 e3 ea 3f a8 94 82 3f 91 94 a9 40 68 0e 8d 3f
       1.8350611 1.0201616 5.2993855 1.1020021
000030 d8 4b 8a 40 b6 4a 94 3f d3 2e 95 3f ce a8 12 40
       4.3217583 1.15853 1.1654915 2.291553
000040 1e bf 0b 40 65 55 de 3f b9 39 c4 3f 54 25 89 3f
       2.1835399 1.736981 1.5330116 1.0714517
000050 0a 05 af 3f 0d ce 03 40 40 f9 12 40 6e 8a c8 3f
       1.3673413 2.0594513 2.296463 1.5667245
000060 81 ae 91 3f 5b 76 5d 40 eb 44 ec 3f 6b dd 27 40
       1.1381379 3.4603488 1.8458532 2.6228893
000070 c3 87 eb 3f 87 61 af 3f 4b 02 a5 3f 5f ed 95 3f
       1.8400806 1.3701638 1.2891325 1.1713065

_impl.layers.3.linear.bias f4 [32]
000000 c7 3a 77 be 4a c9 0d 3d a8 c8 28 3d 5c dd db 3b
       -0.24143516 0.034615792 0.041206986 0.0067097377
000010 16 fe 4f bc 13 4a b1 3c 4a cb a0 3e 6e d5 61 bd
       -0.012694856 0.021641767 0.31405097 -0.055135183
000020 27 31 c1 bb 94 88 dc bc 48 43 15 3f a0 e6 85 3e
       -0.005895752 -0.026920594 0.5830579 0.26152515
000030 d8 0d af 3e ce a9 c5 3d 9f 8e 82 3d 62 45 e5 3d
       0.3419025 0.09651528 0.06374859 0.11194874
000040 eb 80 fb 3e 1c 30 83 3d 65 89 04 be 89 23 e3 3b
       0.49121794 0.064056605 -0.12943037 0.0069317264
000050 7f 11 29 bd 88 b5 52 3d 28 a3 72 bd 0a 2e 98 ba
       -0.04127645 0.051442653 -0.05923763 -0.00116104
000060 8e 4e 14 3e 28 2d fb 3e 5a a3 98 3e 12 2b 7a 3e
       0.14483091 0.4905789 0.29812127 0.24430493
000070 b4 70 8a 3d d9 87 50 3c 2f 66 e1 bd 35 95 b3 bd
       0.06759778 0.012727701 -0.11005818 -0.08768693

_impl.layers.4.linear.weight f4 [32, 32]
000000 9d 66 4b bd 27 1e 3f 3e 20 7b ec be 4d 6a 28 3e
       -0.049658407 0.18663846 -0.46187687 0.164468
000010 ae 9f 4b 3e 4e 03 3c 3e fc aa 89 3a ef 50 da 3e
       0.19885132 0.18360636 0.0010503228 0.42639872
000020 1d 7f 74 bd c4 7e 75 be ef 26 b1 bd 10 c1 80 be
       -0.059691537 -0.23974138 -0.08650004 -0.25147295
000030 35 81 f0 3d 69 2f 49 3e 0c 32 06 be 5b fd d7 bc
       0.11743394 0.19646992 -0.13105029 -0.026365926
000040 16 89 06 bf 40 a3 85 bd 50 e0 13 3e d5 40 87 bb
       -0.52552927 -0.06525278 0.14441037 -0.0041276016
000050 5f a0 ed 3c 23 69 39 3d 26 d1 9e bd b1 5b cf bd
       0.029007135 0.04526628 -0.07754736 -0.101249106
000060 f7 29 32 3d f9 05 c8 3d 05 39 a7 be 8a e2 b9 be
       0.043497052 0.09766764 -0.3266069 -0.36305648
000070 f3 cf e6 3d d4 2e 0e be 1a 58 c3 3d eb 3f c4 3d
       0.11270132 -0.13885051 0.095382884 0.09582504
000080 3e 98 c5 3d dd 66 86 bd 21 69 8b 3e d7 30 07 3d
       0.096481785 -0.06562588 0.27228644 0.03300556
000090 82 65 02 be b8 d1 5a 3d 27 a7 a5 bd ba 55 a8 3d
       -0.12734035 0.05342266 -0.080885224 0.08219476
0000a0 94 d6 d8 bc e1 9b b2 bd fb f4 45 be 59 72 5f 3e
       -0.026469506 -0.08721138 -0.19331734 0.21820964
0000b0 94 21 49 bf d0 07 0c 3e 29 8f 0c 3e fd 41 04 3d
       -0.7856686 0.13674855 0.13726486 0.032289494
0000c0 3c 34 01 bf a6 a4 24 3c 1c c8 83 be 69 c1 8b 3d
       -0.5047033 0.010049021 -0.2573861 0.068239994
0000d0 9a 29 2f 3d 2b 98 ab 3c 9f 8f 5b bd bc 96 1e be
       0.042764284 0.020946583 -0.053603765 -0.15487188
0000e0 7d fe 1b 3d 27 83 8d bd f8 64 8e be d9 33 67 3d
       0.038084496 -0.06909781 -0.27811408 0.05644593
0000f0 6c c3 b9 be 2b b6 9a 3d d5 72 28 bd e2 de 8c bd
       -0.36281908 0.07554277 -0.041125137 -0.06878449
000100 2f 1d 0f be e7 90 e4 3c fe 45 aa 3e e6 c9 c1 bc
       -0.13975976 0.027901126 0.33256525 -0.023655843
000110 52 60 b1 bd 94 51 2c be c7 d6 ec 3d 22 5c c3 be
       -0.0866095 -0.16827995 0.11564403 -0.3815623
000120 57 20 01 3e 34 b1 16 be 77 ce 7a 3e 02 b3 f5 bd
       0.12609993 -0.14716035 0.24492823 -0.11997034
000130 59 1c 7f 3e 39 4f 57 be e4 e1 20 be 18 e6 bf bd
       0.24913158 -0.21026315 -0.1571117 -0.09370059
000140 7f 1e c4 3d 10 ea d2 bd 49 b2 a4 be c5 75 48 bd
       0.09576129 -0.1029855 -0.3216727 -0.04894044
000150 5c 2b 8d bd c8 ac 01 3d 87 d7 cd 3d 7c d8 fe bb
       -0.06893036 0.031658918 0.10050874 -0.007777272
000160 9d 17 b5 be 25 29 5f bc 2c 2d 99 3e 09 9d 41 be
       -0.35369578 -0.013620649 0.29917276 -0.1890756
000170 e1 2d 4b bc b2 7e a4 3e e9 29 e9 be 04 f3 08 be
       -0.012401075 0.3212791 -0.45539787 -0.13373953
000180 9b 53 be 3e 95 52 a6 be fb 6d 46 3e d4 a9 f8 be
       0.3717316 -0.3248488 0.19377892 -0.4856707
000190 da b7 4a 3e 8d 02 cf bc 71 e8 ab bd 5e 41 a8 bd
       0.19796696 -0.025269771 -0.08393944 -0.08215593
0001a0 37 73 a7 3d 2f 73 8c be 70 a4 da 3e 6c 9f aa 3c
       0.08176272 -0.27431628 0.4270358 0.020827971
0001b0 78 53 db bd ab ce 3c 3d 50 4a 0c 3d 22 0d 88 be
       -0.1070928 0.04609553 0.034250557 -0.2657252
0001c0 9f e4 41 3e 1f b8 88 3d 7a 0a 8d bd cf 65 e3 be
       0.18934868 0.06675743 -0.06886764 -0.4441361
0001d0 bd 61 2d bd b3 c6 be 3d a6 76 8e 3e a9 7d 69 3c
       -0.04232954 0.093152426 0.27824897 0.014251151
0001e0 9d f4 82 3c 98 65 b5 bd 27 f0 ad 3d f3 60 84 3e
       0.015985781 -0.08857268 0.08493071 0.25855216
0001f0 95 c1 c3 3d b7 05 c8 3d 2f 09 b4 be db 73 fc bc
       0.09558407 0.09766715 -0.35163257 -0.030816963
000200 25 32 32 3e 7b 22 26 3c d2 41 b1 be cb 7c c7 bd
       0.17401941 0.010140057 -0.3462053 -0.09740599
000210 f5 27 10 be 82 82 e9 3c bb 45 6f be 22 26 9e bd
       -0.14077742 0.028504614 -0.23366444 -0.07722117
000220 1c 3c c9 bd 2f 9d 01 bd 2a bb 3a be 87 79 81 be
       -0.09825918 -0.031644043 -0.1823546 -0.2528803
000230 b9 62 92 bd a6 cb 70 be 36 19 dc 3d 77 fd 6e be
       -0.07147736 -0.23515186 0.10746996 -0.23338877
000240 25 fa a5 3e bf 3e df bd 76 46 17 be bc f2 86 be
       0.32417408 -0.1090064 -0.14772972 -0.26357067
000250 53 79 88 be 87 06 8f 3e 22 e0 98 bc de 44 b7 be
       -0.26655063 0.27934667 -0.018661562 -0.3579473
000260 13 3a a4 bd ec 98 1b bf 44 0c cf bd 15 4d 9c 3e
       -0.08018889 -0.60780215 -0.10109761 0.3052756
000270 6a 33 b8 bd 57 17 04 be 15 c1 f4 3d 12 e8 0d bd
       -0.089941815 -0.12899528 0.1195089 -0.034645148
000280 15 5e d5 be 7f ae 71 be e7 ad 9f 3e be 2a 58 bc
       -0.4167334 -0.23601721 0.31187364 -0.013193784
000290 2f 0f 17 be 65 ba 0b 3e f0 53 1b be b1 a5 01 3e
       -0.14751886 0.13645323 -0.15168738 0.12660863
0002a0 5b db 99 bd 2d 18 c8 bd fd 68 16 be c8 02 12 be
       -0.07512542 -0.09770236 -0.14688487 -0.14258873
0002b0 01 4e a8 3d f0 8c 02 bf 39 1e 5f 3e 29 83 4b be
       0.08218003 -0.50996304 0.21788873 -0.19874252
0002c0 e9 56 74 bc 3a 5b 55 3b 9a 60 ac 3d b3 8c 00 be
       -0.014913299 0.0032555596 0.08416863 -0.12553672
0002d0 6c cf e4 3d 5e cf 36 3e 9b 64 0a 3e 85 8f 30 3e
       0.11172375 0.17852542 0.1351494 0.17242248
0002e0 e2 40 a2 bd 4c 2d 2d 3b b0 f7 fe 3d 5f 66 7e be
       -0.07922532 0.0026424704 0.124495864 -0.24843739
0002f0 8a b1 50 3e fe 0a b4 3d 1d 2a d4 bd 82 d3 00 3e
       0.20380226 0.08791159 -0.10359595 0.12580684
000300 ba 19 51 bf f7 c1 cd 3d 62 e9 b9 3e 39 8e fb bd
       -0.8167988 0.100467615 0.3631087 -0.12282986
000310 60 f9 33 be 1e dc 0e be 92 de a8 bd 36 da 96 bb
       -0.17575598 -0.13951156 -0.08245577 -0.0046036495
000320 e1 32 e4 3c e6 1c 1b 3d 5a 15 1f 3d d3 95 6c bd
       0.027856292 0.037869357 0.03883872 -0.05776007
000330 66 ae b9 3e df 80 f4 bd cc e4 06 3e 0e cd 65 3e
       0.36265868 -0.11938643 0.13173217 0.22441503
000340 81 ad 51 3d 57 47 93 3d 78 2a 28 3e 81 47 24 3c
       0.051190857 0.07191341 0.1642245 0.0100268135
000350 0f 71 3b 3e ed 64 50 be f7 3f ed 3b 63 cc c5 3d
       0.18304847 -0.20351 0.007240291 0.09658124
000360 0f eb 54 bd c4 0f 97 3d 64 88 b7 3e 39 8f 8c bd
       -0.05198198 0.07376054 0.35846245 -0.06863255
000370 8c 81 89 3d 86 d3 94 3e 3b f2 6a 3d ca c6 17 bd
       0.06714162 0.2906763 0.057359915 -0.037054814
000380 f7 9a 86 3d 7c 94 7f 3e 35 91 7b be e5 71 a3 3d
       0.06572526 0.24958986 -0.24567111 0.07980708
000390 f3 2a f1 3d ca 70 91 3e a9 fd 19 bd 56 17 91 be
       0.1177577 0.28406364 -0.037595425 -0.28338116
0003a0 79 45 57 3e 3f 5a 9d 3c 59 eb f6 bc 27 3e 72 3c
       0.21022595 0.019208072 -0.03014152 0.014785326
0003b0 a2 b7 76 bd 88 93 42 be 96 a2 97 be 07 01 8a 3e
       -0.06023372 -0.19001591 -0.2961623 0.2695391
0003c0 95 45 8b 3d 12 9f 03 bd 0c 44 3a be 63 cf 97 bd
       0.06800381 -0.032134123 -0.1819002 -0.07412603
0003d0 29 4d 94 be cf 6d 82 3d 09 d6 8b 3c ad 59 b0 3d
       -0.2896512 0.063686006 0.017069833 0.08610854
0003e0 04 b7 09 be c2 bf ab be 4a f2 fa be 2c 3b 6a bc
       -0.13448721 -0.33544737 -0.49012977 -0.014296334
0003f0 d7 83 21 be 26 c1 04 3e 16 30 b8 3c cd 68 f9 bd
       -0.15772949 0.12964305 0.022483867 -0.12178192

_impl.layers.4.linear.weight_g f4 [32, 1]
000000 e4 07 b5 3f fb cb f1 3f 1c af d3 3f eb 23 d8 3f
       1.4143033 1.8890375 1.6537814 1.6885961
000010 d4 80 a5 3f 37 87 cc 3f 0a 5b d5 3f 87 29 c0 3f
       1.292994 1.5978764 1.6668408 1.5012673
000020 1a 4b ab 3f fe dd 85 3f 55 63 c3 3f 48 bf 58 40
       1.3382294 1.0458372 1.5264689 3.386675
000030 31 67 97 3f 9c 8b a5 3f 59 2d e9 3f c2 f1 0c 40
       1.1828367 1.293323 1.8216964 2.2022557
000040 86 86 04 40 e9 65 8d 3f 61 8c 09 40 1d 75 af 3f
       2.0707107 1.1046726 2.149193 1.3707615
000050 06 d4 a8 3f 6d 84 f1 3f 53 44 04 40 f2 7b 7c 3f
       1.3189704 1.8868538 2.0666702 0.98626626
000060 61 39 96 40 5a 69 93 3f 6f d0 07 40 9c bd 8c 3f
       4.6945043 1.1516526 2.1220968 1.0995364
000070 23 d4 91 3f 4e 08 1e 40 14 f2 dc 3f 12 0d 25 40
       1.1392864 2.4692569 1.7261376 2.5789227

_impl.layers.4.linear.bias f4 [32]
000000 d7 5a a2 bd 79 e3 16 3e 62 8c a1 bd 3a 05 66 3e
       -0.079274826 0.14735211 -0.07888104 0.22462931
000010 b2 f0 f0 3e 51 c9 18 3d d0 e6 9d bd 3b a9 7a bd
       0.47058636 0.037301365 -0.077100396 -0.061196547
000020 f2 80 27 be 1e a1 ae 3d ad af 56 bd 0a ed 04 3d
       -0.16357782 0.085268244 -0.05241363 0.03245262
000030 b0 54 f5 3d 7f ff 08 3d 28 1e 8d 3a 38 43 10 3d
       0.119790435 0.033446785 0.0010766434 0.035220355
000040 c5 c9 34 bc 88 7c 2e 3d 10 4a ee 3d 8f e8 d8 3d
       -0.011034434 0.04259923 0.1163522 0.10591232
000050 fc 42 20 bc 8f df 1c 3e 36 37 4b 3d ff 91 0a be
       -0.009781595 0.15319656 0.0496132 -0.13532256
000060 f9 20 6d be 12 67 67 bd b0 c0 94 3e 2c be e9 be
       -0.2315711 -0.05649478 0.2905326 -0.45652902
000070 9d 71 64 bd 77 b5 25 3c 45 ec fb 3d ea a3 1f bd
       -0.055772413 0.010114065 0.12300924 -0.03897468

_impl.layers.5.linear.weight f4 [32, 32]
000000 52 7f 84 3c 94 e6 43 3e 0d 32 83 3e e4 b6 b9 3e
       0.016173992 0.19130927 0.25624123 0.36272347
000010 ac 31 0a be 84 10 3c 3e 10 07 96 be 1a 5d 80 bd
       -0.13495511 0.18365675 -0.29302263 -0.06267758
000020 5a 0a b8 bd d7 68 52 be 4f 63 47 3e 86 51 24 be
       -0.089863494 -0.20547806 0.19471477 -0.16046724
000030 0e b7 9d be 55 f7 0e be 3b 10 7d be c4 05 cd 3e
       -0.30803722 -0.13961537 -0.24713223 0.4004346
000040 3f 60 f5 bd ad 6a 74 3d 22 63 f8 3d fe 4f ca be
       -0.11981248 0.059672046 0.12128283 -0.39514154
000050 7b 09 8e be 24 69 25 be 2b 52 07 be 3e ef 5d 3d
       -0.27741608 -0.16153389 -0.13214938 0.054183237
000060 92 ca 5b be bf 5f 6c be 6c e1 bb 3e f3 41 61 3e
       -0.21463993 -0.23083399 0.3669542 0.21997814
000070 08 a0 a8 3d cd 01 a2 3e e6 db 4b be 02 13 cc be
       0.082336485 0.31642 -0.19908103 -0.39858252
000080 f3 37 12 be bd 99 92 bd 16 0b 64 3e ed fa 30 be
       -0.14279155 -0.071582295 0.22269854 -0.1728322
000090 0f bc e1 bc a0 96 f5 3e a1 c0 e0 be 14 d7 0d bf
       -0.027555494 0.4796648 -0.43896964 -0.5540631
0000a0 6a df 8f 3d f1 3e 7f be 36 9f 8c be d0 8e bf bd
       0.07025035 -0.24926354 -0.27465218 -0.09353411
0000b0 84 f8 15 3d 96 29 1f 3f f9 42 6e be 46 d2 04 3f
       0.036613956 0.6217283 -0.23267736 0.5188335
0000c0 9a d7 80 3d 1c c5 1a bc c4 64 37 3e 2b 7c a4 3e
       0.06291123 -0.009446409 0.17909533 0.32125983
0000d0 2a f6 db be f0 4f 40 3e 1f d3 f3 bd cf 43 18 bd
       -0.42961246 0.18780494 -0.119055025 -0.037174042
0000e0 34 06 10 3e 06 91 28 3e f7 14 83 3d df 75 2c 3e
       0.14064866 0.16461572 0.06400483 0.16841839
0000f0 f9 dc 2b 3e 82 f2 28 3d b8 0c f6 bd 7a 7f cc be
       0.16783513 0.0412469 -0.12014145 -0.39941007
000100 20 5f 41 3e b9 bd d5 3e 7a 3f 59 be 2f c3 c0 3e
       0.18883944 0.4174631 -0.2121562 0.37648913
000110 8c 08 8b 3d d7 b5 26 3c 4f 47 7b 3e 74 92 8a 3e
       0.067887396 0.01017519 0.24538921 0.2706486
000120 e4 b6 8d be 3f 60 a3 3e 89 92 cf be 22 38 8a 39
       -0.27678597 0.31909367 -0.40541485 0.00026363233
000130 06 82 a2 3e 2f 12 65 3e f8 f5 a9 3d f0 6e f8 be
       0.31739825 0.22370218 0.08298868 -0.4852214
000140 99 22 29 be 7f 11 68 bd bf 87 61 3e 18 7e 5b 3e
       -0.16517104 -0.05665731 0.2202444 0.2143482
000150 8d a1 45 3e 50 d3 90 bb 4d f0 91 3d 2d 20 9f 3d
       0.19299908 -0.0044197217 0.07125912 0.07769809
000160 5e 33 ea bd 50 d2 8d be 5a d9 1f 3d 0b 01 59 bd
       -0.11435579 -0.27699518 0.039025642 -0.05297951
000170 6a 16 3a 3e 70 be 66 be 1e 0e e5 3d 01 32 92 3e
       0.18172613 -0.22533584 0.11184333 0.28553775
000180 fa 4a 1d 3e 78 2a 45 be ca 28 50 3e 74 69 0e be
       0.15360633 -0.19254482 0.2032806 -0.13907415
000190 30 7b 29 3e b1 7d 08 3e bb 58 32 be 9c 97 f2 bc
       0.16550899 0.13329197 -0.1741666 -0.029613309
0001a0 33 92 f7 3d d3 3f 53 be e9 54 ea 3d e0 da 8e 3e
       0.12088432 -0.20629816 0.114419766 0.27901363
0001b0 74 49 2e be 6b e5 c6 bd 7b bf 73 be f0 6d 91 be
       -0.17020208 -0.09711727 -0.23803513 -0.28404188
0001c0 8b 25 af 3e 7a 06 72 be 6f 8b 17 be 4a e3 33 3e
       0.3420833 -0.23635283 -0.14799283 0.17567173
0001d0 5c 21 57 3e 0b 73 73 3e 7f f1 f3 bc cc 1d 83 3e
       0.2100882 0.23774354 -0.02977824 0.2560867
0001e0 59 c4 a9 3e 3e 8b 15 3e b4 10 28 3d cf 6d 60 3e
       0.33157614 0.14603898 0.041031554 0.21916889
0001f0 f0 c1 fd bd f4 f0 3d bd 46 c0 5d be dc f8 28 3d
       -0.12390506 -0.04637237 -0.21655378 0.041252956
000200 93 75 f5 3d c6 33 4a 3d 43 ba 1b 3e 02 a7 dc bd
       0.11985316 0.04936578 0.15207772 -0.10774042
000210 73 56 14 bc 2a ad cf bc c8 5d 87 bd e7 73 30 be
       -0.009053814 -0.025351126 -0.06609684 -0.17231713
000220 f6 59 54 bf 88 0b 67 3d d5 44 1c be ff 99 af bc
       -0.8294977 0.05640748 -0.15260632 -0.021435736
000230 d9 79 b1 3e ce cf ef bd 44 1c a6 bd 57 cd 62 be
       0.34663275 -0.117095575 -0.0811086 -0.22148643
000240 d9 84 2f bd 92 46 80 3e ae 9a 9f 3d f7 c6 4d 3e
       -0.042851303 0.2505384 0.07793175 0.2009543
000250 23 c7 72 3d c9 89 b2 be 64 74 32 3e 12 8b 7d be
       0.059271943 -0.34870747 0.17427212 -0.24760082
000260 c1 9a e6 3d f1 93 8a bd b2 b3 e0 3e 96 9d 29 be
       0.11259986 -0.06766499 0.43887097 -0.1656402
000270 d1 6d 0a 3d b4 52 86 be d9 bd 59 3e 4a 2e 48 3e
       0.033796135 -0.26234972 0.21263827 0.19548908
000280 7b db 29 3e e6 24 4c be 1a 2a e7 bd 96 73 ce bc
       0.16587631 -0.1993595 -0.11287327 -0.0252016
000290 f7 f1 13 bd 1c 0e c9 3e 99 e6 0e 3e fa 3e 6a 3c
       -0.036119428 0.39268577 0.13955154 0.014297241
0002a0 34 24 c0 bd 99 a4 97 bd 23 a3 c6 be 62 49 e2 bd
       -0.09381905 -0.074044414 -0.38796338 -0.11049153
0002b0 de 60 c6 3d b5 2a 7e be 7c 52 34 3e 0c 34 60 be
       0.09686445 -0.24820979 0.1760959 -0.21894854
0002c0 0b 2a 8a 3d 77 50 0c 3f d4 a4 12 3e 24 45 7d be
       0.067463 0.5481028 0.1432069 -0.24733406
0002d0 b9 13 06 3f 48 a4 01 be c2 44 24 3e 9c 59 ce bd
       0.52373844 -0.12660325 0.16041854 -0.100756854
0002e0 a7 32 95 3c 1e f3 31 be e6 3f 84 bd 4a 52 82 3e
       0.01821263 -0.17377898 -0.064575 0.25453407
0002f0 54 bd 8e 3d 4f ef 95 be d5 4f 8c bc 1e 17 a0 bc
       0.06969705 -0.2928414 -0.01712791 -0.019542273
000300 c6 4d aa bd f0 fb 19 3b e9 d8 73 3d d9 ed 6b 3d
       -0.08315615 0.0023496114 0.059533034 0.057599876
000310 b6 7c 50 3e ae 09 e3 bc a9 ac a7 3c aa 5a f4 be
       0.20360073 -0.027714577 0.020468073 -0.4772542
000320 ea f9 9b 3d d1 3b c2 3d 72 db 16 bf aa 2e 04 3e
       0.07616027 0.09484065 -0.58928597 0.12908426
000330 aa 8c 88 3d e4 83 28 be c2 db 96 be db 60 a2 3d
       0.066674545 -0.16456562 -0.29464537 0.0792863
000340 89 37 a1 be 2f 02 28 3e 38 66 0f bd 04 bb 6a be
       -0.31487682 0.16407083 -0.035009593 -0.22922903
000350 f2 4e 35 bf c1 a2 91 bd 10 fe 6f 3c d5 08 20 3d
       -0.70823586 -0.07111121 0.014647976 0.039070923
000360 8e c4 42 bd 6b 9b e3 bc 3a 2f 0d 3d 99 29 ae bd
       -0.04755073 -0.02778407 0.034468867 -0.08504028
000370 a4 b9 f5 3d 76 6a ed be c9 18 15 3e e0 5a e4 3d
       0.11998299 -0.46370286 0.14560236 0.111501455
000380 03 3b f4 3d 59 72 b4 3d dd e1 7a be f1 10 a9 be
       0.11925318 0.088108726 -0.24500223 -0.33020738
000390 40 42 7f 3e 30 15 70 3e 00 93 a2 3d b7 8c 41 be
       0.24927616 0.23445582 0.07938194 -0.18901335
0003a0 0d 20 8a 3d 94 be c2 3d 22 a6 50 be 91 36 82 be
       0.067443945 0.09509006 -0.20375875 -0.25432256
0003b0 eb 02 70 bd 68 d9 91 3e 67 40 48 be 4e 95 0b be
       -0.058596533 0.2848618 -0.19555818 -0.13631174
0003c0 29 90 36 bd 7f fe d2 bd 19 39 46 bd 5a d6 6c 3e
       -0.044571076 -0.103024475 -0.048394296 0.23128644
0003d0 e7 7f 6c be 21 1d a4 be fd 45 9b 3e 84 d5 1b 3e
       -0.23095666 -0.32053474 0.30326834 0.15218168
0003e0 6d 80 1b 3e d5 64 38 be b5 e4 89 3e c7 56 40 3e
       0.1518571 -0.18007214 0.26932302 0.18783103
0003f0 4a a5 c8 3d c9 1c 82 bd 5a b8 86 3d 0c 2d 72 3e
       0.097971514 -0.063531466 0.06578131 0.23649997

_impl.layers.5.linear.weight_g f4 [32, 1]
000000 1e cc 62 3f 6d 04 3f 3f ef f4 5d 3f ea 19 88 3f
       0.8859271 0.7461613 0.86701864 1.0632908
000010 9e c2 16 40 8f b5 87 3f 0d 94 68 3f fa 01 7d 3f
       2.3556285 1.0602282 0.9085091 0.9883114
000020 e1 8b a1 3f 6e 44 7a 3f 0f 01 36 40 46 e2 8a 3f
       1.2620813 0.97760665 2.8438146 1.0850303
000030 6e c5 6f 3f 69 7d b6 3f ee b6 ae 3f f0 9c a0 3f
       0.9366063 1.4257022 1.3649576 1.2547894
000040 ac 80 80 3f 28 a5 a1 3f a9 50 92 3f 72 24 97 3f
       1.0039268 1.2628527 1.1430866 1.1807997
000050 f1 da 79 3f 5d b5 86 40 4b 60 7f 3f 93 d1 71 3f
       0.97599703 4.209639 0.99756306 0.9446041
000060 1d 62 48 3f 55 fe 79 3f d1 05 2c 40 0e be 6c 3f
       0.7827471 0.97653705 2.687855 0.924775
000070 60 ec 86 3f 8e 9f e6 3f 92 8c 98 3f 24 ed 83 3f
       1.0540886 1.8017442 1.1917899 1.0306745

_impl.layers.5.linear.bias f4 [32]
000000 30 66 65 3d 90 32 0f bd 61 18 89 3d 11 7e 85 bd
       0.056005657 -0.03496033 0.06694103 -0.06518186
000010 8a df 54 be 92 b5 97 bd 2c f4 f3 3c d0 f8 83 3c
       -0.20788398 -0.07407679 0.029779516 0.016109854
000020 ca ba 9c 3c bc 35 03 3e 75 7f f2 bc 2f b3 54 3d
       0.019132037 0.12813467 -0.029601792 0.051928695
000030 2f e3 28 bd 5c 45 d3 3d 6d 16 f4 3c 5a e9 a7 3c
       -0.041232284 0.103159636 0.02979585 0.020497013
000040 96 27 76 3d e4 d9 50 3d fc d7 09 3e 88 fe 12 be
       0.060096346 0.050989047 0.13461298 -0.14354908
000050 a8 69 66 bb c6 42 31 ba f6 a1 f7 bc a3 ee d1 3d
       -0.003515819 -0.0006761964 -0.030228596 0.102505945
000060 eb b8 b6 bc 0e de 34 3c 3b 1b 65 3e 48 a3 19 3d
       -0.022304973 0.01103927 0.22373669 0.037509233
000070 fe a6 60 3d b0 a5 09 3e 02 5e de 3c bf 7a 9a 3c
       0.054846756 0.13442111 0.027144436 0.018857358

_impl.final_layer.linear.weight f4 [2, 32]
000000 5f 08 63 be e3 4a 82 3d ec d5 2a 3e 18 07 01 bf
       -0.22171162 0.0636194 0.16683167 -0.5040145
000010 46 63 21 bf 25 be 3a bd 7b fb 8a 3e 12 32 11 3e
       -0.63042104 -0.045591492 0.2714499 0.14179257
000020 2f 02 e0 3e 19 aa a0 3e e7 6b 03 bf da 54 e0 3e
       0.43751666 0.31379774 -0.5133652 0.43814737
000030 34 28 3b be b4 32 02 3f f7 db 06 3f 11 38 15 3e
       -0.18277055 0.50858617 0.5267939 0.14572169
000040 17 d3 79 be 79 79 db 3e f7 98 03 3f 2e 4b 1f 3e
       -0.2439693 0.42866114 0.5140528 0.15556023
000050 61 3f 4a 3d 24 0b a6 3e 76 f5 9d bc e7 52 9a 3c
       0.04937685 0.32430375 -0.019282084 0.018838359
000060 20 6a 9b 3e 69 75 b6 3e 6d f0 20 bf f0 2b 35 3e
       0.30354404 0.35636452 -0.6286686 0.17692542
000070 e0 82 22 bd c7 96 11 3f 4d 15 ee 3e a2 0d d5 be
       -0.039675593 0.5687069 0.46500626 -0.41611964
000080 ab 9e 38 3d 71 c1 8c be ce 29 46 3e d1 f7 bc bb
       0.045073193 -0.27491334 0.19351885 -0.0057668467
000090 e0 05 0a bd 3d ef 21 be 4f d8 e2 3d c2 94 43 3d
       -0.03369701 -0.15813918 0.11076414 0.04774929
0000a0 7b 0d 43 bc 04 68 91 bc de b6 b6 bc 68 56 8e 3d
       -0.011905069 -0.017749794 -0.022303995 0.069500744
0000b0 9f db 22 be 4f 53 13 bc b4 c0 3f 3d f6 71 d5 3b
       -0.15904091 -0.00899203 0.046814635 0.0065138293
0000c0 f2 80 cf 3d 7e c2 0e 3e b5 bc bb bb c7 4e e4 bd
       0.10132016 0.1394138 -0.0057292827 -0.11147838
0000d0 6b 2e f0 3d 2e 43 4e 3c 43 9f 52 bd f1 98 3e 3e
       0.117276035 0.012589259 -0.051421415 0.1861303
0000e0 fb bb e5 bd f1 f3 33 bd 6b 10 ae bc 01 2b 50 be
       -0.11217495 -0.043933813 -0.021248063 -0.20328905
0000f0 a7 d0 50 3e 88 7a bc 3c fc 00 32 3d ab 54 6e bc
       0.20392095 0.023007646 0.04345797 -0.014546554

_impl.final_layer.linear.bias f4 [2]
000000 03 10 04 3d bd a1 1a 3d
       0.032241832 0.037751902
