super_resolution.onnx (onnx, 24395 bytes, 14 tensors)

layers.0.bias f4 [32]
00000000: 0ae5 1dbe 9768 2abe c2a8 9e3e 8b2c 603c
00000010: 6642 453e 1ca3 c63e b8ec efbd b274 213e
00000020: 5636 923f 2a65 8a3d cc79 173e 1503 a0be
00000030: dbdc 063f 70a2 55bd d60e d83e 3031 c23e
00000040: b462 383d 38c0 9f3b 2aa9 233f 2566 603f
00000050: 0c52 a83e caac 8d3e efc8 ae3e 4e26 8f3d
00000060: b6fc 563e ee27 84be 4f3f a6be d22e a0be
00000070: c280 56be 536b b9be 957f a6be 5d81 e43e
-0.15419403 -0.1664146 0.30988127 0.013682495 0.1926361 0.38796318 -0.117150724 0.15767172
1.1422832 0.06757577 0.14792556 -0.3125235 0.5268075 -0.052156866 0.4219882 0.37928152
0.045016006 0.004875209 0.6393 0.8765586 0.32875097 0.2767089 0.34137675 0.06989728
0.20994839 -0.25811714 -0.32470176 -0.3128572 -0.20947555 -0.36214694 -0.32519212 0.44629946

layers.0.weight f4 [32, 4]
00000000: f966 0f3f d7cc 99bd 80b2 f03e a831 1a3f
00000010: 21fb 5d3d 3bc2 1e3f 9df8 26bf 0960 14bf
00000020: b94a 1a3d 1753 9c3d b223 7cbf a43b 8cbf
00000030: 0d81 cd3e 0115 183f 1980 043e 2272 1dbf
00000040: 61c3 6e3e 3194 28bf d9a8 babe a354 143f
00000050: 5f6c f53c 8b04 08bf 39b7 8a3d ddc9 07c0
00000060: f39a e83e a5c4 013f df87 733e 7237 293f
00000070: 9d01 f63c 40a0 993f 1170 bcbe e304 3740
00000080: e7aa 1dbf a7e3 3b3f fcf1 423f 0c28 d63f
00000090: 1af2 cf3e 6fb6 00bf 8ce6 0cbf 974f 6a3e
000000a0: 2664 9fbd 4f5a 1b3f 763c 02bf 1647 0cbf
000000b0: 4ec3 f63e 3051 023f 23ba fdbe 3a72 cabe
000000c0: e601 b2bd 6552 df3d 9c8a 70bf ec78 673f
000000d0: 9bdc 003f 0271 c53e 525d 27bf 276c 2b3e
000000e0: e6b2 2ec0 1050 95be 286c 083d ec2e e1be
000000f0: b3da e03e f9ed 52bc e229 40bf f08c d9be
00000100: e0df 583e 2fc5 81be b017 203f 2303 393f
00000110: 8968 623e 0488 2abf 61c2 14bd c16f 323f
00000120: 0088 77bf 7370 a73f 98f5 e53f d41e b3bf
00000130: 917e 69bf 5fad 823d de11 16c0 ea2b 823f
00000140: dff9 0c3d 4bfc 063f a8cd 8dbe 5893 fdbf
00000150: 8a26 0e3d de3e 853f f101 f43f 6315 1ac0
00000160: c72f de3c 359c ef3e e147 85be 9165 d8bf
00000170: 1926 833e 45ea 0abf 4cf8 1bbf 9466 02bf
00000180: c9be 9cbd 932a 653c 4efe b6bf 94a3 933f
00000190: f4ed 3d3e 7a2d b23e a559 29bf 7b69 1bbf
000001a0: 6279 7d3d f940 1bbf 23a9 4bbf 498c 16bf
000001b0: cebc 6c3e a05c 303f 8689 f7be b632 e33e
000001c0: cf5c fb3d 918a c93e 4136 b0be 2c40 533f
000001d0: 80d9 393d 2ccb fc3e 203f 703f 404d 47bf
000001e0: e979 af3d 65e7 41bf 3730 b63d b371 18bf
000001f0: e4ab 62bd 880d 803f 9e0c aa3d 3493 5dbf
0.560165 -0.07509773 0.47011185 0.6023202 0.054194573 0.6201512 -0.65223104 -0.5795904
0.037668917 0.07633036 -0.98491967 -1.0955701 0.4013752 0.5940705 0.1293949 -0.6150228
0.23316719 -0.6585112 -0.36456946 0.57941645 0.029958902 -0.5313193 0.06773228 -2.1216958
0.45430717 0.5069068 0.237823 0.6610023 0.030030066 1.200203 -0.3680425 2.8596733
-0.615889 0.73394245 0.7615049 1.6730971 0.40614396 -0.5027837 -0.55039287 0.22881924
-0.07782774 0.60684675 -0.50873506 -0.5479597 0.4819588 0.5090513 -0.49556074 -0.39540273
-0.08691768 0.109043874 -0.939615 0.9041889 0.5033662 0.3856278 -0.6537677 0.16740476
-2.729669 -0.29162645 0.03330627 -0.4398111 0.43916854 -0.01287412 -0.7506391 -0.4249034
0.21179152 -0.25345752 0.62536144 0.7227041 0.2211019 -0.66613793 -0.036318187 0.6970177
-0.96691895 1.3081192 1.7965574 -1.3993783 -0.9120875 0.06380724 -2.3448405 1.0169652
0.034417983 0.5272872 -0.27695966 -1.9810591 0.034704722 1.040981 1.9063092 -2.4075553
0.027122391 0.46798864 -0.26031402 -1.6905996 0.25615004 -0.54263717 -0.60925746 -0.5093777
-0.07653577 0.013987201 -1.4296358 1.1534295 0.18547803 0.3480032 -0.6615241 -0.60707825
0.061883338 -0.60646015 -0.7955496 -0.5880781 0.23118898 0.68891335 -0.4834711 0.44374627
0.12273561 0.3936353 -0.34416392 0.82519794 0.04537344 0.49373758 0.9384632 -0.7785225
0.085681744 -0.75743705 0.08895915 -0.5954849 -0.05533971 1.000413 0.08303188 -0.8655274

layers.1.bias f4 [32]
00000000: 0c94 133e 2c0f c2be d5bf 8c3e aea0 ad3e
00000010: e5e0 1f3d ec55 f43e fd69 db3e 745b c83e
00000020: 332a 7fbd ff7e d13e fc21 113f 0a1c 3fbe
00000030: 9a07 c73e 17d4 9a3d c0c7 693f 23c7 a7bd
00000040: 91e9 44be 192b 863d f41e a6be bb45 a43c
00000050: 4679 f2bd 5ca5 a33e e092 a73e 76ab c13e
00000060: 0752 db3e 9365 9d3e c344 4cbd f11a 8cbe
00000070: 5dda dfbe 6256 493e 64fa 87bd 5e81 be3c
0.14411944 -0.379022 0.27490106 0.3391165 0.039032836 0.47721803 0.428543 0.39132273
-0.062296104 0.40917203 0.5669248 -0.1866304 0.38872987 0.07559984 0.9132042 -0.08192279
-0.19229724 0.06551189 -0.3244549 0.020052781 -0.11839537 0.31962097 0.32729244 0.37826127
0.4283602 0.30741557 -0.049870264 -0.27364305 -0.43721285 0.19661859 -0.06639555 0.023255046

layers.1.weight f4 [32, 32]
00000000: 450c 033f c7d3 03bd 6918 1dbd a869 48be
00000010: 33f8 0dbd 351b 933f bc72 b33d ac2f f1bf
00000020: 8414 91be 2b03 b33e 9de5 dcbe 6a84 8cbe
00000030: 333f 07be c750 f83d e645 493d 492e 1fbd
00000040: 80af a73d 6366 303d cea4 aabe 6a48 07be
00000050: f6bf 5d3f c88d f23f da78 153f 9ed3 7cbe
00000060: 02d7 c6be 349f 00bf bce1 56bf 38ef d8be
00000070: 4577 f5be c289 223f 0890 66be 660f 1fbf
00000080: 60f0 483e b45d 97bb 3d44 a5be e1cb 1cbe
00000090: 66c8 ddbd 4846 5cbe 6b20 4b3e 04a9 b93e
000000a0: 539f f93c c24b 2abd a4a3 1e3e 6966 25be
000000b0: 4b30 4d3e b47e 53be cb8b 21be 378a 323e
000000c0: be8b 0a3e fa04 893d ba95 8f3d 2013 823d
000000d0: c775 75be d1e8 55be 5d0c 76be cebc 393e
000000e0: 4d85 1d3e 8889 43be ed6c 343e c593 863d
000000f0: 5603 a93d e8db d9bd 7f8c 493e 1c34 813e
00000100: 156f d23d ecf7 25bf cbd5 ddbe 4fe0 4a3f
00000110: 5287 ecbe 7dc7 383d 072e a93b ae63 30bf
00000120: e993 3fbd bb95 acbe 394b 15bf 41e9 ae3e
00000130: 8df6 fabe 1022 5a3e ed0e e83d 2882 e5be
00000140: 9a25 003f 60fa f4bd ce20 0cbd 1cb4 d1bd
00000150: efc7 243f f333 ad3f 4a93 963e 8298 abbe
00000160: ed6c 2dbf c54d 00bf a0c6 68bf fe18 cbbe
00000170: 2985 91be fb08 103f 77d0 323e 183b 10be
00000180: 7da2 133e 018e 9bbe 4370 91be fc65 60bc
00000190: 4169 123e b070 44be f0bd 77bd ad2e d03e
000001a0: 8fc0 32be 59be 26be 0b70 46be 7c22 873d
000001b0: 38ec eb3d 9960 223e 10bf b33d fc46 62be
000001c0: d62e 26be 5ba5 523e 5b2a 7abd 13d4 0f3c
000001d0: 3a8c 76be 3037 5dbe e193 88be 8ee5 be3d
000001e0: 92e2 a2be 26e6 903d fe9b 71be 0ddb 9c3d
000001f0: 8e4c 89bd 2305 41bd b067 2dbd 7e6a 8abe
00000200: 4775 c0be f6cb 123f 088b 803e 71aa 133e
00000210: 78db cbbe 6da2 01bf d663 07bc 1a68 9e3f
00000220: acc4 1bbe 0b02 603e 23db 683e b40d fa3e
00000230: 3c7c 8abe d4e0 3b3d 660e e5bc 2d6a b43d
00000240: 9c6c 21bf c8e0 a9be e7ee c4bd 2ad2 16be
00000250: 1a84 30be 8d2a e6be 0b2f f13d bbbd a0be
00000260: 5386 e7bd 9839 483e c094 b3bd c1a1 923e
00000270: 1cb7 f83e efd3 18be 8d6d 9bbe e23f c23e
00000280: 0d0d 86be 3b20 443f 985b ad3f 950c c13c
00000290: 8f98 dc3e 1729 c13e 675a 2fbf 8a5d fa3e
000002a0: b1be 9bbd 8773 e43c a071 47bf 329d 19be
000002b0: 2458 52bf d759 bebd 1dc5 353d f058 813f
000002c0: 3637 6bbf 6cb7 d23c db48 913d b701 21be
000002d0: 4315 803f c50c 7fbf f2bb a53f 6575 eb3e
000002e0: 4a01 7abf 6389 943e 5a09 363f 4d6f 0b3e
000002f0: 77b9 0cbf a39d 06c0 95bb 35be a198 ad3e
00000300: a22a 63bd 8f7a 253e 6a4f b7bd 7fbd e73c
00000310: 7fed fc3d afc7 6a3e 9997 13be 0acb a53e
00000320: f832 f8bd 147b 463d 0837 8fbe 2731 bc3d
00000330: 8324 9fbe 1db2 22bc 7ca7 1b3e 3d0a 3ebd
00000340: abbd 70be 4750 363e 7db3 313e 1aee 09be
00000350: 8a12 20be dd02 22be 6e96 dd3d dd6e 93bc
00000360: fd19 52be c23a ee3c d4b2 163c 73c6 3dbc
00000370: 02d3 4abe 46e8 f5be e577 efbd 227d 14be
00000380: fe3c 8ebe 45a5 8dbe 5c0b 2e3f e8b4 8b3e
00000390: dcb1 9ebe 6d79 8c3d 3441 17bf 7a24 683e
000003a0: ab1e d7bd e710 043e 9fab 8bbe 1103 1f3d
000003b0: ea63 21bf 1115 acbd d957 84be 4cd0 173f
000003c0: 2625 6ebe 98c8 c9be e21b a5bd 6aa9 da3d
000003d0: d9e7 143f cc07 8fbd db39 353f 7345 2c3f
000003e0: 4355 46bf 62e6 96bd c89a 2ebd 5551 6e3e
000003f0: da7b bdbe 94c9 46bf 90ea d4be cf14 433f
0.51190597 -0.03218439 -0.038353357 -0.19571555 -0.03466053 1.1492678 0.08762118 -1.8842673
-0.28335965 0.34963354 -0.4314393 -0.27444774 -0.13207702 0.12124782 0.049138926 -0.0388625
0.08187771 0.043066394 -0.3332886 -0.13211218 0.86621034 1.8949518 0.5838753 -0.246901
-0.38835913 -0.50242925 -0.83938193 -0.4237001 -0.47942558 0.6349145 -0.22515881 -0.6213287
0.19622946 -0.0046193246 -0.32278624 -0.15312149 -0.108292386 -0.21511185 0.19836585 0.3626176
0.03047148 -0.041576155 0.15492111 -0.16152348 0.20037954 -0.20653802 -0.15775983 0.17435537
0.1352987 0.06690402 0.0701098 0.06351304 -0.2397071 -0.20889594 -0.24028154 0.1813843
0.15382881 -0.19095433 0.17619677 0.065711536 0.082525894 -0.10637647 0.19682501 0.2523507
0.102750935 -0.64831424 -0.43327174 0.7924852 -0.4619699 0.04511212 0.0051629576 -0.689021
-0.046771917 -0.33707985 -0.58317906 0.34162334 -0.49016228 0.21302056 0.11330972 -0.44825864
0.50057375 -0.11961818 -0.034210972 -0.10239431 0.64367574 1.3531479 0.29409248 -0.33514792
-0.6774433 -0.50118667 -0.9092808 -0.39667505 -0.28421906 0.56263703 0.17462336 -0.14085042
0.14417453 -0.30381778 -0.2840596 -0.01369619 0.14297964 -0.19183612 -0.060483873 0.4066061
-0.17456268 -0.1628355 -0.19378679 0.06598374 0.115196645 0.15857162 0.08776677 -0.22097391
-0.16228804 0.2057089 -0.06107555 0.00877859 -0.2407693 -0.21603084 -0.26675323 0.09321128
-0.31813484 0.07075147 -0.23594663 0.07658968 -0.06704055 -0.04712404 -0.042335212 -0.27034372
-0.37589476 0.5734247 0.25106072 0.14420487 -0.3981588 -0.5063847 -0.008263549 1.2375519
-0.15211743 0.2187578 0.22739844 0.4883858 -0.27047908 0.04586871 -0.027960967 0.08809314
-0.6305635 -0.33179307 -0.096158795 -0.14728609 -0.17237893 -0.4495434 0.11776551 -0.31394753
-0.11304917 0.1955322 -0.08768606 0.28639033 0.485772 -0.14924596 -0.30357018 0.37939364
-0.26181832 0.7661168 1.3543577 0.02356557 0.43085143 0.37726662 -0.6849732 0.4889949
-0.07604731 0.027887119 -0.77907753 -0.15001372 -0.8216574 -0.09294479 0.044377435 1.0105267
-0.9188112 0.025722228 0.07093974 -0.1572331 1.0006489 -0.9962886 1.2947981 0.45988002
-0.97658217 0.29011068 0.7110802 0.13616677 -0.54970497 -2.1033714 -0.17747338 0.3390551
-0.05546058 0.16160034 -0.08950694 0.028288601 0.12349986 0.22927736 -0.14413299 0.3238147
-0.121190965 0.04845722 -0.27971673 0.091890626 -0.31082544 -0.009930161 0.15200609 -0.046396483
-0.23509853 0.17804061 0.17353626 -0.13469735 -0.15632072 -0.15821405 0.10819708 -0.0179972
-0.20517726 0.029080752 0.009197909 -0.0115829585 -0.19807056 -0.48028773 -0.1169279 -0.1450086
-0.27780908 -0.27665153 0.67986083 0.27286458 -0.3099507 0.06859098 -0.5908387 0.22670165
-0.10503896 0.12897073 -0.27279374 0.038821284 -0.6304308 -0.084024556 -0.25848272 0.5930221
-0.23256359 -0.39410853 -0.08061959 0.106768444 0.5816627 -0.06983909 0.70791405 0.6729347
-0.7747385 -0.07368161 -0.04262808 0.23273213 -0.37008554 -0.77651334 -0.41585207 0.76203626

layers.2.bias f4 [32]
00000000: afe7 0c3f 57bc 0c3f 0977 59be f00f 293f
00000010: d190 483e 995f a7be c18d 53be 42e3 833e
00000020: f7d0 763d fc86 bf3e 4cc7 733e 5c88 d93e
00000030: 5ce5 5cbe e1da eb3d fb73 313e baf7 c9be
00000040: e821 2f3f 024d e4bd 7774 19bf 782c 0b3d
00000050: e4f5 6a3e 8821 7dbe fd3f e43c 892e 423e
00000060: 6314 0ebc dd31 ccbd d7bf 733f d792 8b3e
00000070: a70d c9bc 8613 053f cf40 51be 0761 1f3b
0.5504102 0.54974884 -0.21236815 0.66039944 0.19586493 -0.32690123 -0.20659544 0.2575932
0.06025788 0.37407672 0.23806494 0.42486846 -0.21571869 0.11516357 0.173294 -0.39446813
0.6841111 -0.111475006 -0.59943336 0.033977956 0.22945362 -0.24719822 0.027862543 0.18963064
-0.008671853 -0.09970448 0.952146 0.27260467 -0.024542643 0.51982915 -0.20434879 0.0024319307

layers.2.weight f4 [32, 32]
00000000: e8d4 87bf a6c6 d4be 53fa 1e3d ad43 a2bd
00000010: c5f8 a03f 9855 1340 402a 01bf b5e8 cc3e
00000020: 534e a2be 32d9 8cbe f540 4cbf 6d14 1fbf
00000030: 8d03 e73e 3680 c93e 07b1 46be 42af 93be
00000040: 090e 5dbe f9d7 8ebe e59d 22bf 2c57 d03e
00000050: 29fa 6dbe 8bef b9be 01a5 1cbf 9af8 0dbf
00000060: 30e5 423f 2b5b 0bbf d98d 823e eb40 c4be
00000070: 2951 11bf 8977 4f3e 54fc 26bf 7eea 1ebf
00000080: 6d21 9fbe 6750 01bf 92c1 d33e 0972 dabd
00000090: 63f5 773f b33d 223f ec0e 81be b0f9 143f
000000a0: 4126 2ebe 1d71 a7be 3ce2 01bf 317c ccbe
000000b0: 0ef7 a23e 6327 553e 385f 403e 0286 3ebe
000000c0: 9936 38be 9323 67be 935b 3fbf ede2 8bbe
000000d0: 91f2 82be a37e a2be d706 0dbf c669 13bf
000000e0: 934d c3be b297 0fbf 00ee 633e 62dc 563e
000000f0: 896e 16bf dba9 31bf 9d90 33bf cd0c 98bd
00000100: 383c 5ebd 4ef5 8a3e 99e8 dd3e 4a48 37be
00000110: 6dfb b73e 64d9 443e ec31 8a3e 4161 fd3e
00000120: 7314 133e e1ce ad3e 5e55 923e aca6 22bd
00000130: 957e 8b3e a2ed 01bd b520 d43d 8629 69be
00000140: 4133 a9bc b015 0a3e 1cd2 a4bd 8da1 923d
00000150: 88ec 8fbd c649 b83e c51d 573e 8db4 9c3e
00000160: a19c abbd 6473 3c3e 72c6 1e3e 61a8 e33d
00000170: aab1 553d b994 ff3d 7fe0 683e e5ec d63e
00000180: 3e00 f0bf dc36 00b9 7759 16bf 0296 ca3e
00000190: 6e24 883f 6d59 8b3f 89db 8e3e e518 f93e
000001a0: 22e3 23be c7b2 443e f299 003f 7cb3 20be
000001b0: 50de 4b3f 787e f4be 938c cfbf 8266 80bf
000001c0: 291b 76bf a439 94be b9c1 f2be cf24 36be
000001d0: 741f 3ebf d305 82be 4fef 0b3e 7f3c 863d
000001e0: 19bd 1240 f5ec babd feb9 15bf 11e6 7fbf
000001f0: aa43 2fbf ae6a 1f3f 394f 083f 01c6 843e
00000200: dc73 01c0 da80 a13e d692 f6be cb8d ae3e
00000210: c6b2 c13e 8a9d d0be 8b7f cc3e 7aff 393f
00000220: e8c3 c7bd eb43 fd3e e7bc 02bd aaf9 b43e
00000230: 2826 0f3f b57e f5be 2426 8ebe 40f9 fdbe
00000240: d680 73be 6ffc d1bd af7e 143f 31bc 1ebe
00000250: b260 86be e041 c43e 834e ff3d 02e5 ed3e
00000260: 1b86 a73f 1d12 d93e fb10 f2be 35a9 a03e
00000270: b378 65be 7d77 1c3d c40b 1f3f 64fd 293e
00000280: 2ed2 23bd 5f94 99bd f526 21bd 02fe 313e
00000290: 2ea1 593d afe5 3dbc fe0c 6d3e 1ff7 9f3e
000002a0: ecc6 2c3e 8bcb 793e d84b bf3e fa9a 45be
000002b0: 163e 7ebe dc06 d13c ba2e 253d f431 ee3c
000002c0: 1d20 d23d aa4a fe3d c547 a3bd e5bb 173e
000002d0: a9c0 993e fee6 8a3e 75e5 653e 30ac 613e
000002e0: 374b 96be bf2e 5a3e 5e40 9c3e 504d 883e
000002f0: 0a5c 493e a5fb 7c3e 6574 9d3e 96c8 22be
00000300: 2940 e9be e7df 083e 54c7 84be 1522 c6bc
00000310: ac23 4b3d 326f b7be fd8a 503e 8a03 513e
00000320: 5b59 0a3e 3b5f 843e 7dcc b03d aa83 d13d
00000330: fbb3 e13d 9e65 2ebe 4891 4bbd 9e86 433d
00000340: 3680 2cbc 1340 1cbe 14d4 003d 7f8f 343e
00000350: 7790 21be 9eb2 1e3e 09d4 283e 24d1 683e
00000360: 4aa5 1d3d 00f9 cc3d 7a71 8e3d 2177 953d
00000370: 3b77 ae3d ebf6 2cbe 025a 373f 1b5b 6a3d
00000380: f1a9 94bf 4d14 d63c fdf2 ac3d 7b83 e0bc
00000390: c3ac 543f b527 8c3f c1f1 c3bd 8e10 98be
000003a0: b865 a8bd 7bbd 12be e2f3 5fbd 0a3b 95be
000003b0: 51a1 383f f452 173e ee69 08be d722 2fbe
000003c0: 1c95 dbbe 278b 733e 4ca5 51bd 6b82 d23e
000003d0: 0d38 debe a2db f7bd 859d 86bd 8f4c bebd
000003e0: 91aa e8bc 7d5c a5bd 24dc 2b3e 4f92 75bd
000003f0: 4cdd a63d 3624 e4bd 0f94 4ebe 9020 f03e
-1.0611849 -0.41557807 0.038812947 -0.079230644 1.2575918 2.3020992 -0.50455093 0.4002129
-0.31700382 -0.27509457 -0.79786617 -0.6214054 0.45119897 0.3935563 -0.19403468 -0.2884465
-0.21587385 -0.2789915 -0.6352218 0.40691507 -0.2323996 -0.3631557 -0.61189276 -0.5545746
0.7613096 -0.54435986 0.25498846 -0.38330778 -0.56764466 0.20260443 -0.6522877 -0.62076557
-0.3108019 -0.5051331 0.4135862 -0.10666282 0.96858805 0.63375396 -0.25206697 0.5819349
-0.1700678 -0.32703486 -0.5073583 -0.399385 0.31829113 0.20815806 0.18786323 -0.18605807
-0.17989577 -0.22572164 -0.74749106 -0.27321568 -0.25575688 -0.3173724 -0.5508856 -0.5758327
-0.38145122 -0.56090844 0.22258759 0.20982507 -0.58762413 -0.69399804 -0.7014254 -0.074243166
-0.054256648 0.27140278 0.4334152 -0.1789867 0.3593401 0.19223553 0.26991212 0.4948826
0.1436327 0.339469 0.28580755 -0.039709732 0.27245012 -0.031720765 0.10357801 -0.22769746
-0.020654323 0.13484836 -0.08047888 0.071597196 -0.07027537 0.35993785 0.2100745 0.306065
-0.08379484 0.18403393 0.15505388 0.111161 0.052171387 0.124795385 0.22741888 0.4197761
-1.8750074 -0.00012227468 -0.5873026 0.39567572 1.0636117 1.0886666 0.27901867 0.48651806
-0.16004613 0.19208823 0.502349 -0.15693468 0.79636097 -0.47752738 -1.6214775 -1.0031283
-0.96135193 -0.28950226 -0.47413424 -0.17787479 -0.74266744 -0.2539507 0.13665508 0.065545075
2.2927916 -0.09127227 -0.58486927 -0.9996043 -0.6846262 0.62272155 0.53245884 0.25932315
-2.0226965 0.31543618 -0.48158902 0.34092554 0.37831706 -0.40745193 0.39941058 0.7265545
-0.09754163 0.4946588 -0.031918433 0.3534673 0.55917597 -0.47948232 -0.27763474 -0.49604225
-0.23779616 -0.10253226 0.58005804 -0.15501477 -0.26245648 0.3833151 0.12466147 0.46463782
1.3087801 0.42396632 -0.4727858 0.31379095 -0.22409324 0.03819989 0.6212733 0.16600567
-0.039995365 -0.07499003 -0.039343793 0.17382053 0.05313223 -0.011590405 0.23149487 0.31243226
0.16872758 0.24394052 0.37362552 -0.192974 -0.24828371 0.025515966 0.040327765 0.029076554
0.10260031 0.12416585 -0.07972673 0.1481777 0.300298 0.27129358 0.22450812 0.2203834
-0.2935426 0.21306895 0.30517858 0.26621485 0.19664016 0.2470537 0.30752864 -0.1589683
-0.45556763 0.13366662 -0.25933325 -0.024186173 0.049594566 -0.35827023 0.2036552 0.20411506
0.13510649 0.25853905 0.08632753 0.10230191 0.11020657 -0.17030951 -0.049699098 0.047735803
-0.010528615 -0.15258817 0.031452253 0.17632864 -0.15777765 0.15497825 0.16487135 0.22736031
0.03848771 0.100084305 0.06955238 0.07298113 0.08518835 -0.16891067 0.71621716 0.05721579
-1.1614362 0.026132727 0.08444784 -0.027406445 0.83076113 1.0949618 -0.09567595 -0.2970013
-0.08222526 -0.14330094 -0.054675944 -0.29146606 0.7212115 0.14777738 -0.13321659 -0.17103134
-0.428872 0.23783551 -0.05118303 0.41115126 -0.43402138 -0.121024385 -0.06573013 -0.09291946
-0.028401645 -0.08074281 0.16783196 -0.059953984 0.08147678 -0.11139719 -0.20173667 0.46899843

layers.3.bias f4 [32]
00000000: c73a 77be 4ac9 0d3d a8c8 283d 5cdd db3b
00000010: 16fe 4fbc 134a b13c 4acb a03e 6ed5 61bd
00000020: 2731 c1bb 9488 dcbc 4843 153f a0e6 853e
00000030: d80d af3e cea9 c53d 9f8e 823d 6245 e53d
00000040: eb80 fb3e 1c30 833d 6589 04be 8923 e33b
00000050: 7f11 29bd 88b5 523d 28a3 72bd 0a2e 98ba
00000060: 8e4e 143e 282d fb3e 5aa3 983e 122b 7a3e
00000070: b470 8a3d d987 503c 2f66 e1bd 3595 b3bd
-0.24143516 0.034615792 0.041206986 0.0067097377 -0.012694856 0.021641767 0.31405097 -0.055135183
-0.005895752 -0.026920594 0.5830579 0.26152515 0.3419025 0.09651528 0.06374859 0.11194874
0.49121794 0.064056605 -0.12943037 0.0069317264 -0.04127645 0.051442653 -0.05923763 -0.00116104
0.14483091 0.4905789 0.29812127 0.24430493 0.06759778 0.012727701 -0.11005818 -0.08768693

layers.3.weight f4 [32, 32]
00000000: 3060 09bf 6eb7 cbbe 806d cebd 61eb 3abf
00000010: 4667 583e 08e2 bbbc 1a7d bbbc a5b7 493f
00000020: 549d 423e 7ffd a9be bfbd df3d 07c0 f43d
00000030: 3f0a 1e3e 4a94 773e 67c2 3a3d d946 9ebd
00000040: 192c 693e 07bd b73d 632f 96be b815 e13c
00000050: 4964 e5bd ebe3 2abb df52 9c3e 0813 5bbd
00000060: f52f 423e 5ba2 193e ec5f d93b fb9f 55bd
00000070: f1e5 e63c a75b efbc 970a 52be 0b00 f5bc
00000080: d8f0 59bf 0227 8abe 86ee dabe 85f3 c2be
00000090: 876f e03e a1b9 cbbd 545f 1fbc 7a20 c3be
000000a0: f5a3 b6be 4503 ac3d 86c0 70be 7d47 debe
000000b0: d015 01bf 8099 36be 8b55 11bc 826a 86bd
000000c0: 3f4e c73f fd81 fabd abea 10bd 02d6 a2bf
000000d0: f477 473e 3a39 edbe 8328 0ebf c1d5 4f3d
000000e0: dc8c 13be dfee a0be a27c 6e3f cea4 bf3d
000000f0: 7cb2 38be 0f13 c7bd 8da0 c3bc 1112 1dbf
00000100: 2987 b93e 04a0 e5bd 21be 48be 5f93 0fbf
00000110: 18a8 f6bd d10a 26bd 65b6 5a3e 2481 af3e
00000120: 1f0f dc3d 6e77 0dbe 78f7 7fbe 0481 5abd
00000130: df41 81be b859 3b3f 4fbf 9abe 9f54 433e
00000140: 72fe 5a3e 3e8f 28bd 5875 863e 4b8b 16be
00000150: 0eae c23f 9c0b 74bd b866 f8be b50b b93d
00000160: 5b29 39bf 6e95 6c3d e9e8 9abe ba38 9f3f
00000170: 5799 f63e 1cc7 d43d 79e9 21be 1a25 2cbf
00000180: 76d1 a7be eb6b 3bbe c716 39be 42bb b63e
00000190: e80d 19be ad79 c33e 7458 7fbd 2f7c 333e
000001a0: 8150 323e f58c c3bd 8e0e 4cbd a7fb 2cbe
000001b0: cd6f 6a3e 1443 423d 595c 03bd 4422 dc3d
000001c0: 7a1b 0abe 2ca9 a83e 77e2 5f3c 0560 af3d
000001d0: f5f4 c6bd bb6a 833d 51e5 103e efbe aebc
000001e0: fecb 863e 2904 41be 7e2c 703d 6ab2 84be
000001f0: c413 273e 5fb0 613e 6152 383e 1cdf 8b3e
00000200: fe3a 99bb b193 8e3e 0a23 5abe 690b e13d
00000210: b120 27be b905 a0be 72da 993d a86f 8b3e
00000220: ff3b 01be 18c9 bf3d 031a 48be c61f 9b3e
00000230: 7bbd 923e 5487 20be db65 21be 7c31 cabc
00000240: 6663 52be 88ef 9b3e c4fe 903e 62e5 7d3d
00000250: b155 f33e 261e 243e 6cc2 e0bd cd0f cd3d
00000260: 678a 41be a6bf 81be 046e 8ebc aa51 e03e
00000270: 9a59 843e fc67 bc3d 4615 26be 4fa8 90be
00000280: 1b49 55bd a6fd 84be 01bc 943e 6b19 eb3e
00000290: 0b77 d9be 0486 30be fd5a 8abe adc9 09bf
000002a0: 5228 b7be c03a 653e 80b0 3dbe b421 d7bd
000002b0: 8823 153e b8ac 9fbe a98a 0b3e 0f4c a2bd
000002c0: baca 5a3d 1214 a13d 19a5 043e e5ef 143e
000002d0: eb45 b33d 7bed 1abe 32aa debe dc4e 813e
000002e0: fbd3 bd3d 5d47 d73e 3732 16bf be03 b03e
000002f0: b34b 283e eca4 4ebd cd46 b23e 85d0 a53e
00000300: ff17 bf3e 3118 173e 0db4 40bc 1585 383e
00000310: 1d3d d1bd 41c5 35be 98d8 2a3e af91 31bd
00000320: d018 c2bd 7454 c4bd e222 5ebe 6238 b53e
00000330: ad6e 873e 3af6 26be b410 c93d 2da9 7ebd
00000340: 772b 74be 8d29 edbd 755f 023d 7832 a0bc
00000350: ba4f d83e 61be f03c 7855 973e 651a b4bd
00000360: 8525 76be 0a3a e9bd 085f 1fbc 1f71 dd3e
00000370: 517f de3d 5e1f cebd 07ed 8a3d 0c27 cc3e
00000380: 7113 25be eaef ab3d 47ae 0fbe 13d2 34bc
00000390: f0f1 8c3d 67c4 3abe 54da 063e e8af bd3e
000003a0: 630f 803e a3b2 41be e539 d6bb 7573 88be
000003b0: 6b1c 633e 1eec e03e 29c8 62be 208d eb3d
000003c0: e2a5 09bd e815 de3d 80fc 283e 6295 ff3c
000003d0: d904 c43e 08e1 75be 5e6e a03e 1f38 143d
000003e0: 3052 6dbe 7e80 9c3d 5f4a 123e 33ce e23e
000003f0: f035 80bd e585 883d 77dd 85be 30a2 93be
-0.53662395 -0.39788383 -0.10079479 -0.7301541 0.21133146 -0.022934929 -0.022886802 0.78795844
0.19005328 -0.33201215 0.10924863 0.11950689 0.15433596 0.24177662 0.045595553 -0.07728357
0.22770728 0.08971601 -0.29333028 0.027476177 -0.112007685 -0.002607579 0.30531976 -0.053484946
0.18963607 0.1500334 0.006633749 -0.052154522 0.028185816 -0.029218508 -0.20511852 -0.029907247
-0.85133123 -0.26982886 -0.42760104 -0.38076416 0.4383509 -0.09947515 -0.009727318 -0.38110715
-0.35671964 0.08399061 -0.23510942 -0.43413916 -0.5042391 -0.17831993 -0.008870493 -0.065632835
1.5570754 -0.122318245 -0.035380047 -1.272156 0.19479352 -0.46332723 -0.55530566 0.05074096
-0.14409202 -0.31432244 0.93158925 0.09357606 -0.18036836 -0.09720432 -0.023880268 -0.6135569
0.36235932 -0.11212161 -0.19603778 -0.56084245 -0.1204378 -0.04053766 0.2135864 0.34278214
0.107450716 -0.1381509 -0.24996746 -0.053345695 -0.25245568 0.73183775 -0.30224082 0.19075249
0.21386126 -0.04115223 0.262614 -0.14701574 1.5209367 -0.059581384 -0.48515868 0.09035436
-0.7232873 0.057759695 -0.3025582 1.2439187 0.48163864 0.103895396 -0.15811719 -0.6724411
-0.32776994 -0.18302886 -0.18075095 0.3568974 -0.14946711 0.3817877 -0.062340215 0.17527841
0.17413522 -0.0954837 -0.049818568 -0.16892873 0.22894211 0.047427252 -0.03207049 0.10748723
-0.13487044 0.32941568 0.013664833 0.08563236 -0.097146906 0.064168416 0.14149977 -0.021331279
0.2632751 -0.18849243 0.05863618 -0.2591737 0.16316134 0.22039936 0.18000175 0.27318656
-0.004676222 0.27847055 -0.21302429 0.109885044 -0.16321065 -0.31254366 0.07512368 0.27233624
-0.12620543 0.093645275 -0.19541173 0.3029768 0.28660187 -0.15676624 -0.15761511 -0.0246818
-0.2054573 0.30456185 0.2831937 0.061986335 0.47526315 0.16027126 -0.10974583 0.100127794
-0.18900453 -0.2534153 -0.017386444 0.43812305 0.2584961 0.09199521 -0.16219053 -0.2825341
-0.052071672 -0.25974768 0.29049686 0.4591783 -0.42473635 -0.17238623 -0.27022544 -0.5382336
-0.3577295 0.22385693 -0.1852436 -0.10504475 0.14564335 -0.3118646 0.13627113 -0.07924663
0.05341599 0.07865156 0.12953605 0.14544638 0.0875357 -0.15129654 -0.43489224 0.25255477
0.09268948 0.42046633 -0.5867037 0.34377855 0.16435127 -0.05045025 0.34819642 0.3238565
0.37322995 0.14755322 -0.011761677 0.18019517 -0.102167346 -0.17751028 0.16684186 -0.043351825
-0.09477389 -0.09586421 -0.21692994 0.3539458 0.26451626 -0.16304865 0.09817639 -0.062173057
-0.23844706 -0.11580191 0.031829316 -0.019555315 0.42248327 0.029387655 0.29557395 -0.08794097
-0.2403775 -0.11388023 -0.009727247 0.43250367 0.108641274 -0.100645766 0.06783491 0.3987354
-0.16120698 0.08395369 -0.14031325 -0.011036414 0.068820834 -0.18238984 0.13169223 0.37048268
0.2501174 -0.18915801 -0.0065376633 -0.26650587 0.2217881 0.43930143 -0.22146668 0.11501527
-0.033605464 0.10844022 0.16502571 0.031199161 0.38284948 -0.24011624 0.31334203 0.036186334
-0.23175883 0.076416954 0.14286183 0.44297943 -0.06260288 0.06666163 -0.26145527 -0.28834677

layers.4.bias f4 [32]
00000000: d75a a2bd 79e3 163e 628c a1bd 3a05 663e
00000010: b2f0 f03e 51c9 183d d0e6 9dbd 3ba9 7abd
00000020: f280 27be 1ea1 ae3d adaf 56bd 0aed 043d
00000030: b054 f53d 7fff 083d 281e 8d3a 3843 103d
00000040: c5c9 34bc 887c 2e3d 104a ee3d 8fe8 d83d
00000050: fc42 20bc 8fdf 1c3e 3637 4b3d ff91 0abe
00000060: f920 6dbe 1267 67bd b0c0 943e 2cbe e9be
00000070: 9d71 64bd 77b5 253c 45ec fb3d eaa3 1fbd
-0.079274826 0.14735211 -0.07888104 0.22462931 0.47058636 0.037301365 -0.077100396 -0.061196547
-0.16357782 0.085268244 -0.05241363 0.03245262 0.119790435 0.033446785 0.0010766434 0.035220355
-0.011034434 0.04259923 0.1163522 0.10591232 -0.009781595 0.15319656 0.0496132 -0.13532256
-0.2315711 -0.05649478 0.2905326 -0.45652902 -0.055772413 0.010114065 0.12300924 -0.03897468

layers.4.weight f4 [32, 32]
00000000: b817 77bd cf2b 683e aaa3 0fbf 8997 4c3e
00000010: 0c5d 773e 3966 643e 683d a73a 1f9b 043f
00000020: 0c82 94bd 551d 95be 9c34 d7bd 5069 9cbe
00000030: 5615 123e ae66 743e 8505 23be 5d31 03bd
00000040: 416f 23bf 0c58 a2bd 18a4 333e 794e a4bb
00000050: c755 103d f53c 613d 91ee c0bd 69e6 fbbd
00000060: 486f 583d 58fd f23d ad24 cbbe 6fd0 e1be
00000070: 3632 0c3e 89b9 2cbe 2b4e ed3d c867 ee3d
00000080: ddae 1a3e 736d d2bd 0a45 da3e ada9 533d
00000090: 1728 4cbe 5a4c ab3d 98ad 01be 10c7 033e
000000a0: 58bf 29bd 06d2 0bbe 76f7 9abe b7eb ae3e
000000b0: 9673 9dbf 7c3d 5b3e 6511 5c3e 1912 4f3d
000000c0: 234a 4abf 3ae3 803c 4653 cebe 42cf da3d
000000d0: 5a1f 893d 4954 063d 03e1 abbd d04b 78be
000000e0: d43b 743d 668f ddbd f4f0 debe 06fe b43d
000000f0: d06b 11bf cb39 f23d d9dd 83bd 378e dcbd
00000100: cbaf 4fbe e4d8 253d b219 f73e e29c 0cbd
00000110: 39b4 00be 8611 7abe 9fd9 2b3e bec0 0dbf
00000120: 4863 3b3e 25af 5abe 23fc b53e 7247 32be
00000130: a91b b93e 723a 9cbe de78 69be d63d 0bbe
00000140: c64d 0e3e 070a 19be cf01 efbe 1d74 91bd
00000150: 5add ccbd 172f 3c3d d05b 153e 6bea 38bc
00000160: 7b66 03bf d7ec a1bc 104a de3e 557c 8cbe
00000170: 356d 93bc f0b6 ee3e ed2e 29bf 90bd 46be
00000180: 523c 043f bb1d e7be 8fdd 893e 5cc4 2cbf
00000190: 57d8 8c3e b3d3 0fbd 9de0 eebd 44cd e9bd
000001a0: cdae e83d 152a c3be afe8 173f 6b17 ed3c
000001b0: 4b62 18be 182e 833d 4af1 423d 5d0d bdbe
000001c0: abb6 863e f6fa bd3d 50fc c3bd f3fd 1dbf
000001d0: e4ec 70bd 498c 043e 5bf6 c53e b539 a23c
000001e0: a5f8 b53c 1410 fcbd c8b2 f13d eaf2 b73e
000001f0: 0d02 083e d9f8 0a3e f02b fabe 5166 2fbd
00000200: 2c5c 3d3e 108b 303c cb5c bcbe 4ffc d3bd
00000210: 0930 19be b223 f83c 5a43 7ebe a30e a8bd
00000220: a8d7 d5bd 05bc 09bd 176e 46be 2296 89be
00000230: 8f8e 9bbd b1e1 7fbe 4ee3 e93d 8df6 7dbe
00000240: 3460 b03e 4e3b edbd b8c0 20be 2167 8fbe
00000250: 3006 91be 78fc 973e 0e74 a2bc 44c0 c2be
00000260: 0f84 aebd 8058 25bf 0a05 dcbd f317 a63e
00000270: c1bd c3bd e95d 0cbe 500b 023e 11cc 16bd
00000280: 6e23 23bf 7dc9 b8be 922d f43e 6147 a5bc
00000290: 1cff 66be 49ab 553e 1f86 6dbe ef40 463e
000002a0: 4246 ebbd 6ffd 18be f700 66be cb46 5fbe
000002b0: 13af 003e 8ca2 47bf f497 aa3e 6f9a 9bbe
000002c0: bad1 babc 3f21 a33b 3ccc 033e 3f93 44be
000002d0: 1df2 2e3e 46c6 8b3e a1a0 533e 0cff 863e
000002e0: 451d f8bd be68 843b 00f2 423e e482 c2be
000002f0: 9190 9f3e a8a8 093e f637 22be 86ff 443e
00000300: 626b 90bf 551c 0e3e 5467 003f edbd 2dbe
00000310: 029b 78be 8956 45be 1f44 e9bd e360 d0bb
00000320: 2c9c 1d3d 8043 563d 91bf 5b3d 0167 a3bd
00000330: 963e 003f 06df 28be 8b55 3a3e 78b7 9e3e
00000340: 72d1 903d 2371 cb3d 584b 683e f5ec 623c
00000350: d875 813e 82ee 8fbe 84dc 233c 0a9d 083e
00000360: 650e 93bd ddaa d03d 6d85 fd3e 1329 c2bd
00000370: 50f1 bd3d 6794 cd3e 3445 a23d aea7 51bd
00000380: e6a8 be3d 9d01 b53e 132a b2be 5782 e73d
00000390: 9ecc 2a3e d801 ce3e 3c1e 5abd 2383 cdbe
000003a0: 8175 983e 33e1 de3c 65df 2ebd 858f ab3c
000003b0: c5ba aebd 68cd 89be 05c8 d6be 4979 c33e
000003c0: ff44 c53d e46e 3abd afea 83be 7a07 d7bd
000003d0: 330f d2be 81be b83d 9b11 c63c efc9 f93d
000003e0: 7410 43be 7d45 f3be 87b9 31bf fbe2 a5bc
000003f0: 8bc6 64be c409 3c3e f171 023d daa2 30be
-0.060325354 0.22672962 -0.56109107 0.19979681 0.24156588 0.2230462 0.0012759389 0.51799196
-0.07251367 -0.2912394 -0.10508081 -0.30549097 0.14265952 0.23867294 -0.15920074 -0.0320295
-0.63841635 -0.0792695 0.17543066 -0.0050142375 0.035238054 0.054989774 -0.09420503 -0.122998066
0.0528405 0.11864728 -0.3967642 -0.44104335 0.13691029 -0.16867651 0.11587175 0.116408885
0.15105768 -0.10274782 0.42630798 0.051675487 -0.19937168 0.08364172 -0.12663877 0.12868905
-0.041442245 -0.13654336 -0.30266923 0.3416421 -1.2300899 0.21410173 0.2149101 0.05055437
-0.79019374 0.01573335 -0.40297908 0.106840625 0.06695433 0.032795224 -0.08392527 -0.2424767
0.05962737 -0.10818367 -0.43543208 0.088375136 -0.56805134 0.118274294 -0.064387985 -0.10769313
-0.20281903 0.040490046 0.4826179 -0.034329303 -0.1256875 -0.24420747 0.16782235 -0.55372226
0.18299592 -0.21355875 0.35543928 -0.17410067 0.36153916 -0.3051334 -0.22800013 -0.13597807
0.13896856 -0.14945231 -0.46681067 -0.07102225 -0.10003157 0.045943346 0.14585805 -0.011286358
-0.5132825 -0.019766254 0.4341588 -0.27438608 -0.01799641 0.46623945 -0.6608723 -0.1940825
0.5165454 -0.4513987 0.26926848 -0.6748712 0.27508804 -0.035114 -0.11663935 -0.114161044
0.113614656 -0.38118044 0.5933942 0.02894183 -0.14881246 0.06405276 0.047593392 -0.36924258
0.2631124 0.092763826 -0.09569609 -0.6171562 -0.058819667 0.1294414 0.38664517 0.019802907
0.02221329 -0.12307754 0.11801678 0.35927516 0.13282032 0.1357149 -0.48861647 -0.042822186
0.18492192 0.010775343 -0.36789545 -0.103508584 -0.1495973 0.030290458 -0.2483038 -0.08205917
-0.10441524 -0.033626575 -0.19377933 -0.26872355 -0.0759555 -0.24988438 0.11420308 -0.24801083
0.34448397 -0.11583577 -0.15698516 -0.2800837 -0.28325033 0.29684806 -0.01983073 -0.38037312
-0.08521282 -0.64588165 -0.107431486 0.32440147 -0.09557677 -0.13707699 0.12699628 -0.036815707
-0.63725936 -0.36091223 0.47691017 -0.020175638 -0.22558254 0.20866121 -0.23195694 0.19360708
-0.1148801 -0.14940427 -0.22461306 -0.21804349 0.12566786 -0.779824 0.33319056 -0.3039126
-0.022805084 0.0049783285 0.12870878 -0.19196795 0.17084546 0.27299708 0.20666744 0.2636646
-0.12114958 0.0040408066 0.19037628 -0.37990487 0.31164983 0.13443244 -0.1584166 0.192381
-1.1282771 0.13877995 0.50157666 -0.16966982 -0.24277881 -0.19271292 -0.11389946 -0.006359206
0.038479015 0.052310467 0.05364949 -0.07978631 0.500955 -0.16491327 0.18196695 0.3099935
0.070711985 0.099336885 0.22684991 0.01385044 0.2528522 -0.28111655 0.0100013055 0.13341156
-0.0718048 0.101888396 0.49515858 -0.094804905 0.09274542 0.40152285 0.07923356 -0.051185302
0.093095586 0.35352793 -0.34797725 0.11304157 0.16679618 0.40235782 -0.05325149 -0.40139112
0.29777148 0.027206993 -0.042693514 0.020942459 -0.08531717 -0.26914525 -0.41949478 0.3817847
0.096323006 -0.04551591 -0.25764987 -0.10499473 -0.4102722 0.09020711 0.024178317 0.12196719
-0.19049245 -0.47513953 -0.6942372 -0.020249834 -0.22341363 0.183631 0.031846944 -0.17249623

layers.5.bias f4 [32]
00000000: 3066 653d 9032 0fbd 6118 893d 117e 85bd
00000010: 8adf 54be 92b5 97bd 2cf4 f33c d0f8 833c
00000020: caba 9c3c bc35 033e 757f f2bc 2fb3 543d
00000030: 2fe3 28bd 5c45 d33d 6d16 f43c 5ae9 a73c
00000040: 9627 763d e4d9 503d fcd7 093e 88fe 12be
00000050: a869 66bb c642 31ba f6a1 f7bc a3ee d13d
00000060: ebb8 b6bc 0ede 343c 3b1b 653e 48a3 193d
00000070: fea6 603d b0a5 093e 025e de3c bf7a 9a3c
0.056005657 -0.03496033 0.06694103 -0.06518186 -0.20788398 -0.07407679 0.029779516 0.016109854
0.019132037 0.12813467 -0.029601792 0.051928695 -0.041232284 0.103159636 0.02979585 0.020497013
0.060096346 0.050989047 0.13461298 -0.14354908 -0.003515819 -0.0006761964 -0.030228596 0.102505945
-0.022304973 0.01103927 0.22373669 0.037509233 0.054846756 0.13442111 0.027144436 0.018857358

layers.5.weight f4 [32, 32]
00000000: 76b7 323c 591e 043e eff5 303e 5e7f 7a3e
00000010: 8766 babd dbaa fd3d ab5c 4abe 1924 2dbd
00000020: 563d 78bd 4ee7 0dbe 6b78 063e 52a3 ddbd
00000030: 29bb 54be 58d6 c0bd 84ab 2abe 3d45 8a3e
00000040: 477c a5bd a9d6 243d 2d84 a73d 5871 88be
00000050: 8695 3fbe 791c dfbd 7686 b6bd 1aad 153d
00000060: 123b 14be 166a 1fbe 556b 7d3e d5ea 173e
00000070: 6a72 633d 2e85 5a3e 597c 09be 84a1 89be
00000080: 112a 8ebd 2589 0ebd 66b8 dd3d b112 acbd
00000090: c179 5bbc 65c7 6e3e 4c85 5abe 46e8 89be
000000a0: 2fe2 0b3d 292b f8bd 0db9 08be 1a3f 3abd
000000b0: ffcf 913c d3bf 9a3e c0a7 e7bd 7c23 813e
000000c0: 1d8a fa3c 877a 96bb 024f b23d a0ec 1f3e
000000d0: d7dc 55be dffa ba3d 6910 6dbd 020b 94bc
000000e0: e507 8c3d 82e4 a33d 0ce5 fe3c b8ad a73d
000000f0: 0e19 a73d 4a43 a43c 373a 6fbd ead3 46be
00000100: 68f7 ff3d fd76 8d3e 2cc9 0fbe fd28 7f3e
00000110: f109 383d c3ac dc3b 1b4f 263e 9e6d 373e
00000120: 7496 3bbe db42 583e ce61 89be 10f6 3639
00000130: b31c 573e 669c 173e 40fa 603d 086d a4be
00000140: 75e2 dfbd 3f98 19bd 7944 153e 7b45 113e
00000150: 67cd 023e aeb4 3fbb ec2d 413d 93a2 523d
00000160: 8801 9bbd c1ba 3bbe b197 d33c d99f 0fbd
00000170: 1653 f63d d7b7 18be b599 973d e484 413e
00000180: eb30 1b3e 0388 42be ba60 4d3e 4c82 0cbe
00000190: 6f37 273e caaa 063e a6f6 2fbe c259 efbc
000001a0: 5243 f43d 316d 50be 5233 e73d 34f2 8c3e
000001b0: 42f5 2bbe 0b3d c4bd ae7d 70be 757c 8fbe
000001c0: 68ce ac3e 92ca 6ebe 0985 15be f07b 313e
000001d0: 7441 543e 4432 703e 06af f0bc 475d 813e
000001e0: 9d7f a73e b08b 133e cbd1 253d 186e 5d3e
000001f0: e45d fabd 3667 3bbd b7c9 5abe d8b6 263d
00000200: 0520 5d3e 0b28 b63d 064a 8c3e 08c7 46be
00000210: c2a1 85bc 8116 3bbd 97e4 f3bd adf5 9ebe
00000220: a84c bfbf cc23 d03d dbc6 8cbe 5f31 1ebd
00000230: a7e1 1f3f 9409 58be 85a4 15be 4a51 ccbe
00000240: 521e 9ebd 131e e73e 0ec8 0f3e 8260 b93e
00000250: a1b5 da3d a2d6 20bf 5bc3 a03e 5968 e4be
00000260: 33be 4f3e e5ad f9bd f16c 4a3f e1cc 98be
00000270: 3469 793d 6303 f2be be27 c43e dd55 b43e
00000280: 20b6 133e 2687 31be 7d06 c9bd d288 b3bc
00000290: faa7 00bd 76d7 ae3e f389 f83d 82b4 4b3c
000002a0: 1217 a7bd 30df 83bd 31bd acbe 94c8 c4bd
000002b0: 8f83 ac3d 5707 5dbe d7cf 1c3e c7f8 42be
000002c0: 064d 703d 570a f43e 8a0c ff3d b43f 5cbe
000002d0: 3931 e93e 6a7a e1bd f0d9 0e3e 3b72 b3bd
000002e0: d9be 813c a9bf 1abe 9103 66bd 0fa9 623e
000002f0: 2d42 783d e962 82be 3d09 74bc c237 8bbc
00000300: 6be6 69bd 767c d33a 1374 273d 0f04 223d
00000310: cd2b 0f3e fce8 9bbc f249 663c 2dcd a7be
00000320: e038 563d 0d62 853d 0b31 cfbe fc8a b53d
00000330: 7a8a 3b3d 8c71 e7bd 7a31 4fbe d903 5f3d
00000340: 7f6b 5dbe 68bf e63d dbf2 c4bc 5b31 21be
00000350: 9a03 f9be 3105 48bd 64ce 243c c1cb db3c
00000360: f3bf 05bd 104d 9cbc 22e8 c13c 2133 6fbd
00000370: 32be a83d 6f09 a3be 18c6 cc3d 8ad0 9c3d
00000380: 326f dd3d a19a a33d 1a77 63be 2749 99be
00000390: ea6e 673e 7bac 593e 5666 933d e67b 2fbe
000003a0: 2e77 7a3d 3791 b03d 872c 3dbe 531e 6cbe
000003b0: ea9b 59bd 613c 843e 738f 35be 021c fdbd
000003c0: de85 25bd db4c bfbd 9eb8 33bd 31bb 563e
000003d0: d06c 56be adcb 94be c7c7 8c3e e749 0d3e
000003e0: c2fc 0c3e cb2e 27be 910b 7a3e e562 2e3e
000003f0: ebea b53d 93ef 6bbd 814a 743d 5392 5b3e
0.010907998 0.12902202 0.17281316 0.24462649 -0.09101587 0.12386104 -0.19761913 -0.042270754
-0.06060537 -0.13857767 0.13131873 -0.108221665 -0.20774521 -0.09415883 -0.1666699 0.2700595
-0.08080345 0.04024378 0.081795074 -0.26648974 -0.18709382 -0.108941026 -0.08912365 0.036542036
-0.14475659 -0.15567812 0.24747975 0.14835675 0.055529036 0.21339867 -0.13426341 -0.2688104
-0.06941617 -0.03479876 0.10826187 -0.084020026 -0.013395728 0.2331825 -0.21339911 -0.26935023
0.034151252 -0.12117607 -0.13351841 -0.045470335 0.017799376 0.30224475 -0.11311293 0.25222385
0.030583436 -0.004592243 0.08706476 0.15617609 -0.20885025 0.09129881 -0.057876978 -0.018071655
0.06837443 0.08002569 0.031115077 0.08187431 0.08159076 0.020051617 -0.058405127 -0.19416776
0.12498361 0.27629843 -0.14041585 0.2491798 0.044931356 0.006734462 0.16241114 0.1791291
-0.18319112 0.21119253 -0.26832432 0.00017448538 0.21007042 0.14805755 0.054926157 -0.32114434
-0.10931865 -0.03749871 0.14576901 0.14186661 0.12773667 -0.002925198 0.047162935 0.051424574
-0.075686514 -0.1833296 0.025829168 -0.035064552 0.12027566 -0.1491388 0.07402364 0.1889835
0.1515538 -0.18997197 0.2005643 -0.1372158 0.1632974 0.13151088 -0.17183933 -0.029217605
0.11926903 -0.20354153 0.112890854 0.27528536 -0.16792777 -0.095819555 -0.23485443 -0.2802464
0.33751225 -0.23319462 -0.1460153 0.17332435 0.20728093 0.23456675 -0.029380333 0.25266477
0.3271455 0.14408755 0.040483277 0.21624029 -0.122249395 -0.045752726 -0.2136601 0.040701717
0.21594246 0.08894356 0.27400225 -0.19411862 -0.016312484 -0.04567576 -0.119088344 -0.3104681
-1.4945269 0.10163078 -0.27495465 -0.038621303 0.62453693 -0.21097404 -0.1461354 -0.3990577
-0.07720627 0.45140132 0.14041159 0.36206442 0.10679174 -0.62827504 0.31399044 -0.4461086
0.20287399 -0.12191371 0.7907248 -0.2984381 0.060891345 -0.4726821 0.3831157 0.35221758
0.14424944 -0.17336711 -0.09815691 -0.021915827 -0.031410195 0.3414876 0.12135687 0.012433173
-0.08158697 -0.06439054 -0.33738092 -0.0960857 0.0842353 -0.21584831 0.1531366 -0.19040214
0.058667205 0.4766414 0.124535635 -0.21508676 0.45545366 -0.11009677 0.13950324 -0.08762022
0.015838074 -0.15112175 -0.056155745 0.22134803 0.060609985 -0.25466087 -0.014894781 -0.01699436
-0.05710451 0.0016135115 0.04088218 0.03955465 0.13981552 -0.019031994 0.014055716 -0.32773724
0.052300334 0.06512842 -0.40467104 0.088644 0.04578636 -0.11300954 -0.20233718 0.05444703
-0.21623038 0.112669766 -0.024041584 -0.15741484 -0.4863556 -0.048833076 0.010058973 0.026830556
-0.03265376 -0.019079715 0.02367026 -0.05839837 0.08239402 -0.31843135 0.09998721 0.07656963
0.108122244 0.079884775 -0.22213402 -0.29938623 0.22600904 0.21257202 0.071972534 -0.17137107
0.061148815 0.086214475 -0.18474017 -0.23058443 -0.053127207 0.25827315 -0.17730503 -0.12358858
-0.04041087 -0.09340831 -0.043877237 0.20969845 -0.20939946 -0.29061642 0.27496168 0.13797723
0.13768294 -0.16326444 0.24418475 0.17029913 0.08882698 -0.057601523 0.059641365 0.21442537

final_layer.weight f4 [2, 32]
00000000: 5f08 63be e34a 823d ecd5 2a3e 1807 01bf
00000010: 4663 21bf 25be 3abd 7bfb 8a3e 1232 113e
00000020: 2f02 e03e 19aa a03e e76b 03bf da54 e03e
00000030: 3428 3bbe b432 023f f7db 063f 1138 153e
00000040: 17d3 79be 7979 db3e f798 033f 2e4b 1f3e
00000050: 613f 4a3d 240b a63e 76f5 9dbc e752 9a3c
00000060: 206a 9b3e 6975 b63e 6df0 20bf f02b 353e
00000070: e082 22bd c796 113f 4d15 ee3e a20d d5be
00000080: ab9e 383d 71c1 8cbe ce29 463e d1f7 bcbb
00000090: e005 0abd 3def 21be 4fd8 e23d c294 433d
000000a0: 7b0d 43bc 0468 91bc deb6 b6bc 6856 8e3d
000000b0: 9fdb 22be 4f53 13bc b4c0 3f3d f671 d53b
000000c0: f280 cf3d 7ec2 0e3e b5bc bbbb c74e e4bd
000000d0: 6b2e f03d 2e43 4e3c 439f 52bd f198 3e3e
000000e0: fbbb e5bd f1f3 33bd 6b10 aebc 012b 50be
000000f0: a7d0 503e 887a bc3c fc00 323d ab54 6ebc
-0.22171162 0.0636194 0.16683167 -0.5040145 -0.63042104 -0.045591492 0.2714499 0.14179257
0.43751666 0.31379774 -0.5133652 0.43814737 -0.18277055 0.50858617 0.5267939 0.14572169
-0.2439693 0.42866114 0.5140528 0.15556023 0.04937685 0.32430375 -0.019282084 0.018838359
0.30354404 0.35636452 -0.6286686 0.17692542 -0.039675593 0.5687069 0.46500626 -0.41611964
0.045073193 -0.27491334 0.19351885 -0.0057668467 -0.03369701 -0.15813918 0.11076414 0.04774929
-0.011905069 -0.017749794 -0.022303995 0.069500744 -0.15904091 -0.00899203 0.046814635 0.0065138293
0.10132016 0.1394138 -0.0057292827 -0.11147838 0.117276035 0.012589259 -0.051421415 0.1861303
-0.11217495 -0.043933813 -0.021248063 -0.20328905 0.20392095 0.023007646 0.04345797 -0.014546554

final_layer.bias f4 [2]
00000000: 0310 043d bda1 1a3d
0.032241832 0.037751902
